finals/neuralq6.pt (torch, 5208 bytes, 3 tensors)

model.0.weight f4 [128, 4]
0	0xbe7a66d6	-0.24453291
1	0x3efd9e52	0.4953485
2	0x3e758ccb	0.2397949
3	0x3e627ca6	0.22117862
4	0xbe0640ec	-0.13110703
5	0xbe8bb84d	-0.27289048
6	0xbe7be2ce	-0.24598238
7	0xbc864a09	-0.016392725
8	0xbdf5e9c8	-0.12007481
9	0xbcf5f160	-0.030022323
10	0x3ed75e28	0.42064023
11	0xbce03980	-0.027371168
12	0xbe9871f7	-0.29774448
13	0x3d6a089a	0.05713711
14	0x3eb1750e	0.34659618
15	0x3e7c7c4f	0.24656795
16	0x3e27a208	0.16370404
17	0x3d069aba	0.032862402
18	0x3ea533fd	0.32266226
19	0x3ee143af	0.4399695
20	0xbd6b36c0	-0.05742526
21	0x3da194b8	0.07889694
22	0xbc8b4b40	-0.017003655
23	0xbe4c43b4	-0.19947702
24	0x3de5fad3	0.112294815
25	0xbeff3cee	-0.49851173
26	0xbd3fac90	-0.046795428
27	0xbed263a8	-0.41091657
28	0x3bfcf601	0.0077197556
29	0x3ee64a81	0.44978717
30	0xbec4f89f	-0.38470933
31	0x3e840db9	0.2579172
32	0xbda849d1	-0.08217204
33	0x3ead8425	0.3388988
34	0xbe9c5102	-0.30530554
35	0x3eda5270	0.4264102
36	0x3d851069	0.064972706
37	0xbedf58a4	-0.43622315
38	0xbecdd45a	-0.40201074
39	0xbe58440a	-0.21119705
40	0xbd73a4be	-0.059483282
41	0x3e33cf8b	0.1755964
42	0x3dc41f6d	0.095763065
43	0xbe9b4a32	-0.30330044
44	0xbe652818	-0.22378576
45	0x3e7a6ff8	0.24456775
46	0xbc342740	-0.010995686
47	0x3e604de4	0.21904713
48	0xbe559418	-0.20857275
49	0x3e30114e	0.17194101
50	0xbe2a21e1	-0.16614486
51	0x3e4758b7	0.19467436
52	0xbe02bf3c	-0.12768263
53	0xbee47e2c	-0.44627512
54	0xbe9795f2	-0.29606587
55	0x3eaf4bd2	0.34237534
56	0x3e7c77ad	0.24655028
57	0x3dfa9868	0.122361004
58	0xbde8783f	-0.1135106
59	0xbd87df74	-0.06634417
60	0xbeed9d50	-0.46409082
61	0xbe882068	-0.26587224
62	0x3ebab4d0	0.36466074
63	0x3eacae9a	0.3372696
64	0xbdc0a9c9	-0.09407384
65	0x3ea79364	0.32729638
66	0x3e2d5fba	0.16931048
67	0x3a48a371	0.0007653749
68	0x3d9a9a2a	0.07548936
69	0x3dae132c	0.084997505
70	0xbe602e6f	-0.21892713
71	0x3ee029bf	0.4378185
72	0xbe7970a0	-0.2435937
73	0x3dd3d410	0.10343182
74	0x3e8b769c	0.2723893
75	0xbe6a9a18	-0.22910345
76	0x3e87b0c0	0.26502037
77	0x3eb77acc	0.35835874
78	0xbd50182f	-0.050804313
79	0x3ebc68d6	0.36798733
80	0x3ec4b17a	0.38416654
81	0xbd8f7016	-0.070038006
82	0xbe7ca6da	-0.24673024
83	0x3ec966ec	0.39336336
84	0x3cc5fba0	0.024167836
85	0xbe9577d4	-0.29192984
86	0x3ee4837e	0.4463157
87	0x3eeb03f8	0.45901465
88	0x3ec95e79	0.3932989
89	0x3e9db58b	0.3080257
90	0xbeb0afdd	-0.34509173
91	0x3ef0b9e7	0.47016832
92	0xbeb7cb56	-0.3589732
93	0xbe30aa67	-0.17252503
94	0xbeb20313	-0.3476797
95	0x3eaef2ec	0.3416971
96	0xbe7c60d6	-0.24646315
97	0xbc0e04b5	-0.008668114
98	0xbe6ad45a	-0.22932568
99	0x3e41d135	0.18927462
100	0xbd59af40	-0.053145647
101	0xbeac8660	-0.3369627
102	0xbef6d5ee	-0.4821009
103	0xbeb64c70	-0.35605192
104	0xbe0e228f	-0.1388037
105	0x3ecde7eb	0.40216002
106	0x3de4c50f	0.111703984
107	0xbeb39070	-0.35071135
108	0x3e0cf43d	0.13765045
109	0x3ecda80e	0.40167278
110	0xbeaa0a8c	-0.33211172
111	0x3e327954	0.17429096
112	0xbefde300	-0.4958725
113	0x3d760f90	0.060073435
114	0x3ea90d2c	0.33017862
115	0x3e21f874	0.15817434
116	0xbe04ee70	-0.12981582
117	0xbef8d480	-0.48599625
118	0xbe895264	-0.26820672
119	0x3ec3ccf4	0.38242304
120	0xbe96b007	-0.29431173
121	0x3ef50474	0.4785496
122	0xbee4cdb1	-0.4468818
123	0x3ee8e82f	0.45489642
124	0xbeb73244	-0.35780537
125	0xbed9fa9e	-0.42574018
126	0xbea9e62e	-0.33183426
127	0xbc9b44c0	-0.018953681
128	0xbea78e9e	-0.32725996
129	0x3ebcdc2e	0.36886734
130	0x3d95f118	0.073213756
131	0x3e817824	0.25286973
132	0xbebf90bc	-0.3741511
133	0x3ddcb050	0.107758164
134	0x3e2b22f8	0.16712558
135	0x3e608a60	0.21927786
136	0x3ecb59d2	0.39716965
137	0xbe3e6458	-0.18592966
138	0x3e5e41b7	0.21704756
139	0x3e05bb25	0.13059671
140	0xbe403d04	-0.18773276
141	0xbedea29e	-0.43483442
142	0x3edf2ee4	0.43590462
143	0x3ea97faa	0.33105212
144	0x3dfa1c93	0.12212481
145	0xbef8eecf	-0.48619696
146	0xbef20cdf	-0.47275445
147	0x3e857225	0.26063648
148	0x3ebcf322	0.36904246
149	0x3dd55080	0.10415745
150	0x3d9041d7	0.07043808
151	0xbe59a762	-0.21255258
152	0x3e95ebff	0.29281613
153	0xbe962d62	-0.293315
154	0x3e1dd6cf	0.15413974
155	0x3e8d5bd3	0.2760912
156	0xbeee3b53	-0.46529636
157	0x3e858cdf	0.2608404
158	0xbedaec91	-0.4275861
159	0x3e2fa0bb	0.17151158
160	0xbec261a4	-0.3796512
161	0xbe4ef239	-0.20209588
162	0x3e92d24c	0.2867607
163	0xbe3313e8	-0.17488062
164	0x3e9f00c3	0.3105527
165	0xbe95719b	-0.29188237
166	0x3b3d193d	0.0028854155
167	0x3dc7de9c	0.09759256
168	0xbdf4d0fc	-0.11953923
169	0x3ee67bcc	0.45016325
170	0x3ed9afb7	0.42516872
171	0xbee88e25	-0.45420948
172	0xbda9ede2	-0.08297326
173	0xbcd8b0bd	-0.026451463
174	0x3d801a7c	0.062550515
175	0xbd52ebcd	-0.05149441
176	0xbe9211ba	-0.2852915
177	0x3e2701bc	0.16309255
178	0xbeb15d21	-0.34641364
179	0x3edbcf2e	0.42931503
180	0x3e2ac9b5	0.16678508
181	0xbe4fc334	-0.20289308
182	0x3eb4f295	0.35341325
183	0xbe54be56	-0.20775732
184	0x3ede36a2	0.43401057
185	0xbdd748e7	-0.10511952
186	0x3cb0026b	0.021485528
187	0xbe7dd983	-0.24790005
188	0xbe00f948	-0.12595093
189	0xbec6ba14	-0.3881384
190	0x3e4704e0	0.19435453
191	0xbdb9dca8	-0.0907529
192	0xbe8e8670	-0.27836943
193	0xbddf0b08	-0.10890776
194	0x3ed19f90	0.4094205
195	0xbeb4480a	-0.3521121
196	0x3c4d09e3	0.012514564
197	0x3e92fa7a	0.28706723
198	0xbe5f1adc	-0.2178759
199	0x3e90c83d	0.2827777
200	0xbd9dd9f0	-0.07707584
201	0xbed63e5e	-0.41844457
202	0x3dcbd2a0	0.09952283
203	0xbe45e9f8	-0.19327533
204	0xbe52eecc	-0.20598906
205	0xbe64cf50	-0.22344708
206	0xbe599320	-0.2124753
207	0xbd9fb8f0	-0.07798946
208	0xbe739594	-0.23787528
209	0x3e0c6a53	0.13712434
210	0xbe10bad5	-0.14133771
211	0xbece51fd	-0.40296927
212	0xbe454024	-0.19262749
213	0x3e89009c	0.26758277
214	0xbea52068	-0.32251287
215	0x3e6d485c	0.23172134
216	0x3ddf4d6b	0.10903438
217	0x3e880212	0.2656408
218	0x3ed0a4f1	0.4075084
219	0xbe78ad13	-0.24284773
220	0x3ec76a8e	0.38948482
221	0xbe7e187e	-0.2481403
222	0x3e42773f	0.18990801
223	0xbef79c80	-0.48361588
224	0xbe006e68	-0.12542117
225	0x3f05ba16	0.5223707
226	0xbe7df88d	-0.24801846
227	0xbd2d8c74	-0.042370275
228	0x3e2bbb5d	0.16770692
229	0x3e8c62f3	0.27419242
230	0x3e9dcf7f	0.3082237
231	0xbe911ac7	-0.28340742
232	0xbd2a57f0	-0.04158777
233	0x3d2dd070	0.04243511
234	0xbdad66b0	-0.08466852
235	0xbdbfae20	-0.093593836
236	0x3efbd752	0.49187714
237	0xbe80e974	-0.2517811
238	0xbe2cbf4e	-0.16869852
239	0x3ea654a7	0.3248646
240	0x3df7a80d	0.120926
241	0xbe28e948	-0.1649524
242	0xbd184a0e	-0.03718
243	0x3d82c341	0.06384898
244	0x3e67c1df	0.2263255
245	0xbeeed416	-0.46646184
246	0x3ef040e2	0.46924502
247	0xbeb51237	-0.3536546
248	0xbdee6c69	-0.11641771
249	0x3ec78b9c	0.389737
250	0xbe1e1a8e	-0.15439817
251	0xbddd04d4	-0.107919365
252	0xbda9ef35	-0.08297578
253	0xbeab8a6b	-0.33504042
254	0x3e1da42a	0.15394655
255	0xbeb9c79a	-0.36285096

model.0.bias f4 [128]
0	0xbe9efb0b	-0.31050906
1	0x3ed8bd52	0.4233194
2	0xbdb8ae70	-0.09017646
3	0x3ef4e180	0.47828293
4	0xbdfdf3ba	-0.12400003
5	0xbe84dfd2	-0.2595201
6	0xbe392d42	-0.1808367
7	0xbdfe4b20	-0.12416673
8	0xbea58fd4	-0.32336295
9	0x3e0315d5	0.12801297
10	0x3edc1968	0.42988133
11	0xbeac6008	-0.33667016
12	0x3eeee4eb	0.46659026
13	0x3debf368	0.115210354
14	0xbe9571ac	-0.29188287
15	0xbe3969b4	-0.18106729
16	0x3e80eb06	0.2517931
17	0x3eea4826	0.4575817
18	0xbe453c8c	-0.19261378
19	0xbea8a7a0	-0.32940388
20	0xbd8157f6	-0.06315605
21	0xbea223c6	-0.31667918
22	0xbead3943	-0.3383275
23	0x3dc81aa7	0.097707085
24	0x3ee8587a	0.45380002
25	0xbef267f8	-0.47344947
26	0x3e49e9c7	0.19718085
27	0xbda70b3f	-0.08156442
28	0xbed68c26	-0.419038
29	0xbdc8b4f8	-0.09800142
30	0x3dcc9426	0.099891946
31	0x3dbe9fd8	0.093078315
32	0xbec13466	-0.3773529
33	0xbebb5266	-0.36586303
34	0x3c54055b	0.01294073
35	0xbe23da00	-0.16001129
36	0x3ef5e966	0.4802963
37	0xbe584597	-0.21120296
38	0xbe5d5855	-0.21615727
39	0xbddc5532	-0.10758437
40	0x3ed09ecd	0.40746155
41	0xbe6caef3	-0.23113613
42	0x3edb7fd0	0.4287095
43	0x3e8e2beb	0.27767882
44	0x3eb8dabf	0.3610439
45	0x3edab00d	0.4271244
46	0x3e70c1c4	0.23511416
47	0xbee75ec6	-0.45189494
48	0xbee30538	-0.4433992
49	0xbea918b5	-0.33026662
50	0x3dd79950	0.10527289
51	0xbedfe02e	-0.43725723
52	0x3d97fcf5	0.074212946
53	0xbea8ec4e	-0.32992786
54	0xbebe9741	-0.37224773
55	0xbe9bfdfc	-0.30467212
56	0x3d384f45	0.044997472
57	0x3e8b8e56	0.2725703
58	0xbe846180	-0.25855637
59	0xbdaa849f	-0.08326077
60	0x3df45d76	0.11931889
61	0x3bfa5a26	0.007640141
62	0x3de42daa	0.11141522
63	0x3ea5b4ef	0.32364604
64	0x3eb0184e	0.34393543
65	0xbd280ac8	-0.041025907
66	0x3e42eab0	0.19034839
67	0x3e3215f5	0.17391188
68	0x3e951638	0.29118514
69	0x3cae6a48	0.021290913
70	0xbee2efb9	-0.4432352
71	0x3e84dcba	0.2594965
72	0xbe3b9b18	-0.18320882
73	0x3eb88c72	0.3604465
74	0xbe6256c0	-0.22103405
75	0x3ea67cba	0.32517034
76	0xbdd52662	-0.104077116
77	0xbcb345ce	-0.021883871
78	0x3e248943	0.16067986
79	0x3e5fd086	0.21856889
80	0x3e933fe1	0.28759673
81	0x3eaa9dbb	0.33323464
82	0x3ce040f8	0.02737473
83	0xbe09a0b3	-0.13440208
84	0x3eb6bafd	0.35689536
85	0xbd41f865	-0.047356028
86	0x3ebdc41a	0.37063676
87	0x3efaa0b7	0.4895074
88	0xbedf8eb0	-0.4366355
89	0x3e1dac8f	0.15397857
90	0x3d9fdf78	0.07806295
91	0x3f00ad26	0.50264204
92	0xbdd799e3	-0.105273984
93	0x3d79dd7d	0.061002243
94	0x3de9f258	0.114231765
95	0x3d892557	0.06696575
96	0xbef429ea	-0.47688228
97	0xbeae08ce	-0.33991092
98	0x3ebdfeed	0.37108555
99	0xbed61d0a	-0.4181903
100	0x3e9c7ba7	0.3056309
101	0x3efefa76	0.49800462
102	0x3c1ac572	0.009446489
103	0x3da204d0	0.07911074
104	0xbd7617d5	-0.06008132
105	0xbd059289	-0.03261045
106	0x3ee6f5ef	0.45109507
107	0x3eddd2e3	0.43324956
108	0xbe613760	-0.2199378
109	0xbed93e5a	-0.42430383
110	0xbd551220	-0.05201924
111	0x3e09bde4	0.13451344
112	0x3e159049	0.14605822
113	0xbe523e97	-0.20531689
114	0x3be8ba4a	0.0071022855
115	0x3e841039	0.25793627
116	0x3e4ac464	0.1980148
117	0x3e9e1f34	0.3088318
118	0x3e4fce1b	0.20293467
119	0xbdd73ad8	-0.105092704
120	0xbedb5f01	-0.4284592
121	0x3e9844f0	0.29740095
122	0xbd1c0c2f	-0.038097557
123	0x3d8d76e2	0.06907441
124	0x3d4c411d	0.049866784
125	0xbed5c728	-0.41753507
126	0x3e86c19d	0.2631959
127	0x3eb9fb28	0.3632443

model.2.weight f4 [1, 128]
0	0xbd676e7f	-0.05650186
1	0xbc8e7ba7	-0.017392946
2	0xbc8d3d0b	-0.017241022
3	0x3daabaa9	0.08336384
4	0xbdd3ee3c	-0.10348174
5	0x3d9259a0	0.07146001
6	0xbbad04fa	-0.0052801343
7	0x3e0d82f0	0.1381948
8	0xbc281214	-0.010258216
9	0x3db9f65f	0.09080195
10	0x3cf6444b	0.030061862
11	0xbd665e19	-0.056242082
12	0x3dda3d6c	0.106562465
13	0xbc44ecf5	-0.012019386
14	0x3c3727e2	0.011178942
15	0x3da27ba9	0.079337426
16	0xbc5f59f0	-0.013632283
17	0x3d1b2ca2	0.037884362
18	0x3c9e6258	0.019334003
19	0x3d57ef3e	0.052718394
20	0xbd80fdfd	-0.062984444
21	0x3d2026e7	0.0390996
22	0x3cefb543	0.029261237
23	0x3ca7aabf	0.02046716
24	0x3d98bf07	0.074583106
25	0x3c5fc62b	0.013658087
26	0x3e33e1e8	0.17566645
27	0x3e0f206c	0.13977212
28	0xbc47d0e6	-0.012195801
29	0xbd8b6f0b	-0.06808289
30	0x3d723449	0.059131894
31	0x3d4b5a21	0.0496465
32	0xbc0a43f4	-0.008439053
33	0xbc69dda0	-0.014274031
34	0xbda89567	-0.08231621
35	0xbdac3610	-0.08408749
36	0x3ccaa984	0.024739034
37	0x3c7925c4	0.015206758
38	0xbda7916d	-0.08182035
39	0x3daca54b	0.08429965
40	0x3dc5d680	0.09660053
41	0xbde9f784	-0.11424163
42	0x3dd86da7	0.105677895
43	0x3dedff1d	0.116209246
44	0x3dcbe990	0.09956658
45	0xbd237c41	-0.03991342
46	0xbb10760a	-0.0022043013
47	0x3d0f2388	0.034945995
48	0x3cc95fb5	0.02458177
49	0xbd7ab44f	-0.061207112
50	0xbd950a2c	-0.07277331
51	0x3ca95a1c	0.02067285
52	0xbcaa76dc	-0.02080863
53	0x3c8970f3	0.016777491
54	0xbc994cb1	-0.018713327
55	0xbda80ce8	-0.08205587
56	0x3e23acfb	0.15983956
57	0x3dd6864b	0.10474833
58	0x3d27a9cd	0.04093342
59	0xbc55be0d	-0.0130458
60	0x3c09651b	0.008385922
61	0xbe1a2281	-0.15052225
62	0x3e0a22cb	0.13489835
63	0xbd1abeba	-0.037779547
64	0x3dc7d278	0.097569406
65	0x3d8e662d	0.06953082
66	0xbcecbab2	-0.028897617
67	0xbda72920	-0.08162141
68	0x3d383e92	0.044981547
69	0xbda1024e	-0.07861768
70	0xbd601cdf	-0.054715034
71	0x3e1220a1	0.1427026
72	0x3cb243ad	0.021760786
73	0xbd2fd224	-0.042925015
74	0xbd3c35ae	-0.04594963
75	0x3be0a2ca	0.0068553435
76	0xbd809218	-0.06277865
77	0xbdcf4f3b	-0.10122534
78	0x3daad293	0.08340945
79	0x3ca67516	0.020319503
80	0x3dd89610	0.10575497
81	0x3dd4c50a	0.10389145
82	0x3ba01de9	0.004886378
83	0x3dbd58a2	0.09245421
84	0xbd09265c	-0.033483848
85	0x3d11834a	0.035525598
86	0xbb2e8ba8	-0.0026633535
87	0x3dc34f07	0.09536558
88	0xbd989983	-0.07451155
89	0xbd9077d3	-0.07054105
90	0xbe31ada0	-0.17351389
91	0x3b0b78a5	0.0021281627
92	0x3c8c3e83	0.017119652
93	0xbd01f6c0	-0.03172946
94	0x3d74c19d	0.059754957
95	0x3c21ed00	0.009883165
96	0x3db68f54	0.089140564
97	0xbc6b297b	-0.014353151
98	0xbb9f0a6d	-0.004853538
99	0x3d5013f4	0.05080028
100	0x3d4a9583	0.04945899
101	0x3e2a766e	0.1664674
102	0x3db11ddb	0.086482726
103	0x3da5335e	0.08066438
104	0xbbe34d35	-0.006936694
105	0x3d79262a	0.06082741
106	0x3d557ec9	0.052122865
107	0x3e7b4664	0.2453857
108	0x3c729a34	0.014807273
109	0xbd854018	-0.065063655
110	0xbd6ab22b	-0.05729882
111	0x3c1a9919	0.009435915
112	0xbb63d77e	-0.0034765895
113	0xbd39fa77	-0.045404878
114	0x3dc712b5	0.09720365
115	0xbd50d284	-0.050982013
116	0x3dbeb8ec	0.09312615
117	0xbc0fb31a	-0.0087707285
118	0xbdde060a	-0.108409956
119	0xbd8bb02c	-0.068207115
120	0xbd810f91	-0.06301797
121	0x3e7086a0	0.23488855
122	0x3d991747	0.07475143
123	0x3e75c914	0.24002486
124	0xbd6c586b	-0.05770151
125	0x3daacb79	0.083395906
126	0x3df6f2a3	0.12057998
127	0x3b3f0158	0.0029145088
