finals/neuralq7.pt (torch, 5208 bytes, 3 tensors)

model.0.weight f4 [128, 4]
00000000: aa8f 1ebe c0f9 4b3e 2c01 e7be a674 cb3d
00000010: 0eb0 0ebe 7a7b dc3e 0da4 f0be 1a63 9a3a
00000020: 3887 d8be 5b3f 5e3e 40e6 2dbd 9253 4cbd
00000030: 3236 90be 0855 6b3e e072 7fbd 08f2 f4be
00000040: 40c3 9dbc 9cbc 1cbe b06f 6bbe fada b4be
00000050: 5546 c53e e0e1 27be 6556 81be 29d1 c7be
00000060: 6cf3 673e e4fc ce3e 86ec 72be 3599 28be
00000070: 6e02 813e d660 3fbe f94d d9be 1d1d 483d
00000080: e21f 74be b367 a33e 8689 94be 4779 d8be
00000090: 3aec f7be a88a b9bd 7c26 eebc a162 d53d
000000a0: 8f5e 52be 8aa2 c33e 121a f33e 1e6a d2bd
000000b0: 20de bfbd 22c4 03be e841 edbe 4ca5 5bbe
000000c0: 51e8 da3e 3a19 f33d 899a 94be 45c7 85be
000000d0: 5dab cebe 20b6 353e e2a7 a3be 3690 a3bc
000000e0: 892a d93e d0b8 9f3e da3e b53e 7505 f8be
000000f0: 545e 7abe 20ad 5bbd d02b a73d 4083 123e
00000100: cf17 19be c89b 23bd 68ae e23e 1651 1b3e
00000110: 1da6 8e3e 45e1 2b3e 3567 643e 962a 46be
00000120: 629f c4be 1016 b0be 7aa7 f1be 6ebd 8bbe
00000130: 813f 583e b0d1 6e3e 13e6 43bd 7ac4 f1be
00000140: 23fa f33e 6d90 143e b2d5 c33e c7c0 e1be
00000150: 8a4b 5ebe b233 76be 412c c03e f1cc 703e
00000160: 309a 133e f76c 953e 9242 b1bd bae4 f73e
00000170: 7e19 a03e 71ff fdbe 7a73 463e 496e 37be
00000180: 49b5 e43e 0757 7cbd e8ec 49bc 955b 993e
00000190: 1071 ca3e 35ed a03e 925c 843e ac69 3e3e
000001a0: 31c6 4f3e ceec 3f3e b5e0 ad3e 747d 863e
000001b0: 4a44 203e 08c4 6fbe 09d5 dc3e d3ae 6dbe
000001c0: 6d4f 1c3e c8f4 1c3c e025 71be 1c34 fc3b
000001d0: cb52 0c3e f989 68be e37b cebe 9404 203e
000001e0: 217d e6be dc18 d63e e3f5 46bd 199f e53e
000001f0: c0d2 c93e 16cd debd 55e6 e33e 475f c03e
00000200: a96b cfbe c258 d6be 4a98 80be 0673 773e
00000210: 202a 5ebe 5cb6 643e f47e 6ebe 5015 0fbd
00000220: ae10 e0be 3e4f cd3e 7c05 b33e a0c3 ea3d
00000230: f042 09bd 50d5 c43e 08b9 cebd 6888 08be
00000240: ab88 f83e 972d 873e a1f2 5a3e 8020 663d
00000250: fdc8 39be 9589 d1be 07a1 5d3d d0b3 b63e
00000260: 7839 2cbe 5a53 ae3e d08d a83d bb45 e63e
00000270: 4671 313c 3285 f63e 2c88 93be c7e7 e03d
00000280: 9bce d4bd 0098 16be 1c93 d23d 81e2 e23c
00000290: 7748 cd3e d202 c6be 6c59 953e 40ab 94be
000002a0: b26a 893e 4a40 1a3e a722 a13e e253 a63d
000002b0: 802c 3abd c0a0 143e 108b 43bd 8c62 a6be
000002c0: a031 e0be 0882 c5bd 92bd a2be cc8a af3e
000002d0: 0090 fb3b 64b8 60be 0cf6 1b3e 96b1 b43e
000002e0: 008b 14be 9813 4dbe 00a5 41bd cefc 953e
000002f0: 3421 dabe 53f3 3dbd f93e babd b0bc 733e
00000300: eac5 b23d 9709 a9be 9a90 f9be 0b0b dcbd
00000310: fb9e e03e 2fc3 1e3d ccb5 66bb a04f ce3e
00000320: dbec d1be 54ba c13e fc2c cfbe 6c45 f93e
00000330: feb5 d2be f26c b5be 0452 9dbe 000b d13e
00000340: 088a bdbe 1a6d aabe 7cf7 b6be 8254 843e
00000350: 9ff4 8b3e d634 15bd 8414 debe cc7f e63e
00000360: c61c 093e 3774 943e a307 17be 71cf e9bd
00000370: 76b2 8ebe f4a5 8fbd ec84 f33e c43c 81be
00000380: 8681 d43e ec6a c93e 9bac 683e 2155 73be
00000390: 400b c93c 3a1e f1be 50b8 233e cc6c 6dbe
000003a0: 8551 f9bc 4380 3d3d 607c bc3d d04a ce3e
000003b0: e06c 76be 9212 81be c475 c73e 7441 093e
000003c0: b7a5 0c3d 4901 16be 3f29 60be 53a8 61be
000003d0: 1a68 9ebd 3d19 d53e 68d4 a13e ff5b fc3e
000003e0: aa38 993d 4c93 ea3e 65e9 ea3e cd93 8a3e
000003f0: 8b45 803d 2c93 0e3e 4a29 b03e c81a b93e
-0.15484491 0.19919491 -0.45118082 0.09934358 -0.13934347 0.43062955 -0.4700016 0.0011778802
-0.42290664 0.21703856 -0.04245591 -0.049884386 -0.28166348 0.22981656 -0.062365413 -0.47840905
-0.019258142 -0.15306324 -0.22991824 -0.35323316 0.38530222 -0.16394758 -0.25261226 -0.39026764
0.22651452 0.40427315 -0.23723039 -0.16464694 0.25197166 -0.18689284 -0.424423 0.04885589
-0.23840287 0.31915054 -0.29011172 -0.42280027 -0.48422414 -0.0905965 -0.029071085 0.104192026
-0.20543884 0.38209945 0.47480828 -0.102741465 -0.09368539 -0.12867787 -0.46339345 -0.21449775
0.42755368 0.11870046 -0.2902415 -0.26128593 -0.40365115 0.17745256 -0.31964022 -0.019966226
0.42415264 0.31195688 0.35399514 -0.48441663 -0.24450046 -0.0536319 0.081626534 0.1430788
-0.14950489 -0.039943486 0.44273686 0.1516765 0.2786111 0.16785152 0.22304995 -0.19352183
-0.3840285 -0.34391832 -0.47198087 -0.2729296 0.21117975 0.23322177 -0.047826838 -0.47220212
0.47651777 0.14508219 0.38248974 -0.4409239 -0.21708503 -0.24043158 0.37533763 0.23515679
0.14414287 0.29184696 -0.086552754 0.48416692 0.3126945 -0.4960895 0.19379988 -0.17913164
0.4466956 -0.061606433 -0.012324549 0.29952684 0.39539385 0.31430975 0.25851876 0.18594998
0.20290448 0.18742678 0.339605 0.26267588 0.1565105 -0.23414624 0.43131283 -0.23211221
0.15264674 0.009579845 -0.23549604 0.0076966416 0.13703458 -0.22708882 -0.40328893 0.15626746
-0.4501734 0.4181584 -0.04857434 0.44847944 0.39418602 -0.10878961 0.44511667 0.3757269
-0.40511826 -0.41864592 -0.25116187 0.24164972 -0.21695757 0.2233519 -0.23290616 -0.034932435
-0.43762726 0.4009952 0.34965122 0.11463094 -0.033511102 0.38443995 -0.10093886 -0.13333285
0.4854177 0.2640197 0.21381618 0.05618334 -0.18143077 -0.4092528 0.054108646 0.3568406
-0.16818798 0.34047967 0.082301736 0.44975075 0.010830229 0.48148495 -0.28814828 0.10981708
-0.10390969 -0.14706421 0.10281965 0.027695896 0.4009435 -0.38674027 0.29169786 -0.29036903
0.26839215 0.15063587 0.3147175 0.08121468 -0.045452595 0.14514446 -0.047740042 -0.3249706
-0.4378786 -0.09643942 -0.31785256 0.3428558 0.0076770782 -0.2194534 0.15230578 0.35291737
-0.1450615 -0.20027006 -0.047276497 0.29294437 -0.42603457 -0.04637463 -0.09094042 0.23802447
0.08729155 -0.3301513 -0.48743135 -0.10744294 0.43871292 0.03876036 -0.0035203574 0.40295124
-0.4100102 0.3783747 -0.40464008 0.48685777 -0.41154474 -0.3543468 -0.30726635 0.40828705
-0.37019372 -0.33286363 -0.3573569 0.25845724 0.2733507 -0.03642734 -0.43375027 0.45019376
0.13389882 0.28994915 -0.14749007 -0.114165194 -0.2787053 -0.07014075 0.4756235 -0.25241673
0.4150507 0.39339387 0.22722094 -0.23762943 0.024541497 -0.47093374 0.15988278 -0.23186034
-0.03043438 0.046264898 0.0920341 0.40291452 -0.2406497 -0.2520948 0.38957036 0.13403875
0.034337725 -0.14648928 -0.21890734 -0.22036867 -0.077346995 0.41620818 0.31607366 0.49288937
0.07481511 0.45815504 0.4588119 0.27065888 0.06263264 0.13923329 0.344065 0.36153245

model.0.bias f4 [128]
00000000: a192 213e 2cd4 ec3e b8d0 4c3e 9450 67be
00000010: c050 a8bc db6a 573d 2730 033d e7b3 813c
00000020: 8471 4c3d af5f fc3e 6661 893d b805 8e3e
00000030: 699f be3e 5fb2 f73e 57cf 0b3e 802d 003c
00000040: 20b4 f63e f12c dd3d 70c3 efbe 0562 27bd
00000050: a753 d1be b778 863e 319d 52be 11e2 a73e
00000060: 316e 7a3e 9804 2fbe 92fd 673d fba6 c1be
00000070: 1bfe 3b3e 8cf5 b7be 2dea fe3e 525a fdbd
00000080: da27 fb3e 781d dabe 77ee 153e 3e36 9bbe
00000090: e720 8dbe 6c16 b83e d1d7 bb3e 9ce8 b03e
000000a0: 967c b13e fe42 6cbe 9ae9 bebe 9a8c f9be
000000b0: acfd 89be 1c00 6dbe 3406 bfbe f862 bd3d
000000c0: 4618 9d3e 2874 d4be 2768 863e 8079 f0bc
000000d0: 3fb7 923e ff93 cdbe a6c1 a8be 58ec e43d
000000e0: 3aa9 413e 80af a63b 27cf c13e ec98 a6be
000000f0: f483 b93e e56d d13e 3f64 5ebe 532b a83e
00000100: 48ae ecbe e03d f93e 805d 163c 5201 9e3e
00000110: 948d 84be c85a f7be dbf0 d33e 3cc2 e6be
00000120: 2fce 743e f6dd 213d e2a1 b7be e04e bebd
00000130: 3538 38be 3eec 93be f98b bfbc 5e6f e63d
00000140: e81e 903e e8c6 dd3d d9e2 c43e 0416 df3d
00000150: 3891 30be c0c7 febe 8227 a73e 615b 8f3e
00000160: 2fb9 e9be 42c9 693e 2f95 803e 5ab3 c73d
00000170: 3961 ddbe d8e1 a7bc f275 aebe 9031 d4bd
00000180: 8339 8b3d 10cd 13be bc85 84be bbbe 42bd
00000190: 6296 acbe 2f61 6cbe 907a 933c 7ce3 02be
000001a0: 703f 5fbe 5182 eb3d aea4 b7be 2a46 d6bd
000001b0: e572 90bd 14f3 ccbe eec8 c7be 2854 68be
000001c0: bc08 f4be ac7a a33e 5fa1 f4bd 0f67 09be
000001d0: 7cfe 5cbe 480d adbe 5eeb ec3e 7173 9abe
000001e0: 4e14 dcbe e040 233e c445 303e e0c4 663d
000001f0: 8883 e33d f266 0e3e 7ffa 843c 6569 063e
0.1577859 0.46255624 0.20001495 -0.22589332 -0.020546317 0.05259214 0.032028344 0.015832854
0.049912944 0.4929175 0.067080304 0.27738738 0.37230995 0.48378274 0.13653313 0.007823348
0.481843 0.107995875 -0.46828794 -0.040864963 -0.40884134 0.26263973 -0.20567776 0.32789662
0.24456097 -0.17091596 0.056638308 -0.37822708 0.18358652 -0.35929525 0.49788037 -0.12370743
0.49053842 -0.42600608 0.14641748 -0.3031482 -0.27564165 0.35954607 0.36688092 0.34552467
0.34665364 -0.2307243 -0.372876 -0.48740083 -0.2695135 -0.23144573 -0.3730942 0.092473924
0.30682582 -0.4149487 0.26251337 -0.02935481 0.2865543 -0.40151975 -0.32960242 0.111778915
0.18912211 0.005086839 0.37853357 -0.32538545 0.36233485 0.40904155 -0.21717928 0.32845554
-0.46226716 0.4868002 0.009177566 0.30860382 -0.25889266 -0.48311448 0.41394696 -0.45070064
0.23906778 0.03951832 -0.35865694 -0.09292388 -0.17990191 -0.28891176 -0.023382174 0.1125171
0.2814858 0.10828954 0.3845432 0.10892871 -0.17242897 -0.49761772 0.3264733 0.27999404
-0.45649096 0.2283068 0.25113818 0.097510055 -0.43238238 -0.020493433 -0.3407436 -0.10361016
0.06798079 -0.14433694 -0.2588328 -0.047545176 -0.33708483 -0.23083948 0.018002778 -0.12782091
-0.21801543 0.11499465 -0.35867828 -0.104626015 -0.070531644 -0.40029204 -0.39020485 -0.22688353
-0.47662914 0.3192953 -0.119448416 -0.1341822 -0.21581453 -0.33799195 0.4627332 -0.301662
-0.4298424 0.15942717 0.17214113 0.0563401 0.11109072 0.13906458 0.016232727 0.13126142

model.2.weight f4 [1, 128]
00000000: 33cd 37bd 2916 2abd 31b6 243c d2ce 2e3d
00000010: bd60 7b3d 5169 153d d7fc 54bc b840 003d
00000020: c662 893d 398f 943d 895d 3cbd 316c 8e3b
00000030: 7605 37bd 65bc 4abb 9304 fdbc 319b 8ebc
00000040: b614 a7bd be01 8bbd c22c 283d 407e 5f3c
00000050: 3b7e a3ba 77ac a2bd 44b7 2f3b 14de d03c
00000060: ee31 eebc cb7f 3d3c 081f 4d3d 88f2 aa3d
00000070: d176 85bd 920d 2d3d 342b 6c3d 282a 59bd
00000080: d0a7 c3bc 9725 a8bd bdc1 2b3c 4f13 53bd
00000090: 948a babc 117c 89bd d7ea 903d 087f 6ebd
000000a0: 725b 183d 5a6c 20bc d45c cbbc 63c3 87bd
000000b0: 1200 c53c 3cd1 64bd 123d 60bd 550c ae3c
000000c0: e3fb 68bd ee9d 17bd 480d 803d f737 1b3d
000000d0: 1d1d b73c fd88 5dbd 2d9b 473d 782b 953d
000000e0: 46b8 76bd ee69 fd3c 2c54 653d d7b1 81bd
000000f0: 4ecc a13c 845a 393c fd48 b43d 72d9 f6ba
00000100: 9326 9dbd 84a0 a13d d2a2 aebd d954 233d
00000110: d4a4 96bd 0731 4bbd 5892 3a3d 7ade 343d
00000120: a534 b13d 78d8 7c3d 9a2b b2bd c57d edbc
00000130: 2222 a5bd 54dd 8e3d 9fa6 b0bc 2607 55bd
00000140: 4186 db3c dca8 863d f497 503d ddba 58bc
00000150: fa49 a83d 1238 2fbc c939 44bd 0775 7e3d
00000160: 0db0 fcbc 0222 91bd 4199 133c ac8b fabc
00000170: fa50 92bd a463 5abc cf0a 1f3d c340 60bd
00000180: be21 01bc 0d78 94bc 5a06 2fbd 3581 893d
00000190: 3989 8fbc 873c 46bd 6173 5b3d e885 0b3d
000001a0: fa93 36bc 53e5 9bbd 81dc 92bd 2c3f 523d
000001b0: 00b5 f0bc 8581 ac3d bfc9 653d 4776 263d
000001c0: 09bd 343d f8c6 0b3c 2c43 3c3d 0afe f23b
000001d0: 7b7c 833d 93c7 5c3d df18 ce3c 487d 873d
000001e0: 9687 a73d fed3 4bbd c3fe ebbc 0adb afbd
000001f0: 23af 5dbd 219e 09bd d3e9 9ebd b062 c7bc
-0.044873428 -0.04152504 0.010053203 0.042677708 0.061371554 0.03647739 -0.012999735 0.03131172
0.06708293 0.0725388 -0.04598764 0.0043463935 -0.044682942 -0.0030935046 -0.03088597 -0.017407985
-0.08158247 -0.06787442 0.04105831 0.01364094 -0.0012473533 -0.07943051 0.0026812116 0.02549652
-0.029076543 0.011566113 0.05007842 0.083470404 -0.06516803 0.04224927 0.05765839 -0.05301872
-0.02388373 -0.08210295 0.0104832025 -0.051532086 -0.022771157 -0.06713117 0.07076042 -0.058226615
0.037196584 -0.009791458 -0.024824537 -0.06629064 0.024047885 -0.055863604 -0.05474574 0.021246115
-0.056880843 -0.037015848 0.06252533 0.03789517 0.02235275 -0.05408572 0.04873197 0.07283682
-0.06023433 0.0309343 0.055988476 -0.063327484 0.01975074 0.0113130845 0.08802984 -0.0018833114
-0.07673373 0.07891944 -0.08527149 0.03987584 -0.07355657 -0.049607303 0.04554972 0.044157483
0.08652619 0.06172988 -0.086997226 -0.028990636 -0.08063151 0.06975809 -0.021563826 -0.05200877
0.026797416 0.06575176 0.050926164 -0.013228145 0.08217235 -0.010694521 -0.04790667 0.062123325
-0.030845666 -0.070865646 0.009008707 -0.030584179 -0.07144351 -0.01332942 0.038828667 -0.05474926
-0.00788158 -0.01812365 -0.042730667 0.067140974 -0.017521488 -0.048397567 0.05357683 0.03406325
-0.011143679 -0.076120995 -0.07170964 0.051329777 -0.029383183 0.084231414 0.056100603 0.04064014
0.04412559 0.008531325 0.045962498 0.0074155377 0.06420227 0.053901266 0.025158344 0.066156924
0.08180158 -0.04976272 -0.028808003 -0.085867 -0.0541221 -0.03359807 -0.07759442 -0.02433905
