finals/neuralq2.pt (torch, 5208 bytes, 3 tensors)

model.0.weight f4 [128, 4]
0	0x3e8220a8	0.2541554
1	0xbe7c5679	-0.24642362
2	0xbe8b6ec8	-0.27232957
3	0x3e7c542c	0.24641484
4	0xbeb9f313	-0.36318263
5	0x3e966eb4	0.29381335
6	0x3e7b809c	0.2456078
7	0x3e00cc22	0.1257787
8	0x3ed29368	0.41128087
9	0x3d5647bc	0.052314505
10	0xbefaf317	-0.49013588
11	0xbda7b92f	-0.08189618
12	0xbe37f03c	-0.17962736
13	0x3e1ef78d	0.1552412
14	0xbece28fc	-0.40265644
15	0x3ef72f85	0.48278442
16	0xbd80f783	-0.06297209
17	0x3eee380d	0.46527138
18	0xbe17b891	-0.148165
19	0xbe64efbd	-0.22357078
20	0xbabd8000	-0.0014457703
21	0xbeba09f8	-0.3633573
22	0x3ed9fb38	0.42574477
23	0xbe763fb8	-0.24047744
24	0x3e292435	0.16517718
25	0xbe60f7cf	-0.21969531
26	0x3bdcf604	0.0067431945
27	0xbee51e5a	-0.4474972
28	0x3d2e52a5	0.042559285
29	0x3e9718f2	0.2951122
30	0x3ce21943	0.027599936
31	0x3d949616	0.07255189
32	0xbd923692	-0.07139315
33	0xbe9c5df4	-0.3054043
34	0xbe7ea361	-0.24867012
35	0xbe6c31e8	-0.23065913
36	0xbd181530	-0.03712958
37	0x3db21a68	0.08696443
38	0xbee13348	-0.43984437
39	0x3ebd9430	0.3702712
40	0xbba33a80	-0.004981339
41	0xbdda8360	-0.10669589
42	0x3ea9b850	0.33148432
43	0x3e9a54ba	0.30142766
44	0x3eea24c5	0.45731178
45	0x3e7e0da4	0.24809891
46	0xbd2bff94	-0.041991785
47	0x3e7811fb	0.24225609
48	0x3ee7d8c6	0.45282573
49	0xbbf61a71	-0.0075104763
50	0xbef151c5	-0.47132698
51	0x3d45bcc2	0.048275717
52	0xbe85332f	-0.26015612
53	0xbe0d8c98	-0.13823164
54	0xbd8783b0	-0.06616914
55	0x3e49d4e4	0.19710118
56	0xbdcb0930	-0.09913862
57	0xbea88a86	-0.32918185
58	0x3d884f00	0.06655693
59	0x3dd8e718	0.10590953
60	0xbda16995	-0.07881466
61	0x3d1d7847	0.038444784
62	0xbd0d090e	-0.034432463
63	0x3c40e9dc	0.011774506
64	0xbe2f000c	-0.17089862
65	0xbeb2f71e	-0.3495416
66	0x3d5cce90	0.05390793
67	0x3e2535b4	0.16133767
68	0xbe539b5e	-0.20664737
69	0x3ed99c51	0.42502072
70	0xbce70d63	-0.028204625
71	0x3d98ce81	0.074612625
72	0x3e9e138f	0.30874297
73	0x3ee4ccc4	0.44687474
74	0xbe4b6c77	-0.19865595
75	0x3e6e6fb9	0.23284806
76	0x3e5f4fc2	0.21807769
77	0x3dcf6132	0.101259604
78	0xbd0717d2	-0.0329817
79	0x3ee3f6d9	0.44524267
80	0xbddf3219	-0.10898227
81	0x3e8e790b	0.27826723
82	0xbeafcfcf	-0.34338233
83	0x3e9d3f52	0.30712372
84	0xbc15b040	-0.00913626
85	0xbea2fb1e	-0.31832212
86	0xbe92e89a	-0.28693086
87	0x3ec5811e	0.3857507
88	0xbe274b67	-0.16337357
89	0x3cd8bddf	0.026457725
90	0xbec3b6af	-0.38225314
91	0x3dd588fa	0.10426517
92	0xbda7f8a5	-0.08201722
93	0x3eafc4e3	0.343299
94	0xbda4f327	-0.0805419
95	0x3bc53b93	0.0060190647
96	0x3ef8236b	0.48464522
97	0x3ec2127e	0.37904733
98	0xbea95692	-0.3307386
99	0x3eeeab5f	0.4661512
100	0x3eeaef3a	0.4588564
101	0x394b4d43	0.00019388371
102	0xbd5c4bbc	-0.053783163
103	0xbe1d28a0	-0.15347528
104	0x3e558b8c	0.20854014
105	0x3d08b67c	0.033377156
106	0xbdf45ac2	-0.11931373
107	0xbefde02d	-0.49585095
108	0x3e05add1	0.13054587
109	0x3eb38cf2	0.3506847
110	0x3d65319e	0.05595552
111	0x3c031831	0.008001373
112	0xbe4c416f	-0.19946836
113	0xbe14d726	-0.14535198
114	0x3da2b9b5	0.07945577
115	0x3e1a5bfe	0.15074155
116	0x3e4b9dbc	0.1988439
117	0x3c6c596d	0.014425618
118	0x3e9cd5fb	0.30632004
119	0xbeaac0e1	-0.3335028
120	0x3da3aa99	0.07991523
121	0x3d93dc6e	0.07219778
122	0x3e96fe73	0.29491004
123	0x3e80b346	0.25136775
124	0x3e80ed3e	0.25181
125	0x3e27e4e2	0.16395906
126	0xbe05e69f	-0.13076256
127	0x3e893d04	0.26804364
128	0xbd6822a0	-0.056673646
129	0xbac1be00	-0.0014781356
130	0xbed9cc56	-0.42538708
131	0x3ef81992	0.4845701
132	0xbd9b87c8	-0.075942576
133	0xbc871ac0	-0.016492248
134	0x3e9035c0	0.28166008
135	0xbcf9b4a0	-0.030481637
136	0x3d3c35e8	0.045949847
137	0xbedcbd12	-0.43113
138	0xbee19f21	-0.44066718
139	0x3e662960	0.22476721
140	0x3eea3254	0.45741522
141	0x3ea55550	0.3229165
142	0xbe83e150	-0.25757837
143	0xbe59f4cb	-0.21284787
144	0x3eac74fb	0.33683
145	0x3ea3dd1f	0.3200464
146	0xbe1dff08	-0.15429318
147	0x3d868cb6	0.06569807
148	0x3eaa1403	0.33218393
149	0x3deaad38	0.1145882
150	0xbeceb318	-0.40371013
151	0x3dbec200	0.09314346
152	0x3e5be28d	0.21473141
153	0x3cfd6d93	0.030936038
154	0xbca1f714	-0.019771136
155	0xbdb2a349	-0.087225504
156	0xbe00c7ec	-0.12576264
157	0xbe9cfc46	-0.3066122
158	0xbec7bb44	-0.3901006
159	0x3ed6e722	0.41973215
160	0x388b11f6	6.631382e-05
161	0x3eb009b4	0.34382403
162	0xbe636342	-0.22205833
163	0x3e866b5d	0.26253787
164	0x3edbe7de	0.42950338
165	0xbe06316c	-0.1310479
166	0xbe1529cd	-0.14566727
167	0xbd8edc62	-0.069756284
168	0xbf01fda0	-0.50777626
169	0xbe521ca7	-0.20518743
170	0x3e8d6edd	0.27623644
171	0x3c319ff0	0.010841355
172	0x3e04c4f4	0.12965757
173	0xbe1a3003	-0.15057378
174	0xbdd080de	-0.101808295
175	0xbe9f9e46	-0.3117544
176	0xbee716fc	-0.45134723
177	0xbd27d200	-0.040971756
178	0x3d147f90	0.036254466
179	0x3e6a29f8	0.22867572
180	0xbe9ad0c8	-0.30237412
181	0xbed6d462	-0.4195891
182	0xbecb6724	-0.39727128
183	0xbe5683bc	-0.2094869
184	0x3ee95e2f	0.4557967
185	0xbee94b01	-0.45565036
186	0x3e28213b	0.16418926
187	0x3e156404	0.14588934
188	0x3d516dc7	0.051130082
189	0xbe9be9f6	-0.30451936
190	0x3d8c7f63	0.068602346
191	0x3ee8aee7	0.4544594
192	0xbdd3b453	-0.103371285
193	0x3ec3afe9	0.38220146
194	0x3e1e30c6	0.15448293
195	0xbd353840	-0.044243097
196	0xbd79d9d6	-0.06099876
197	0x3dae100d	0.08499155
198	0xbd85cb97	-0.06532972
199	0xbc79c4a1	-0.015244634
200	0x3ed4ff77	0.41601154
201	0x3ed46ccc	0.41489255
202	0x3e813350	0.2523446
203	0xbe824d76	-0.25449723
204	0x3e9d5ffb	0.3073729
205	0xbe2690fd	-0.16266246
206	0x3e045410	0.12922692
207	0xbe8b43c0	-0.27200127
208	0xbe8903d1	-0.26760724
209	0x3d99cb11	0.07509435
210	0x3eb172a5	0.3465778
211	0x3ebdf377	0.3709981
212	0x3e13a7a7	0.14419423
213	0x3e77df51	0.24206282
214	0x3efccfa5	0.4937717
215	0x3e083cac	0.13304394
216	0x3eb31ee7	0.34984514
217	0x3e55421b	0.20825998
218	0x3eb18020	0.34668064
219	0x3ee8d8be	0.4547786
220	0x3ef73472	0.482822
221	0xbe8a40f6	-0.27002686
222	0x3d9ff2af	0.0780996
223	0x3ebf9a49	0.37422398
224	0xbec28399	-0.37991026
225	0x3ea4f055	0.3221461
226	0x3cae80fe	0.021301743
227	0xbe84cb00	-0.25936127
228	0xbede2e44	-0.43394673
229	0xbee6306a	-0.44958812
230	0xbe56a36c	-0.20960778
231	0x3ecae34a	0.39626533
232	0xbe8a32b2	-0.26991802
233	0xbec8f630	-0.39250326
234	0xbe02e2dc	-0.12781852
235	0xbed99008	-0.424927
236	0xbecd8090	-0.40137148
237	0xbe85c80a	-0.2612918
238	0xbe6bf3bc	-0.23042196
239	0xbd8c8810	-0.06861889
240	0x3ef49a75	0.4777409
241	0x3e47c3a3	0.19508223
242	0xbe996553	-0.29960117
243	0x3eaa2f55	0.33239236
244	0x3e903a49	0.28169468
245	0xbef61197	-0.48060295
246	0x3ed471b7	0.41493008
247	0x3e03f3cb	0.12885968
248	0x3d309207	0.043108013
249	0x3ebef491	0.37295964
250	0x3eb800ba	0.35938054
251	0xbe65c265	-0.22437437
252	0x3df76a6c	0.12080845
253	0x3e512a98	0.20426404
254	0x3ed29f2f	0.41137072
255	0xbde8ed6e	-0.11373411

model.0.bias f4 [128]
0	0x3e131708	0.14364254
1	0xbe1208f1	-0.14261223
2	0x3ece8c25	0.40341297
3	0x3e3053c3	0.17219453
4	0x3d8af93c	0.06785819
5	0x3d612c90	0.05497414
6	0x3ea82f5b	0.3284863
7	0x3ed28355	0.41115823
8	0x3ede05cc	0.43363798
9	0xbe3c5afc	-0.18394083
10	0xbedb529c	-0.42836463
11	0xbdb381db	-0.08765002
12	0xbe59cdd2	-0.2126992
13	0x3e8a47b3	0.27007827
14	0xbe399e08	-0.1812669
15	0x3ebe3866	0.37152404
16	0xbe6085dc	-0.21926063
17	0x3e44e238	0.1922692
18	0xbe92c43c	-0.2866534
19	0xbd9d535c	-0.07681915
20	0x3eb9c505	0.36283126
21	0xbefddb94	-0.49581587
22	0x3eae6bd7	0.3406665
23	0xbe4712a1	-0.194407
24	0x3ddb8f91	0.107207425
25	0x3e850934	0.25983584
26	0x3ea58ef2	0.3233562
27	0xbe60b430	-0.21943736
28	0x3f03ba1c	0.51455855
29	0xbedcbaf2	-0.43111378
30	0xbe2514a1	-0.1612115
31	0xbd25eaeb	-0.04050724
32	0xbe207a38	-0.15671623
33	0xbed35a4c	-0.4127983
34	0x3ede87c6	0.43462962
35	0x3ec7cc4c	0.39023054
36	0xbe994d19	-0.29941633
37	0x3e35760a	0.1772081
38	0x3dbf823c	0.09351012
39	0xbeb5e888	-0.3552897
40	0xbe2c6ac8	-0.16837609
41	0xbd84d616	-0.06486146
42	0x3ebcf911	0.36908773
43	0x3e904484	0.28177273
44	0xbec1e8c4	-0.378729
45	0xbede458c	-0.43412435
46	0xbe25b20c	-0.161812
47	0x3ed633dd	0.41836444
48	0xbe695a55	-0.22788365
49	0x3db5acb1	0.08870829
50	0x3d8a79c9	0.0676151
51	0x3e973f37	0.29540417
52	0x3f03b307	0.5144505
53	0xbe85ea7c	-0.2615546
54	0x3ee304d7	0.4433963
55	0x3e92afc4	0.28649724
56	0xbe0ee48f	-0.13954376
57	0xbe1aafc4	-0.15106112
58	0xbc770a80	-0.015078187
59	0xbeeefbce	-0.46676487
60	0x3db0752a	0.08616097
61	0xbda5c2cc	-0.08093795
62	0x3ead8d9b	0.338971
63	0xbebd68e5	-0.3699409
64	0x3cd1733c	0.025567643
65	0xbe40143b	-0.18757717
66	0x3db7a482	0.08966924
67	0x3eec9925	0.4621059
68	0xbd54d560	-0.051961303
69	0x3d530170	0.051515043
70	0x3d9d4112	0.07678427
71	0xbea21d5c	-0.31663024
72	0x3eb15b99	0.34640196
73	0x3e8ab662	0.27092272
74	0x3c97735c	0.018487625
75	0xbebf4948	-0.37360597
76	0xbefe9d02	-0.49729162
77	0xbe541308	-0.20710385
78	0x3e9e3c5c	0.30905426
79	0xbe711ebc	-0.2354688
80	0x3e63fae6	0.22263679
81	0xbd8c7a10	-0.06859219
82	0x3e8dc1be	0.27686876
83	0xbe702b98	-0.2345413
84	0x3eedb287	0.46425268
85	0x3d8b6fc8	0.0680843
86	0x3e8d7e79	0.27635553
87	0xbed1bb90	-0.4096341
88	0xbd70e28e	-0.05880981
89	0xbec58ec2	-0.38585478
90	0xbe70b7fc	-0.23507684
91	0x3f00a826	0.50256574
92	0xbdc27933	-0.09495773
93	0xbdc42086	-0.09576516
94	0xbe8d8286	-0.27638644
95	0xbecb7e70	-0.39744902
96	0x3ecb3a16	0.39692754
97	0xbe949f0e	-0.290276
98	0xbde1a908	-0.11018568
99	0x3e94f2a3	0.29091367
100	0xbf185c44	-0.59515786
101	0x3e11caaa	0.14237466
102	0x3efedb48	0.49776673
103	0xbbc72d00	-0.0060783625
104	0xbed8ac7a	-0.4231909
105	0x3e92503e	0.28576845
106	0xbea1dcc0	-0.3161373
107	0xbe4e0267	-0.20118104
108	0x3d846b09	0.06465728
109	0x3ed5fd6b	0.41794905
110	0x3d6e5470	0.058185995
111	0x3c9d35a4	0.019190617
112	0x3eb9097c	0.36140049
113	0xbdbe2cc4	-0.09285882
114	0x3e9d10b2	0.306768
115	0xbecb2e5a	-0.396838
116	0x3d393950	0.045220673
117	0xbe22a477	-0.15883051
118	0xbed56b2c	-0.41683328
119	0x3ef4ad35	0.47788396
120	0xbe9d253f	-0.3069248
121	0x3e97e72e	0.29668564
122	0xbe929a5a	-0.28633386
123	0x3e2637f6	0.16232285
124	0xbdef4e60	-0.11684871
125	0x3ef2e61e	0.4744119
126	0xbeb961ad	-0.36207333
127	0x3ccaea32	0.024769876

model.2.weight f4 [1, 128]
0	0xbbde858c	-0.0067908224
1	0x3e00832d	0.1255004
2	0x3d3578d4	0.044304684
3	0x3e2981ca	0.16553417
4	0x3d5fc117	0.054627504
5	0x3c94b142	0.01815093
6	0x3dedf5b7	0.11619132
7	0x3e4af568	0.19820178
8	0x3d016cc9	0.031597886
9	0xbc80d611	-0.015727075
10	0xbd5acd1c	-0.053418264
11	0x3d47be2a	0.04876534
12	0xbda61483	-0.08109381
13	0x3dcc88cd	0.0998703
14	0x3d50a30e	0.05093675
15	0x3d6375d6	0.0555323
16	0xbd31dd3c	-0.043423876
17	0xbe89ef86	-0.26940554
18	0xbdd0d40d	-0.101966955
19	0xbaf81aa2	-0.0018928836
20	0x3df67951	0.12034858
21	0x3bce5db7	0.006297793
22	0xbd8a6768	-0.067580044
23	0x3a4314d8	0.00074417656
24	0x3d6d5221	0.057939652
25	0x3ca260e4	0.019821592
26	0x3dbdc29f	0.09265637
27	0xbe030cdd	-0.12797876
28	0xbe486277	-0.19568811
29	0xbe830813	-0.25592098
30	0x3d2c8c4d	0.04212599
31	0xbdc52109	-0.096254416
32	0x3dae6da5	0.08517007
33	0xbc9335c9	-0.017969983
34	0x3c56760f	0.013089671
35	0x3d9b78da	0.0759141
36	0xbd727604	-0.05919458
37	0xbd5c352b	-0.053761642
38	0x3d018afa	0.03162668
39	0xbc9e1944	-0.019299157
40	0x3c994a4b	0.018712183
41	0xbb8d9c37	-0.004321601
42	0x3e276a50	0.16349149
43	0x3def731b	0.116918765
44	0x3d8b537b	0.06803032
45	0x3d8cdce6	0.068780705
46	0x3dc562a6	0.09637956
47	0x3e327ef6	0.17431244
48	0xbcf53ff9	-0.029937731
49	0xbddd38ea	-0.10801871
50	0xbb57ba81	-0.0032917561
51	0x3db56930	0.088579535
52	0xbe4445f0	-0.19167304
53	0x3c8350e3	0.01602978
54	0x3e1ebbee	0.15501377
55	0x3e16a554	0.14711505
56	0xbb59ee8e	-0.0033253762
57	0xbd184b3d	-0.037181128
58	0xbcee613d	-0.029099101
59	0xbd1e9a97	-0.038721647
60	0xbd6a1434	-0.057148173
61	0x3dfde981	0.12398053
62	0x3d84feb6	0.06493895
63	0xbc89b2be	-0.016808864
64	0x3d1d0f45	0.03834464
65	0xbe030ced	-0.127979
66	0xbd84c006	-0.06481938
67	0xbdc3dff8	-0.09564203
68	0x3bc8bccf	0.0061260234
69	0x3d0419f6	0.03225132
70	0x3d6e7735	0.058219153
71	0xbe10e565	-0.14150007
72	0xbc9aca6c	-0.01889535
73	0x3da01cf0	0.078180194
74	0x3d875a44	0.06609014
75	0x3c64b62a	0.013959447
76	0x3ce1e9cc	0.027577303
77	0x3cbec8c0	0.023289084
78	0xbda9b186	-0.08285813
79	0xbd2ae4b2	-0.041722007
80	0x3df55450	0.11978972
81	0x3dbef9ce	0.0932499
82	0x3de3308a	0.110932425
83	0xbc754211	-0.014969365
84	0x3d3ed728	0.046591908
85	0x3d752c0e	0.059856467
86	0x3c3ef79b	0.011655713
87	0x3d1f1636	0.03883954
88	0xbdb270fe	-0.08712958
89	0xbdb27887	-0.08714395
90	0x3bea1e5f	0.007144734
91	0x3e016f12	0.12640026
92	0x3d8d4cdc	0.068994254
93	0x3df0a8ed	0.1175097
94	0xbce2b558	-0.027674362
95	0xbdede64e	-0.11616193
96	0x3dd87517	0.10569208
97	0x3da72cb6	0.08162825
98	0xbb98f108	-0.004667405
99	0x3d285184	0.041093364
100	0xbee1f01c	-0.441285
101	0xbdb66bf3	-0.089073084
102	0x3cdc3fb9	0.026885854
103	0x3d5a5d1c	0.053311452
104	0x3ae0eb5a	0.0017159984
105	0x3d1712c8	0.036883146
106	0xbcd4d798	-0.02598171
107	0x3dcb5c80	0.09929752
108	0x3dd007ec	0.10157761
109	0x3e3bc631	0.18337323
110	0x3d384800	0.04499054
111	0x3d32812d	0.043580223
112	0xbe5992ae	-0.2124736
113	0x3d632e0c	0.055463836
114	0x3c76310b	0.015026341
115	0xbc5a9507	-0.013341195
116	0xbdadb629	-0.0848201
117	0x3da3ab8e	0.07991706
118	0xbccc9487	-0.024973167
119	0x3b374c90	0.0027969219
120	0x3d50ae3c	0.050947413
121	0x3e0d10bd	0.13775916
122	0xbca3e4a3	-0.020006483
123	0x3d199116	0.03749188
124	0x3bfd7790	0.0077352
125	0x3e4717b0	0.1944263
126	0xbe330194	-0.17481071
127	0xbdb38208	-0.08765036
