finals/neuralq5.pt (torch, 5208 bytes, 3 tensors)

model.0.weight f4 [128, 4]
0	0x3e99894a	0.29987556
1	0xbe97f6eb	-0.2968057
2	0xbe977d98	-0.29588008
3	0x3e36c2b5	0.17847712
4	0x3eb0aba1	0.34505942
5	0x3e686005	0.22692879
6	0x3a19258e	0.0005842083
7	0xbea19c99	-0.31564787
8	0xbeafa7e8	-0.3430779
9	0x3dfdae10	0.123867154
10	0x3eb9b1f4	0.3626858
11	0xb980d000	-0.00024569035
12	0xbe3c04e3	-0.18361239
13	0xbd87ab3f	-0.066244595
14	0x3e60caab	0.21952312
15	0x3eb32901	0.3499222
16	0xbe92c9e7	-0.28669664
17	0xbe84ca63	-0.2593566
18	0xbed107a5	-0.40826145
19	0xbeab2d97	-0.3343322
20	0xbed82152	-0.4221292
21	0xbe0fcf5c	-0.14043945
22	0x3eed3206	0.46327227
23	0x3efe8bea	0.4971612
24	0x3c7a406e	0.01527415
25	0x3e40c0b7	0.18823515
26	0xbe128395	-0.14308007
27	0xbea94ca1	-0.33066276
28	0x3e580421	0.21095325
29	0xbcf8a252	-0.030350838
30	0x3efb3d37	0.4907014
31	0xbef06180	-0.46949387
32	0xbe980320	-0.29689884
33	0xbe60ff98	-0.21972501
34	0xbdf0b33a	-0.11752935
35	0xbea8965e	-0.3292722
36	0x3ea518e8	0.32245564
37	0x3e147980	0.14499474
38	0xbed93ace	-0.42427677
39	0xbe4c8852	-0.19973877
40	0xbe2e75b4	-0.17037088
41	0xbe508d90	-0.20366502
42	0x3e85deee	0.26146644
43	0xbe8dc93e	-0.27692598
44	0xbe4d16ff	-0.20028304
45	0x3e282399	0.1641983
46	0x3ed25983	0.41083917
47	0xbecab918	-0.3959434
48	0xbd425800	-0.047447205
49	0xbeb75688	-0.35808206
50	0x3e4bd920	0.19907045
51	0x3e7eae6c	0.24871224
52	0x3ead05a8	0.33793378
53	0xbd9e9ef3	-0.07745161
54	0xbed67e6e	-0.41893333
55	0xbe0f2dec	-0.13982362
56	0x3c5ef980	0.01360929
57	0xbef97618	-0.4872291
58	0xbdfa83d8	-0.122321784
59	0xbee60c24	-0.44931138
60	0x3e095d6a	0.13414541
61	0xbdc61c1e	-0.09673332
62	0x3eb55636	0.35417336
63	0xbeebfd77	-0.46091816
64	0xbe2541a8	-0.16138327
65	0xbe38cd58	-0.18047082
66	0xbe47a598	-0.19496763
67	0xbdb596a8	-0.08866626
68	0xbc70b100	-0.014690638
69	0xbeac57a8	-0.33660626
70	0x3ed902ae	0.42384857
71	0x3ee655dc	0.4498738
72	0x3e7b1ff7	0.24523912
73	0xbef246f1	-0.4731975
74	0x3e6c4613	0.23073606
75	0xbe1b9d36	-0.1519669
76	0xbef84cdb	-0.48496136
77	0x3d26abad	0.040691067
78	0xbe323174	-0.17401677
79	0xbdee47fe	-0.11634825
80	0xbe3021c7	-0.17200385
81	0x3efdcbcf	0.49569556
82	0xbcabe105	-0.020981321
83	0xbcec8a87	-0.028874649
84	0xbef8cec6	-0.48595256
85	0x3cf15ca0	0.029463112
86	0x3eeabc7a	0.4584692
87	0xbea76652	-0.32695252
88	0xbe6db5f3	-0.2321394
89	0xbe85ddb6	-0.26145715
90	0x3da16f14	0.078825146
91	0xbe85ffdf	-0.26171777
92	0x3e7fcd2a	0.24980608
93	0x3e36d04b	0.17852895
94	0xbecd5413	-0.40103206
95	0xbeef17eb	-0.46697935
96	0xbec0125e	-0.37514013
97	0xbecd0d6c	-0.40049303
98	0x3e5cda84	0.21567732
99	0x3e252264	0.161264
100	0x3df5a281	0.11993886
101	0x3dcf1ffb	0.10113522
102	0x3bc1b919	0.005911958
103	0x3c91971d	0.017772252
104	0x3e5cc5c5	0.21559818
105	0xbe566444	-0.20936686
106	0xbebd4ec1	-0.36974147
107	0xbec7fe98	-0.39061427
108	0xbef246d4	-0.47319663
109	0xbe86d694	-0.26335585
110	0x3da1a9f0	0.07893741
111	0xbec165d6	-0.37773007
112	0xbec1f2a4	-0.37880433
113	0xbda14af8	-0.07875627
114	0x3e6410fc	0.22272104
115	0xbde7e8a0	-0.113236666
116	0xbed5feb0	-0.41795874
117	0x3e81537a	0.25259
118	0xbee7a838	-0.45245528
119	0xbe3dd0c8	-0.18536675
120	0x3ecc12f6	0.39858216
121	0xbe8dda33	-0.27705535
122	0xbe276c14	-0.16349822
123	0x3bfd01bb	0.0077211536
124	0x3e751600	0.23934174
125	0x3edd92d7	0.43276092
126	0x3ed90712	0.42388207
127	0x3efb2f9b	0.49059758
128	0x3d8f894c	0.07008609
129	0x3ec8b841	0.39203075
130	0xbf0111a5	-0.5041755
131	0xbe70544c	-0.23469657
132	0xbeb82f82	-0.35973746
133	0xbefd58d2	-0.49481827
134	0x3eed2120	0.46314335
135	0xbe94fdd0	-0.29099894
136	0xbea39a06	-0.31953448
137	0xbe913eea	-0.28368312
138	0x3d4691e0	0.04847896
139	0xbe6cafe4	-0.23113972
140	0x3ede6f48	0.43444276
141	0x3e6677b0	0.22506595
142	0xbee90412	-0.45510918
143	0x3e73c630	0.23806071
144	0xbec134fe	-0.37735742
145	0xbe20fa00	-0.15720367
146	0x3e23fda8	0.16014731
147	0x3eb62128	0.3557217
148	0xbd1b1084	-0.037857547
149	0x3e9bc3a1	0.3042269
150	0xbe68115e	-0.22662875
151	0xbeb3e8c5	-0.35138527
152	0x3ecf79f0	0.40522718
153	0xbe031a17	-0.12802921
154	0x3e312c35	0.1730202
155	0xbe697224	-0.22797447
156	0xbedcc4ea	-0.43118984
157	0xbe8499a1	-0.2589846
158	0x3dc5f555	0.09665934
159	0x3d692fa0	0.056930184
160	0xbe1e1918	-0.1543926
161	0x3dba0526	0.09083013
162	0xbe85f355	-0.2616221
163	0x3ebd73fe	0.37002558
164	0xbdb1d5e2	-0.08683373
165	0x3ee117f0	0.43963575
166	0x3e5a597a	0.21323195
167	0x3eb1e4ac	0.34744775
168	0x3efe19c5	0.49629036
169	0x3d131fee	0.035919122
170	0x3d2e2e7f	0.04252481
171	0xbec48b8d	-0.3838772
172	0x3e99d3b3	0.30044326
173	0xbe8e1dea	-0.27757198
174	0xbde554db	-0.111978255
175	0xbe1b15e0	-0.15145063
176	0xbea194b0	-0.31558752
177	0x3db41b38	0.08794254
178	0xbe94e4d5	-0.29080835
179	0x3e830177	0.25587055
180	0xbc30af78	-0.0107840225
181	0x3eabbb22	0.33541209
182	0xbec4c766	-0.3843338
183	0xbeae93f1	-0.34097245
184	0x3e7dc164	0.24780804
185	0xbd8e1183	-0.06936934
186	0xbec3b249	-0.38221958
187	0xbe65abbd	-0.22428794
188	0xbe45f7fc	-0.1933288
189	0xbe9f8d85	-0.31162658
190	0xbe9cbf29	-0.30614594
191	0x3edd9280	0.43275833
192	0xbef9f7b6	-0.488218
193	0x3e514bc5	0.2043906
194	0xbed4d383	-0.4156762
195	0xbd80dcd9	-0.06292123
196	0x3eea1693	0.45720348
197	0xbe8661f4	-0.26246607
198	0x3d050af7	0.03248116
199	0x3e9b6d1b	0.30356678
200	0x3e4eea55	0.20206578
201	0x3e759f13	0.23986463
202	0x3c6085f3	0.013703811
203	0xbeb142e6	-0.34621352
204	0x3e961ec3	0.29320344
205	0x3ed0f1cb	0.40809473
206	0xbe04bf16	-0.12963519
207	0xbe1f8551	-0.155782
208	0xbd70b990	-0.058770716
209	0x3dfaf398	0.12253493
210	0xbe3a0780	-0.18166924
211	0x3e4a4d90	0.1975615
212	0xbe039410	-0.1284945
213	0xbe81a02a	-0.25317508
214	0xbe8787ac	-0.26470697
215	0x3ea374c0	0.3192501
216	0x3e8c4f29	0.27404144
217	0xbc98c806	-0.018650066
218	0x3dffa49d	0.12482569
219	0xbeba2603	-0.36357126
220	0xbdd837d8	-0.10557526
221	0xbd1b61f0	-0.037935197
222	0x3d320c30	0.043468654
223	0xbe811332	-0.25209957
224	0xbef088d8	-0.46979403
225	0x3de52378	0.11188406
226	0xbc95b140	-0.018272996
227	0xbef1fb0e	-0.47261852
228	0xbec96067	-0.39331362
229	0x3e929a24	0.28633225
230	0x3d07aec2	0.033125646
231	0x3d950cb6	0.07277815
232	0xbeabd6e3	-0.33562383
233	0xbd8d680a	-0.069046095
234	0x3ee9aeae	0.45641083
235	0xbda6a0a3	-0.08136108
236	0xbe3ba5e0	-0.18324995
237	0xbeca2bb2	-0.39486462
238	0xb8830e8e	-6.249278e-05
239	0xbe9b3ad0	-0.30318308
240	0x3eb85633	0.36003265
241	0xbcb6384f	-0.022243647
242	0xbeba9379	-0.36440638
243	0x3eb424bc	0.35184276
244	0xbe2dfbac	-0.16990536
245	0x3b52cc00	0.003216505
246	0xbe932fc2	-0.28747374
247	0x3e146b20	0.1449399
248	0xbecd96fa	-0.40154248
249	0xbe5319ac	-0.20615262
250	0xbef08c2e	-0.4698195
251	0x3b0c9f00	0.0021457076
252	0xbecba213	-0.3977209
253	0x3eb468bd	0.3523616
254	0x3eace576	0.33768815
255	0xbeff4241	-0.49855235

model.0.bias f4 [128]
0	0xbb3a04e5	-0.0028384265
1	0x3e860672	0.26176792
2	0xbe9873c2	-0.29775816
3	0x3d0a373e	0.03374409
4	0x3e9dafe5	0.3079826
5	0xbef05d4e	-0.46946186
6	0x3ecf25a3	0.40458402
7	0x3e731afb	0.23740761
8	0x3ee3b901	0.44477084
9	0x3dabf6fd	0.08396719
10	0x3cd552c0	0.026040435
11	0x3d1ba2c1	0.03799701
12	0x3d6b4440	0.057438135
13	0x3e5e98fa	0.21738043
14	0xbe5e8964	-0.21732098
15	0xbd2599d0	-0.04042989
16	0xbe05c234	-0.13062364
17	0xbebbc726	-0.36675376
18	0xbed176be	-0.40910906
19	0x3e7ba920	0.24576235
20	0xbe39d679	-0.18148221
21	0xbd736e90	-0.059431612
22	0x3e8d9853	0.27655277
23	0xbd679109	-0.0565348
24	0x3dcb0cc0	0.09914541
25	0x3cd5edf8	0.026114449
26	0x3ed5e411	0.41775563
27	0x3e12fa54	0.14353305
28	0xbeec6852	-0.4617334
29	0xbed043fc	-0.40676868
30	0xbed9cd4d	-0.42539445
31	0xbec1df6b	-0.37865767
32	0xbf09a18e	-0.5376214
33	0xbe5b1848	-0.21395981
34	0xbe874d76	-0.26426286
35	0xbef86ab3	-0.48518905
36	0xbeaca8d6	-0.33722562
37	0x3d829ecd	0.06377945
38	0x3e8ee020	0.2790537
39	0x3e5a3a23	0.2131124
40	0x3d8d6d0b	0.06905564
41	0x3e55bd54	0.20873004
42	0x3e3275ac	0.17427701
43	0xbec6dce0	-0.3884039
44	0x3e6d1cb6	0.23155484
45	0x3d46bf62	0.04852236
46	0x3bccc1aa	0.0062486725
47	0x3ebe1687	0.37126562
48	0x3db5f6f3	0.088849925
49	0x3e8894d8	0.2667606
50	0xbe6aa45f	-0.22914265
51	0x3def46d7	0.116834335
52	0xbea1b21e	-0.31581205
53	0xbea48888	-0.32135415
54	0xbc9dd271	-0.019265385
55	0xbe581008	-0.21099865
56	0xbe9dc19c	-0.30811775
57	0xbcbbd93c	-0.022930734
58	0x3e9fe936	0.31232613
59	0x3eae6e5e	0.34068578
60	0xbef36170	-0.47535276
61	0xbee91a3c	-0.45527828
62	0xbdaae458	-0.08344334
63	0x3ed53eeb	0.41649565
64	0x3ed3955a	0.41324884
65	0xbcfefa6d	-0.031125272
66	0x3e5a2f5f	0.21307133
67	0x3e417527	0.18892346
68	0x3eb19d83	0.34690484
69	0x3eb474bb	0.35245308
70	0xbe47b573	-0.19502811
71	0xbed68ffc	-0.41906726
72	0xbea42247	-0.32057402
73	0x3de15d95	0.110041775
74	0xbe6b8948	-0.23001587
75	0xbdd593e7	-0.10428601
76	0xbe269797	-0.16268764
77	0x3ccdee34	0.025137998
78	0x3ebc3292	0.36757332
79	0x3deac813	0.114639424
80	0x3ef04293	0.46925792
81	0x3e3c8b91	0.18412615
82	0xbed00c9d	-0.40634623
83	0x3d40d56d	0.04707854
84	0xbdea3040	-0.11434984
85	0x3ea17044	0.31530964
86	0xbebcae18	-0.36851573
87	0xbe1899bf	-0.149024
88	0xbeb10858	-0.34576678
89	0xbe0dac7a	-0.13835326
90	0x3e93cf3a	0.2886904
91	0xbecaa184	-0.39576352
92	0xbebd1420	-0.36929417
93	0xbecb4330	-0.39699697
94	0xbd290f2c	-0.041274235
95	0x3db395a0	0.08768773
96	0xbecc7318	-0.3993156
97	0x3e4eaca2	0.20183042
98	0xbb1407e4	-0.002258771
99	0xbebcaa33	-0.36848602
100	0x3ef5bc5d	0.47995272
101	0xbe015748	-0.12630951
102	0x3de00228	0.10937911
103	0xbe12e1f8	-0.14344013
104	0xbe63043c	-0.22169584
105	0xbf027227	-0.5095543
106	0x3ef87ac8	0.48531175
107	0x3e96ef70	0.2947955
108	0xbcac4459	-0.021028684
109	0xbe831d3a	-0.25608236
110	0x3d58fe3e	0.05297684
111	0xbe6c371f	-0.23067902
112	0x3ec38d9e	0.38193983
113	0xbe95efd7	-0.29284546
114	0x3ed703c3	0.41995057
115	0x3d3e1b62	0.046412833
116	0x3e02f8b4	0.12790185
117	0x3da5292e	0.08064495
118	0xbdbafceb	-0.091302715
119	0xbf016541	-0.50545126
120	0x3ed4f84d	0.41595688
121	0x3c8bf325	0.017083714
122	0x3eb5e926	0.3552944
123	0x3f01f837	0.5076937
124	0xbe8322e5	-0.2561256
125	0x3e0f48a8	0.1399256
126	0x3ec5f5ba	0.38664037
127	0xbe498154	-0.19678241

model.2.weight f4 [1, 128]
0	0xbd8dcf4e	-0.06924306
1	0x3db9dac1	0.09074927
2	0x3d5f61f2	0.054536767
3	0xbd1b5af3	-0.037928533
4	0x3bf068c0	0.007336706
5	0x3d545c7b	0.05184601
6	0xbcd6bbbf	-0.026212571
7	0x3b66da68	0.0035225395
8	0x3d9f92e7	0.07791691
9	0xbd1d031b	-0.03833304
10	0xbdb2aa9e	-0.08723949
11	0x3daeb64d	0.08530865
12	0x3d979ead	0.07403312
13	0xbd1be8c8	-0.038063794
14	0xbd52158f	-0.05129009
15	0x3cbf0838	0.023319349
16	0xbd1c9aa8	-0.03823343
17	0xbd4cbc4d	-0.049984265
18	0x3e9dca71	0.30818513
19	0x3d90555c	0.07047531
20	0xbc251295	-0.010075231
21	0x3cc8c458	0.024507686
22	0xbd607dc3	-0.054807436
23	0xbd9c68a0	-0.07637143
24	0xbd579ecf	-0.052641686
25	0x3d3911a5	0.045182843
26	0x3d693c18	0.056942075
27	0x3c7a3a70	0.015272722
28	0xbd607598	-0.054799646
29	0x3dafc9e5	0.0858343
30	0xbd8b7006	-0.06808476
31	0x3d8d1aab	0.06889852
32	0xbeb6fc4a	-0.35739356
33	0xbcd21433	-0.025644397
34	0xbda939fb	-0.08263012
35	0xbd7190b8	-0.058975905
36	0xbd5435f4	-0.051809266
37	0xbd9ab887	-0.07554727
38	0xbc9401e6	-0.018067311
39	0x3d98c4f8	0.07459444
40	0x3d9a2b0d	0.075277425
41	0xbd9b1729	-0.07572777
42	0x3d29e278	0.041475743
43	0x3b2690d7	0.002541592
44	0xbc5f47ce	-0.013627959
45	0x3d1439ef	0.036188062
46	0x3d2bff47	0.0419915
47	0xbd2ce776	-0.042212926
48	0xbb974885	-0.0046167993
49	0xbc271779	-0.010198467
50	0xbd2cd6a9	-0.042196903
51	0xbc55f0f2	-0.013057934
52	0xbc067e0c	-0.008208763
53	0x3cc1baca	0.023648638
54	0x3d715391	0.058917586
55	0x3c104ad1	0.0088069
56	0x3d5966e5	0.053076643
57	0xbbf83ebb	-0.0075758374
58	0x3ccfed0c	0.025381587
59	0xbc32afee	-0.010906203
60	0x3d119081	0.0355382
61	0xbd9609a0	-0.073260546
62	0xbd7f2cde	-0.062298648
63	0xbd87e4dd	-0.06635449
64	0xbbb3702c	-0.0054760184
65	0xbd325acf	-0.043543633
66	0xbd218034	-0.039428905
67	0x3c56432f	0.013077541
68	0xbd89aa0c	-0.06721887
69	0xbce2168c	-0.027598642
70	0xbcd92434	-0.02650652
71	0xbd8ba942	-0.06819393
72	0x3c557e92	0.013030665
73	0xbd6420cc	-0.05569534
74	0x3d82cf6b	0.06387218
75	0xbca39144	-0.019966729
76	0x3cc39c27	0.02387817
77	0x3d7b20d6	0.06131061
78	0x3d875bd4	0.06609312
79	0xbd2fa148	-0.04287842
80	0x3d6f64f5	0.05844589
81	0xbd875999	-0.06608886
82	0xbca954e8	-0.02067037
83	0xbda29005	-0.07937626
84	0x3cfb47de	0.030673917
85	0x3dc65a45	0.09685186
86	0xbd29e279	-0.041475747
87	0xbb6e43a4	-0.0036356235
88	0x3c9ac10d	0.018890882
89	0xbc6180d3	-0.013763624
90	0x3ccd4d0d	0.025061155
91	0x3da68008	0.08129889
92	0x3d7ef411	0.06224448
93	0x3c480e98	0.012210511
94	0xbd807a28	-0.062732995
95	0xbd9618cd	-0.07328949
96	0xbcd1804e	-0.025573876
97	0xbc133d0a	-0.008986721
98	0x3ec429bb	0.38313088
99	0x3c88125b	0.016610315
100	0xbe87d414	-0.2652899
101	0xbd726172	-0.059174962
102	0xbcb39c6a	-0.02192517
103	0xbd08950c	-0.033345267
104	0x3c8475a9	0.016169386
105	0xbec15bc9	-0.3776534
106	0x3cac13a7	0.021005465
107	0xbcdf2568	-0.027239516
108	0x3d916851	0.07099975
109	0x3d9a0d6f	0.075220935
110	0xb9e9dc98	-0.00044605578
111	0xbdd0611b	-0.101747714
112	0xbcaa3e2f	-0.020781605
113	0x3d32fe7f	0.043699738
114	0x3de738cc	0.1129013
115	0x3cebd9b1	0.028790327
116	0xbc94252a	-0.018084127
117	0xbca48504	-0.020082958
118	0xbdc12b13	-0.09432044
119	0xbd94bf21	-0.072630174
120	0xbd28db2f	-0.041224655
121	0x3c20c0b6	0.009811571
122	0xbe6a14ed	-0.22859545
123	0x3e647383	0.22309689
124	0x3d858862	0.065201536
125	0xbcc9236e	-0.024553027
126	0x3d85586a	0.06511004
127	0x3d8f5791	0.06999124
