finals/neuralq6.pt (torch, 5208 bytes, 3 tensors)

model.0.weight f4 [128, 4]
000000 b2 e6 7e be eb 79 5d be 46 10 54 be 99 68 0a bd
       -0.24892691 -0.2162854 -0.20709333 -0.03379116
000010 d4 a5 3a 3e 6f f8 63 3e 87 3d 98 3e 9e 5f c0 be
       0.18227321 0.22262739 0.29734442 -0.3757295
000020 97 ad 87 3e 76 db b5 3e 7e b1 11 3e 7b ac 40 bd
       0.26499626 0.35518998 0.14227864 -0.04703949
000030 13 ee cd be 16 15 25 3c 61 6a 21 3e d7 88 4c be
       -0.402207 0.010075828 0.15763237 -0.19974075
000040 e0 12 73 3e 0a 4d 9f be 3d ed 8c be a2 19 b5 be
       0.23737669 -0.31113464 -0.27524748 -0.3537112
000050 29 f2 12 3e fd a0 31 bf 91 a2 a9 be 23 1e fa 3e
       0.1435019 -0.69386274 -0.3313184 0.48851117
000060 f6 22 22 3e a0 df dc be 62 4f ea 3d 32 db e5 be
       0.15833649 -0.43139362 0.11440922 -0.44893795
000070 1c 12 aa be 7a b5 fb be 4a 15 ba be e4 dc c5 3e
       -0.3321694 -0.49161893 -0.36344367 0.3864509
000080 6a 52 0c 3e b3 ee fb 3c 81 84 00 3f 5c 01 d2 3e
       0.13703313 0.03075347 0.50202185 0.41016662
000090 00 59 64 be a8 71 fb be 94 eb 5e be da 2b bf be
       -0.22299576 -0.4911015 -0.21769553 -0.37338144
0000a0 8d 80 33 bd 14 6d 20 be da 2e ad 3e cd 8f ce 3e
       -0.043823767 -0.1566661 0.33824807 0.40344086
0000b0 49 91 48 3e 31 70 bf 3e 09 8c d9 be e2 c9 aa 3e
       0.19586672 0.37390283 -0.4248965 0.3335715
0000c0 30 ed 35 3e 92 e8 1f 3e 54 6f be be b7 ec d0 3e
       0.17766261 0.15616062 -0.37194312 0.408056
0000d0 cf ff 6d be 04 43 7a 3e 7f d3 dd 3d f1 21 c8 3e
       -0.23242114 0.24439627 0.10831355 0.39088395
0000e0 60 94 8a 3d 2a 46 58 3d 92 ea 54 be e4 e7 a5 3e
       0.067665815 0.05280129 -0.20792606 0.3240348
0000f0 50 63 43 be 18 0a af 3d 0e ab b7 be 28 33 fe bd
       -0.19080853 0.08546847 -0.35872692 -0.12412101
000100 3e 89 c2 3e db e1 03 bd 74 59 7c be a2 45 a5 be
       0.37995332 -0.032197814 -0.24643499 -0.32279688
000110 42 70 d3 be 2a b5 b1 3e e4 e5 a1 be d0 5a 9a be
       -0.41296583 0.3470853 -0.31620705 -0.3014741
000120 fe 4d bb 3d 02 2b 46 bf 88 3c bc 3e f5 ea 8c 3d
       0.09145735 -0.77409375 0.36764932 0.06880752
000130 ae 73 99 be 30 7b e3 3e 64 67 13 3e 80 db bc bb
       -0.2997107 0.44429922 0.14394909 -0.005763471
000140 e6 d2 b7 3d 61 cb a8 bb 62 6d b0 3d 68 16 9a be
       0.089757726 -0.005151198 0.08614613 -0.3009522
000150 e6 dc ce 3d 9e 37 16 3f e0 07 e9 3e e8 6c 53 3e
       0.10100727 0.58678615 0.4551382 0.20647013
000160 00 20 78 3b 50 46 da 3d f4 ef ae be c4 4b 5a 3e
       0.003786087 0.10657942 -0.34167445 0.21317965
000170 56 2b 9f bd b0 ec 71 3e 2d 55 dc be c0 7e b1 bc
       -0.077719375 0.23625445 -0.43033734 -0.021666884
000180 e8 4c cf 3e c0 10 22 be 69 f9 ce bd 77 99 89 bd
       0.40488362 -0.15826702 -0.10106165 -0.06718724
000190 2e f5 1d 3e 32 4c b9 be 8d c1 7d be 71 50 7d be
       0.1542556 -0.36190945 -0.24780865 -0.24737717
0001a0 aa 02 bc be d0 01 64 bd 7a 05 82 3e 0c 58 1e 3e
       -0.36720783 -0.05566579 0.25394803 0.15463275
0001b0 00 c2 10 be 21 d7 c8 3e 8e 19 a6 bd cc 42 e5 be
       -0.14136505 0.3922663 -0.08110343 -0.44777524
0001c0 79 0d 89 3d 42 38 3a 3e 66 2d e9 be 0c dc bf be
       0.06692023 0.18185523 -0.4554245 -0.3747257
0001d0 bf d4 66 bd 10 f9 a2 3e e5 46 8a 3e ea 7b fb be
       -0.056355234 0.31830645 0.27007213 -0.49117976
0001e0 8a 76 ba be e6 5d ba 3e a8 be e2 bd 5c b0 44 3e
       -0.36418563 0.36399764 -0.11071521 0.19207901
0001f0 72 42 db 3e 0c 2b 4b bd 84 a3 76 3e b2 f0 fc be
       0.4282413 -0.0496016 0.24085814 -0.49402386
000200 2d d5 46 3d 99 30 fc 3d 7a fd bd 3e 40 ae 1d 3e
       0.048543144 0.12313957 0.3710745 0.15398502
000210 24 55 bc be 40 a7 ae be 26 bf e1 3e 18 7d f0 bd
       -0.36783707 -0.34111977 0.44091147 -0.1174261
000220 c8 af af be da c3 e3 bd 31 64 f0 3e d3 a0 8f 3d
       -0.34313798 -0.1112134 0.4695144 0.07013097
000230 ae a4 c9 3e 81 c0 8d bc 18 03 c4 be b3 ab d4 be
       0.39383453 -0.017303707 -0.3828361 -0.41537246
000240 bf ed cb 3e 31 a4 47 bf 1d ce 99 3e 71 ff 00 bf
       0.39829823 -0.7798491 0.30040064 -0.5038977
000250 50 f6 77 3e c1 0b 37 bf 60 14 5a bd cd 4f 8c be
       0.24215055 -0.7150231 -0.053242087 -0.27404633
000260 59 ac e8 3d 3e 87 3b 3f 35 ff 91 bd 97 74 03 be
       0.11360998 0.7325324 -0.07128755 -0.12837444
000270 d1 4d bf 3e e4 71 dc be 60 85 64 be d4 de 04 3e
       0.37364057 -0.43055642 -0.22316504 0.12975627
000280 6d ab 2a 3d 5d c9 ab be cf b0 38 3e 84 ec 88 3e
       0.04166739 -0.33552065 0.18036197 0.26742947
000290 ca ba b7 be c4 51 35 3e 50 f4 6a be fe bf ce be
       -0.35884696 0.17706972 -0.2294476 -0.40380853
0002a0 c0 82 31 3c 76 f5 ad be c0 06 a7 bd a4 c8 d0 be
       0.010834396 -0.33976334 -0.08155584 -0.40778077
0002b0 f4 19 32 be 20 55 51 be 60 2f af 3e 80 ac 1c be
       -0.17392713 -0.20442629 0.34215832 -0.15300179
0002c0 ea fe c0 3e a9 5c d4 3e c2 d5 ad be f5 02 c2 be
       0.37694484 0.41476944 -0.33952147 -0.3789288
0002d0 5e dc cf be c0 6a 00 3c 88 59 f9 bd 3c 85 2c 3e
       -0.40597814 0.007837951 -0.1217528 0.168477
0002e0 a7 b7 ce 3d c2 35 3d be 1e 73 98 3e 0e 2c 96 3e
       0.10093623 -0.18477538 0.29775327 0.29330486
0002f0 35 53 94 3d 7e 17 56 3e e8 3f 2f bd 8e e4 c1 3b
       0.07242433 0.20907399 -0.042785555 0.0059171384
000300 46 12 3d 3e a8 27 00 3f 05 a6 21 3e 03 51 bd bc
       0.18464002 0.5006051 0.15785988 -0.023109918
000310 94 f7 54 be d4 89 26 be a0 d0 27 3d b0 2f b8 be
       -0.20797569 -0.16263515 0.040970445 -0.35973883
000320 61 cd a1 3e 51 a7 df be 8b 95 93 be 2d d3 59 be
       0.31602004 -0.4368234 -0.2882503 -0.21271963
000330 4d 65 7b 3d 65 3f 65 3e 95 57 82 3e 9b 33 57 3e
       0.061375905 0.22387464 0.25457445 0.2101578
000340 8f 1e b5 3e 90 51 88 3d 33 9b ac bd e9 60 5e 3e
       0.35374877 0.06656182 -0.084280394 0.21716656
000350 b0 83 2c be a1 a2 a2 be 98 d9 96 3e d1 81 83 be
       -0.1684711 -0.317647 0.29462886 -0.2568498
000360 bc 68 c7 3d d3 f9 2d 3f 13 37 df 3d b9 06 42 bc
       0.09736773 0.67959327 0.108991764 -0.011842423
000370 5c 88 39 be cc 15 1d 3e 84 fe 43 3e 10 58 96 be
       -0.18118423 0.15340346 0.19140059 -0.2936406
000380 db 83 c2 3d aa 21 27 be 51 b9 ac 39 b5 53 fc 3e
       0.09497806 -0.16321436 0.00032944468 0.49282613
000390 51 d0 94 bd 6b aa 26 3f 72 5e dd 3e 7d ea d6 bd
       -0.07266296 0.6510379 0.4323612 -0.10493944
0003a0 bd c4 84 3e 07 8b 4e 3e 92 ba e6 3e 71 92 da be
       0.2593135 0.20170222 0.45064217 -0.4268985
0003b0 78 93 16 be 40 a8 bb bd 7a 1a a2 be a0 b4 0d be
       -0.14704692 -0.091629505 -0.31660825 -0.13838434
0003c0 d9 51 92 3e ac 18 1e be bf 43 11 3e 58 cb f5 3e
       0.2857807 -0.15439099 0.14186 0.480067
0003d0 33 f6 10 3e 5c 64 b6 bc d9 a8 20 3e 22 b4 05 3e
       0.14156418 -0.022264652 0.1568941 0.13056996
0003e0 ec 3f d6 be 3d d8 f2 3e 99 32 28 be a7 25 66 be
       -0.41845644 0.47430602 -0.16425551 -0.224753
0003f0 5b 4b de 3e b8 4f 53 3b ca 15 76 bd 6f c0 be be
       0.43416867 0.003224356 -0.060079373 -0.3725619

model.0.bias f4 [128]
000000 5c 71 b3 3e 3e 4e ed 3d e1 36 a0 3e 4c a5 08 3e
       0.35047424 0.11587189 0.3129187 0.13344306
000010 ec c6 17 bf 62 60 79 3d be c0 af be 30 56 55 3e
       -0.59287906 0.060882933 -0.34326738 0.20833659
000020 04 de e3 bd 88 cc a5 be bd 9d f2 3e 1c f4 19 bf
       -0.111263305 -0.32382607 0.4738597 -0.60138106
000030 74 7d d5 39 50 8b 1a 3f 4f 7d df be 32 ad e8 be
       0.00040719996 0.60368824 -0.4365029 -0.45444638
000040 07 58 7d bf 72 1d f4 be 1b ad 58 3e cc 58 af be
       -0.98962444 -0.47678715 0.21159784 -0.34247434
000050 e9 90 b6 3e dd 30 50 bf f4 03 39 be 52 16 9c 3e
       0.35657433 -0.8132456 -0.18067914 0.3048578
000060 d1 f2 02 be 13 92 ec 3e be 61 af be d1 68 90 3e
       -0.1278794 0.46205196 -0.3425426 0.2820497
000070 d3 a0 bf be f3 3e 10 3e d8 eb bf be 34 37 87 be
       -0.37427387 0.14086513 -0.37484622 -0.26409304
000080 dc 9d 88 be e8 95 df bd d9 c7 24 3e f6 b8 e7 3e
       -0.26682937 -0.10917264 0.16091861 0.45258301
000090 d0 2c c1 be 79 1f 51 bd 55 63 47 bf ad 50 b8 3e
       -0.37729502 -0.051055405 -0.77885944 0.3599905
0000a0 f0 1b 7a 3d 4c 1a 0e be 96 6f af be 24 18 58 be
       0.0610618 -0.13877219 -0.3426482 -0.21102959
0000b0 8e 79 e1 3e 0e b3 91 be b9 c4 27 3e b5 fe 99 3e
       0.4403805 -0.2845692 0.16383637 0.3007714
0000c0 4a a5 1f 3e 46 51 bc be 07 a8 d7 be 2b 80 12 bd
       0.15590397 -0.36780757 -0.42120382 -0.03576676
0000d0 78 95 ed ba be c8 5b 3f 0d 64 42 bf b0 23 ac be
       -0.001812621 0.85853183 -0.75933915 -0.33620977
0000e0 d0 0d 82 bd 15 02 0b be cf b4 17 3c 20 fe e1 bc
       -0.06350291 -0.13575013 0.009259417 -0.027586997
0000f0 2e 19 d6 bd 36 80 df be 97 c2 3d 3d 3c 83 37 be
       -0.104540214 -0.43652505 0.046328153 -0.17921156
000100 9b 88 c0 be 8a 98 0c 3d b9 29 89 3e 75 ee 2f 3e
       -0.37604222 0.03432516 0.26789644 0.17180808
000110 00 45 ae bb c8 03 0e bf d6 04 de be 4c e7 ab be
       -0.005318284 -0.5547452 -0.43363065 -0.33574903
000120 f4 d7 ee be fb e3 60 be c9 b4 d7 3e fc b5 14 be
       -0.46649134 -0.21961968 0.42130116 -0.14522547
000130 5f d8 b5 3d 0b 00 80 3d c7 fa 10 be 80 8c 89 bc
       0.0887916 0.06250008 -0.14158164 -0.016790628
000140 a1 fc 83 3e ed 67 d0 3e 67 6b dd 3d 02 26 da 3e
       0.25778678 0.4070429 0.10811501 0.42607123
000150 c1 4a df 3e d3 fa 96 3e 16 2e 7e 3e 1e b4 b0 be
       0.4361172 0.2948824 0.24822268 -0.34512419
000160 a4 d1 5d 3e 58 68 c2 be d1 6e 05 bf 87 9d 5d be
       0.21662003 -0.37970233 -0.5212222 -0.21642123
000170 f1 1d da 3e 76 f2 f7 be 64 07 9d be 07 f3 7b bf
       0.42600968 -0.4842717 -0.306697 -0.98417705
000180 f5 62 78 3e 17 29 0c be 6e 0d a3 be 50 5d fb 3d
       0.24256499 -0.1368755 -0.31846184 0.12273657
000190 7a ee bc be 19 d8 9e 3e cb 30 82 bf e4 2f 07 3e
       -0.36900693 0.31024244 -1.017114 0.13201863
0001a0 df 06 63 3e 7b 53 bd 3d 5c 1b f6 3e b7 60 15 3f
       0.2217059 0.09244438 0.4806775 0.583507
0001b0 3e c8 f9 be ff d6 7e 3e b8 8c 81 be f2 f9 b3 be
       -0.48785585 0.24886702 -0.25302672 -0.3515163
0001c0 ae 48 da be 40 69 8f bc e7 01 96 3e b9 a2 19 bc
       -0.42633575 -0.017506242 0.29298326 -0.009377175
0001d0 02 fa d6 bd f6 54 25 bd 95 f5 e0 3e 41 7f 52 bc
       -0.10496904 -0.04036423 0.43937364 -0.0128477225
0001e0 d8 18 8b 3d 24 ce 9d 3d 93 f5 3e 3e be 74 68 bc
       0.06791848 0.07705334 0.18648367 -0.01418799
0001f0 30 e7 33 be 72 80 21 3d 64 5f 74 3e 7e 9d 42 be
       -0.1756866 0.039429136 0.23864514 -0.19005391

model.2.weight f4 [1, 128]
000000 4e dd f0 3c 45 7d 05 3e d1 2d a6 3d 51 8b 98 bd
       0.029402401 0.13036068 0.081142075 -0.074484475
000010 85 f4 34 3e 50 a4 18 bf de 24 82 be d3 11 94 3d
       0.17671402 -0.5962572 -0.25418752 0.07229962
000020 c5 f2 84 3d fe a2 02 3d 1a e7 cb 3c bd 46 61 3e
       0.06491617 0.031893723 0.024890471 0.21999641
000030 5b 2e 28 3d cf e7 d5 3e c6 bb 36 bd 79 2f 05 3d
       0.041059833 0.41778418 -0.04461267 0.032515977
000040 0b 01 41 3f 10 dc 81 3d 11 6b 1f bf 6b 1b 49 3d
       0.75392216 0.06340802 -0.62272745 0.049098413
000050 36 03 0d 3d 68 4a 5b 3f 76 92 d2 3c 57 65 37 3d
       0.03442689 0.8566041 0.025704604 0.04477438
000060 e4 86 f8 bd 97 be ad bc 12 75 b3 bd f7 1a ae 3d
       -0.12135103 -0.021209044 -0.08762564 0.08501237
000070 b0 bc e7 3e fc c1 0e 3e ef ba 45 bd 08 9f 82 3d
       0.45261145 0.13941187 -0.048273977 0.06377989
000080 e6 20 a0 3e 71 d3 a2 bd 80 c4 32 bb ed 7c 6b bd
       0.312751 -0.079504855 -0.0027277768 -0.057492185
000090 9a 03 0f bf c2 84 10 bf e4 6b 5f 3f 58 28 83 bd
       -0.5586487 -0.5645257 0.87274003 -0.06404179
0000a0 12 98 4e be c1 cf 33 bd 06 43 32 bd 56 c8 06 bd
       -0.20175198 -0.0438993 -0.04352095 -0.0329059
0000b0 c3 19 cf 3d c8 32 3b 3d 9c 7a 32 bd b4 f4 9a 3d
       0.101123355 0.045702726 -0.04357396 0.07566205
0000c0 ed b1 25 3e a6 2e 56 3c c4 d5 92 be 5a 3b e8 3d
       0.16181155 0.013072645 -0.28678715 0.113394454
0000d0 4a 5c d3 3a be be 4a 3f 43 20 50 3f 1f 1e 81 bd
       0.0016125527 0.791973 0.8129923 -0.06304573
0000e0 55 c5 9a bd 40 27 eb be 32 93 04 3d 38 71 30 bd
       -0.07557169 -0.45928383 0.03236694 -0.043076724
0000f0 7c 32 a9 3b d7 34 b3 3e 32 41 0c be 4c e5 57 bc
       0.005163489 0.3500125 -0.13696745 -0.013177227
000100 38 70 dc bc 03 aa 44 3d 56 54 20 be b9 1e 25 bf
       -0.026908979 0.0480137 -0.15657172 -0.64500004
000110 ac b5 a1 3d 03 5e 87 3d 48 e2 55 bd 9d 52 80 3c
       0.07895979 0.06609728 -0.05221775 0.015664393
000120 07 4e 2e bd 85 42 be 3d e9 bb 85 bd 34 fe 84 bd
       -0.04255488 0.09290031 -0.06529982 -0.06493798
000130 a3 7f 07 bd e6 05 92 bd 63 0e 51 be 5f 94 aa bc
       -0.03308071 -0.07130031 -0.20415644 -0.020822702
000140 00 d7 79 3d 02 10 62 b8 c9 5a 83 3d 4f d1 59 3d
       0.060996056 -5.3897507e-05 0.064138 0.053178128
000150 1e f1 03 3d 90 79 91 3d e8 3d 3a 3d e3 d2 ac 3d
       0.03221237 0.07103264 0.045469195 0.08438661
000160 38 c9 8f bd d1 5d 9d 3b b5 a3 9f 3e aa 9e 18 bf
       -0.07020801 0.0048024436 0.31179586 -0.596171
000170 b3 72 8a 3e 09 96 90 bd 11 c2 89 3b e8 d4 90 3f
       0.27040634 -0.07059867 0.0042040427 1.1314974
000180 8c 65 b1 3d 38 e5 eb bc 87 6e d7 bc 0d 4c 9e 3a
       0.08661947 -0.028795823 -0.02629782 0.0012077108
000190 58 32 ab bc 81 a7 28 bf ff 9d 6c 3f 1a 02 49 3d
       -0.02089803 -0.6588059 0.9242858 0.04907427
0001a0 05 3f c1 bc 39 ac ac bd 05 e6 60 3d cb a6 00 3f
       -0.02358962 -0.08431286 0.054906864 0.50254506
0001b0 cb 9d 83 3e 92 f6 41 bc 3a 76 4d bd c4 e8 ba 3c
       0.25706324 -0.011838572 -0.050161578 0.02281607
0001c0 da 05 68 bd 68 0d 84 3c 29 82 81 bd 80 b1 1d 3d
       -0.056646205 0.016119674 -0.06323654 0.038499355
0001d0 17 d1 ad bc 10 47 4f 3d 07 ce 80 3d 2e fd 8f bd
       -0.021217866 0.05060488 0.062892966 -0.07030712
0001e0 1d f4 66 bc d3 c6 6a be 4e b1 05 be 15 ed 27 bb
       -0.014096287 -0.22927408 -0.13055918 -0.002562349
0001f0 38 23 77 bd 7c b8 72 bd a4 71 ea bc e0 76 84 3d
       -0.06033632 -0.05925797 -0.028618641 0.06467986
