finals/neuralq3.pt (torch, 5208 bytes, 3 tensors)

model.0.weight f4 [128, 4]
00000000: 5397 83be 6e8c e23d 3df2 3cbe ec85 24bd
00000010: 883c 0a3e b0c3 fa3e eb61 f6be d7d0 d9be
00000020: e696 48be 0053 8abd 573a 6dbd 957b d23e
00000030: cd13 e7bd b72b 073e c0e8 e6be 36f6 dcbc
00000040: c60e c7be 6e26 b03e 480f afbe 20b1 bf3e
00000050: 0624 a4be 401e 963d a07a cc3d 40a8 24be
00000060: 5fdf 0b3d 67ba 4c3e 1abf d33e e3e8 bebe
00000070: 52fa c7bd 1e6a e43e 94cc 98bd 3a2b 883e
00000080: 8f30 df3e b490 debe 45b2 d23e 2c4d dfbe
00000090: b754 f2be cb9f 853e d098 293e 1232 d83e
000000a0: 61dd a03e 1409 ec3e 2172 c13e b688 9abe
000000b0: 9412 ba3e 5871 7c3e 32e9 dc3e ecb7 c4be
000000c0: bfe2 943e 2e47 febe ad35 af3e 30f8 f8be
000000d0: 394c e5be 4d48 033e 82ef 52bd 17ff fe3e
000000e0: 3ea3 e4be f582 5c3e 55eb 203e cb9d 8f3e
000000f0: 217d f13d 8d26 22be 05bc a7bd edb8 c3be
00000100: 935c 383e 7167 ae3c 1c4d debe 536d e1be
00000110: b0e8 2e3d 50d5 b6bd e087 3b3d d6b9 abbe
00000120: b1f9 b73e ebb4 d33e cfb7 1abe f71c c33d
00000130: 7c80 eebe cc1b da3e 067f 8abe 2f7a b1be
00000140: cc0a 03be e8fc 67be 008a 103d 581c b13e
00000150: 8d3d fa3d 4656 5dbe db7e 903e 3b7d e53e
00000160: 613d 2d3e de08 a63e 979c b3bd 0f0a aebe
00000170: 572e cf3d b501 a7be e5ba 8ebe caf8 bf3e
00000180: a060 d8be 70c3 41be e6ff f1be f8a0 68be
00000190: 5093 d43d 78ea f8bd 3cf1 9cbe 1266 99be
000001a0: 38f6 853d b25b f5be 40f1 75be 88c5 573e
000001b0: 8ada e6be 1cb6 d23e 96c2 95be d4a7 783e
000001c0: 0c33 83bd 56d2 de3e 7bd8 b7bd f49d bebe
000001d0: fffc 7c3d a361 4cbe a6b3 0dbd f117 a6be
000001e0: f67f e6be 003c d6be 20a9 c43c 56a0 d3be
000001f0: 1a80 f8be 00f2 adbd 46e5 d3be b81e a1be
00000200: 2064 bbbd d40f 33be 68fa dd3e b454 b9be
00000210: ce08 193e 94c4 aebe a934 293d 6833 dd3e
00000220: 4816 14be c6ca f0be e09a 293e 0412 14be
00000230: 59b3 653e 61da 8d3e ce3e 603d 85c5 01be
00000240: 6ac8 cb3d 45e2 c83e bcd4 053d 6c9a cb3e
00000250: 0b78 c13e c72d 0f3e c813 a3bd d97c 983e
00000260: c41a c93e 5636 053e c07d 193e 5b38 bdbe
00000270: 8423 b6be 8077 8ebc 8a8b e6be f4af b3be
00000280: ceb1 cdbe 90df f93d 18de 3cbe d69a 88be
00000290: 3d6e bdbd 742d dbbe 2639 163d 4362 37be
000002a0: 9d75 d23e 1ada fb3e 5234 dfbe 809c a6be
000002b0: 9b31 01bc 4736 0a3e 9e06 903e e480 263e
000002c0: d26f f8be cca0 863e 8238 d8be 40fe bebc
000002d0: 451b 90be 3504 44bc 31a3 40bd 5dd9 26bc
000002e0: abed a63e 4c43 c13e 13bd c73e f735 20be
000002f0: 9354 243e 2f2a fb3e d1eb 0e3e e17f cd3e
00000300: 1c26 8b3e fa4b 413e 2103 f9be 6e41 203e
00000310: c1db 86be ebf2 f33e e328 a8be 1dc5 e3be
00000320: 60ec ccbc f40b 863e c02d 10bd b4f2 9f3e
00000330: 4028 01bd 6a56 c0be 58a7 283e cc42 3abe
00000340: 1f1a c33c 84de d5be 3eef debe 73f6 4a3e
00000350: e189 dfbe 6ab0 9dbd 00a7 afbe 9ba6 863d
00000360: f04d b4be 51bd aa3e 5e47 f5bd 0a7d 823e
00000370: 86c4 abbe e5fc 9d3e ca9e b33e f721 903e
00000380: 00ee 38be a20e c03e 8324 adbe 3a74 923e
00000390: f718 91bd 750c e9be 1459 ca3e 6e99 4cbe
000003a0: 50b2 db3e 15aa cb3e eb20 49bd b73c 28be
000003b0: 38af a3be 9876 eebd 5c5d ab3e cec0 abbe
000003c0: 98c7 dabd b047 963d 04f3 133e 6007 9abd
000003d0: 5699 b9be 4e10 9cbe 9e6c 933e 2010 393d
000003e0: 8dc6 8ebe 2cfd 32bd cbdd 103d d638 673c
000003f0: 5792 b73e 7ee5 e23d fa09 74be e578 1b3c
-0.2570139 0.11061941 -0.18451782 -0.04016678 0.13499653 0.48977423 -0.4812158 -0.42542145
-0.19588813 -0.06754112 -0.057916965 0.4110991 -0.112830736 0.1320027 -0.4509945 -0.026972871
-0.3887846 0.3440432 -0.34191346 0.37439823 -0.32058734 0.073299885 0.09984326 -0.16079807
0.03414857 0.19992982 0.41356736 -0.37287053 -0.09764542 0.4461221 -0.07460895 0.2659548
0.43591735 -0.43469775 0.41151634 -0.43613565 -0.47330257 0.26098475 0.165622 0.422257
0.314189 0.46100676 0.37782386 -0.30182427 0.363423 0.24652612 0.43146664 -0.3842157
0.29079244 -0.4966368 0.3422064 -0.48626852 -0.44784716 0.1282055 -0.051497944 0.49803993
-0.44655794 0.21534331 0.15714772 0.28050074 0.117914446 -0.15835018 -0.08190159 -0.38227025
0.18004064 0.02128956 -0.43418205 -0.4402872 0.042702377 -0.08927405 0.045783877 -0.3354022
0.35932687 0.41348967 -0.1510918 0.09527009 -0.465824 0.42599332 -0.27050036 -0.3466353
-0.12797087 -0.2265507 0.035287857 0.34591937 0.12218771 -0.21614942 0.28221783 0.44822106
0.16917945 0.3242864 -0.087701015 -0.3399205 0.101162605 -0.3261849 -0.27876964 0.37494498
-0.4226122 -0.1892221 -0.47265548 -0.22717655 0.1037966 -0.12154096 -0.30652797 -0.29960686
0.06541103 -0.4792152 -0.24017811 0.21071446 -0.45088607 0.41154563 -0.2925002 0.24282771
-0.06406221 0.4351985 -0.08976837 -0.37229884 0.061764713 -0.1995912 -0.034595154 -0.3244014
-0.450195 -0.4184265 0.024006426 -0.41333264 -0.48535234 -0.084934235 -0.4138586 -0.3146875
-0.09149957 -0.17486507 0.43355107 -0.36197436 0.14944765 -0.34134352 0.041309986 0.43203282
-0.14461625 -0.47029704 0.16562986 -0.14459997 0.22431697 0.27705672 0.054747395 -0.12673004
0.09950335 0.3923513 0.032673582 0.39766252 0.37786898 0.13982306 -0.07962757 0.2978275
0.39278233 0.13009009 0.14989376 -0.36957058 -0.3557397 -0.017390966 -0.45028335 -0.3509518
-0.40174717 0.12200844 -0.18444097 -0.2668063 -0.09249542 -0.42808115 0.036675595 -0.17908578
0.41105357 0.49189836 -0.43594605 -0.32541275 -0.007885362 0.13497268 0.2813005 0.16260105
-0.48522812 0.26294553 -0.42230612 -0.023314595 -0.28145805 -0.011963894 -0.04703063 -0.010183659
0.326032 0.37746656 0.3901144 -0.15645586 0.16047888 0.4905562 0.13957144 0.40136626
0.27177513 0.18876639 -0.486352 0.1564996 -0.26339534 0.4764627 -0.32843694 -0.44486323
-0.025015056 0.26180995 -0.03519988 0.31239855 -0.031532526 -0.3756593 0.16470087 -0.18189543
0.023816166 -0.41771328 -0.43541902 0.19820575 -0.4365988 -0.07699664 -0.34307098 0.06574746
-0.35215712 0.33347562 -0.11976503 0.25486022 -0.33548373 0.30857006 0.35082084 0.28150913
-0.1805954 0.37511164 -0.3381692 0.286043 -0.0708484 -0.45517316 0.39521086 -0.19980404
0.4290948 0.397782 -0.04910366 -0.16429411 -0.3196962 -0.11643714 0.33469665 -0.33545536
-0.10682601 0.07337892 0.14448172 -0.07520938 -0.362498 -0.3048119 0.28793806 0.045181394
-0.27885857 -0.043698475 0.03536777 0.014112672 0.35853836 0.110789284 -0.23831931 0.009489273

model.0.bias f4 [128]
00000000: c43b 233e 43e6 853e f632 733c e1f4 aebd
00000010: 442b f0be 42ba e3be 4c05 2bbd 8016 c63e
00000020: dd8f fd3e fe28 7e3e 84a8 b03e 9071 1ebe
00000030: 4889 413e 9882 2f3e 74d7 c73e 3915 32be
00000040: 3f38 4b3e b0bb 38be 15b6 b1be af3e e53e
00000050: 48a1 edbd 8828 613e d9d8 d2be 03a0 96be
00000060: f20d ccbe 1e60 f5be a8c6 8dbe 987f 233d
00000070: bebb 763e b62c 91bd 908a 13be fa14 e4be
00000080: 823e 95be 506e 873e d407 81be eaae 323e
00000090: 3c22 753d 6b6d 323e 4ec3 04be fe27 ffbe
000000a0: f837 ecbe 3325 ea3e 9e8c f6bd 82b8 eebd
000000b0: b8a0 a5be 6350 cf3e 0042 5cbe 8e62 80be
000000c0: 6ed1 97be 4f9e 50bb 6860 b7be a211 a3be
000000d0: 1ccd ef3e 6502 bc3e 3038 85bd 674b 4b3d
000000e0: 2b30 55be d359 fc3e 9465 803e a4c9 a8be
000000f0: d619 a5be 0841 d53d e409 ce3e 4fe3 ce3e
00000100: 339d b73d 7338 753e 5981 363e 5ab9 9bbd
00000110: 78d0 97be f136 9ebe f0f2 dfbd aa41 ddbe
00000120: 803f 4cbd d122 20be 2b48 913e c02e 70be
00000130: 9b3a 9b3e bfd3 c43c c59c c9be 0050 23bd
00000140: a373 a93e 1e6b f33e e0a0 d13c a17d b33e
00000150: 7ff4 743e e9e7 253d 585c f0be a236 b1be
00000160: 9874 a0be 5a16 f53e cb1e 45bc a027 bd3e
00000170: 8081 d73b bd3d 4a3d 49ea ea3e c11b 9dbe
00000180: 2efd f23d 5d3f 1abe e78b 7c3e 7f7e 313d
00000190: e5bf 94be 161f 3c3d dd52 ac3d 902a ebbd
000001a0: 7038 34be 76b1 b73e 570f ffbe abe4 abbd
000001b0: d0f3 75be c228 c43e dfcc c0be 33ff 713d
000001c0: 12e4 7a3d 0fec f13d b76b 783e 20ee 70be
000001d0: 7892 21be f0c6 93be 1575 a33e 506a f0be
000001e0: 47c3 473e 76bd d43e 9692 c53e a6c3 a53e
000001f0: 38af 813d 090a ab3e 39e9 98bd 2fd1 963d
0.15940768 0.26152238 0.014843693 -0.08542801 -0.4690801 -0.4447804 -0.0417531 0.3868904
0.4952382 0.24820325 0.34503567 -0.15473008 0.18900025 0.17139661 0.39031565 -0.17390908
0.19845675 -0.18040347 -0.3470923 0.44774386 -0.116030276 0.21988118 -0.41181067 -0.29418954
-0.3985439 -0.47924894 -0.27690625 0.039916605 0.24095055 -0.07088606 -0.14408326 -0.44547254
-0.29149252 0.2645135 -0.25201285 0.17449537 0.0598471 0.17424552 -0.12965128 -0.498352
-0.4613645 0.45731506 -0.12038539 -0.11656286 -0.3234918 0.40491018 -0.21509552 -0.2507519
-0.2965197 -0.003183264 -0.3581574 -0.3184939 0.46836174 0.36720577 -0.065048575 0.049632456
-0.20819156 0.4928728 0.25077498 -0.3296634 -0.32246274 0.10412794 0.4024192 0.40407798
0.0896553 0.23947315 0.1782278 -0.076037124 -0.29651237 -0.30901292 -0.109350085 -0.4321416
-0.049865246 -0.15638281 0.28375372 -0.23455334 0.3031815 0.02402675 -0.39377418 -0.039871216
0.33096036 0.4754266 0.025589406 0.35056785 0.23921393 0.04050437 -0.46945453 -0.34611994
-0.31338954 0.47868615 -0.012031267 0.36944294 0.006576717 0.049375284 0.4588187 -0.30685237
0.118646964 -0.15063234 0.24662744 0.043333527 -0.29052654 0.045928083 0.084142424 -0.114827275
-0.17599654 0.3587758 -0.4981639 -0.08393224 -0.24018788 0.38312346 -0.37656304 0.059081268
0.06125266 0.11812603 0.2425984 -0.23528337 -0.1577853 -0.28862715 0.31925264 -0.4695611
0.19508086 0.41550797 0.385884 0.3237583 0.063322484 0.33406094 -0.07466359 0.07364117

model.2.weight f4 [1, 128]
00000000: 72c6 90bc 7833 d03d 3a0c 913d 3f69 81bc
00000010: 53b5 253d 3513 90bd 3a37 783d a1bf 4dbd
00000020: 2242 51bd afed e8bc 1882 b5bd dd0c 9bbb
00000030: 9548 d73c 8998 acbd a728 033d 3550 3e3d
00000040: 527f 25bc def8 9abc c32e 69bd 764c 263d
00000050: 7b34 22bd bbd2 153d fb07 10bd 5598 00bd
00000060: 5b06 a8bd 6f2f 19bb 093e b3bc dc77 0abd
00000070: a3bc 293d b3ca 24bc e5c1 993d 3cc7 403c
00000080: be1c 4bbd 7e86 e4bd 7921 513d 3829 b8bd
00000090: 9045 82bd c850 923d a3cb d53c 73c8 183d
000000a0: b3fd 893d 89aa a23d 0fda 343d ae83 813d
000000b0: 3f3e 87bc 4961 70bd 3fea 65bd 8ec8 b63c
000000c0: b301 79bb e84d 24bd 1b9a 50bd 1400 2c3d
000000d0: 0d50 933d 9a5a 593d ad4f 3d3c 64e7 14bd
000000e0: 3c3f 9cbd 9f55 0e3d c5bb 843d 56db 37bd
000000f0: f68c 973c e000 d83c 5bca 193d 6ac9 acbc
00000100: 24b0 d13c 0974 653d e5d8 0c3c c11b 33bc
00000110: ef72 823d 0199 7a3d d937 94bd d6a6 9d3d
00000120: 568f b63c ae6a e0ba b430 903c 439d b13c
00000130: fd89 f2bd 70b3 9fbd db2e f13c 042f bb3c
00000140: cf40 49bd 0977 43bd bbc5 b33d 8850 8dbc
00000150: cfd0 3cba 564d 8a3d aa52 07bd ef8d 233d
00000160: 4041 f9bc 75d7 2e3d f6ad 523d fc04 b7bc
00000170: 36df b23d 602f b13d 464d 703b 823c 313c
00000180: cd7c 39bc b134 e03a 1d57 bf3d 394e a6bd
00000190: 0764 a6bd 5fae d5bd e48e aabd 104f 8f3d
000001a0: a64a 43bd 5baa bc3c 4385 c2bc 5d94 92bd
000001b0: 5263 30bd 524f 323d 077b 6d3d 478e 66bb
000001c0: 873b ac3d c8c4 383d c420 b03c ad01 10bd
000001d0: b6db 9ebd 0251 b53c c0ba 32bd 23fc 96bb
000001e0: 1171 3a3b e079 b0bd 717c 2f3d 13e0 a03d
000001f0: 66ed 203c 7039 cf3c 33b3 c0bc e759 cdbc
-0.017672751 0.10166067 0.0708241 -0.015797256 0.040456127 -0.070349135 0.060599543 -0.05023158
-0.05108846 -0.028433649 -0.08862704 -0.004731758 0.026279727 -0.08427531 0.03202119 0.04646321
-0.010101156 -0.018917497 -0.05692936 0.040600263 -0.03960083 0.03657792 -0.03516386 -0.031395275
-0.08204337 -0.002337422 -0.021880167 -0.033805713 0.041439664 -0.010058093 0.075076856 0.011766251
-0.049587958 -0.11158465 0.051057313 -0.08992237 -0.06360924 0.07144314 0.026098078 0.03730054
0.067378424 0.07942683 0.04415327 0.06323944 -0.016509173 -0.05868653 -0.056131598 0.022312429
-0.0037995398 -0.04011336 -0.050928216 0.041992262 0.07193003 0.05306492 0.011554641 -0.036353484
-0.076292485 0.034749623 0.06481127 -0.04488691 0.018499833 0.026367605 0.037546497 -0.021092135
0.025596686 0.056018863 0.008596634 -0.01093191 0.06369578 0.061181072 -0.072372146 0.07697837
0.022285145 -0.0017121637 0.017601348 0.021681434 -0.118427254 -0.07797897 0.029441288 0.022849567
-0.049134072 -0.047720943 0.087779485 -0.017250314 -0.0007202746 0.06753032 -0.03303782 0.03993028
-0.030426621 0.042685945 0.051435433 -0.022341244 0.0873398 0.08651614 0.0036667152 0.010817649
-0.011321259 0.0017105547 0.093427874 -0.081203885 -0.081245475 -0.10433649 -0.083280355 0.06997502
-0.047678612 0.02303045 -0.023745185 -0.07157204 -0.04306347 0.043532677 0.057978656 -0.0035180019
0.084097914 0.04510954 0.021499999 -0.03515785 -0.0775675 0.022133354 -0.04363513 -0.0046076938
0.002844874 -0.08616996 0.042843286 0.07855239 0.009822225 0.025295943 -0.023522949 -0.025067283
