finals/neuralq2.pt (torch, 5208 bytes, 3 tensors)

model.0.weight f4 [128, 4]
0	0x3e1974f6	0.14986023
1	0xbd1b1909	-0.037865672
2	0xbe6621e1	-0.22473861
3	0xbe98f1d0	-0.29871988
4	0x3e22b586	0.15889558
5	0xbdc8d2b0	-0.098058105
6	0xbefb2352	-0.49050385
7	0x3e010ac7	0.12601767
8	0x3eca4bd1	0.39510968
9	0xbec93848	-0.39300752
10	0xbebbebd2	-0.36703354
11	0xbeb738e3	-0.3578559
12	0xbeaadf16	-0.33373326
13	0x3e3e3928	0.18576491
14	0x3dcd1178	0.100130975
15	0x3e728f7c	0.23687547
16	0x3c32cd26	0.010913169
17	0x3ee6793a	0.45014364
18	0x3dcb2419	0.099189945
19	0xbef2af2e	-0.47399276
20	0xbdcdea95	-0.100545086
21	0x3e98fb5d	0.29879275
22	0xbc25fb05	-0.0101306485
23	0x3ebd14e7	0.3693001
24	0xbe6ab661	-0.22921135
25	0xbdbf7aa3	-0.09349563
26	0xbe7e38aa	-0.24826303
27	0xbe45b65d	-0.19307847
28	0x3ec5cb25	0.3863155
29	0xbe70af00	-0.23504257
30	0xbea018fc	-0.31269062
31	0x3de2a7fc	0.11067197
32	0x3ea4e1c1	0.32203487
33	0xbd828dce	-0.06374703
34	0xbe9a13a3	-0.30093107
35	0xba2ffa4a	-0.0006713016
36	0xbec85d44	-0.39133656
37	0x3ec5a932	0.38605648
38	0x3e0ecf20	0.139462
39	0x3ee855f1	0.45378068
40	0x3e238eca	0.15972438
41	0xbedccf41	-0.43126872
42	0x3e24464f	0.16042446
43	0xbe95ab86	-0.29232424
44	0xbe0dc458	-0.1384443
45	0x3ec576cf	0.38567206
46	0xbebe733c	-0.37197292
47	0xbe224a39	-0.15848626
48	0xbebeb014	-0.37243712
49	0xbdaa95c8	-0.0832935
50	0xbb42b900	-0.002971232
51	0x3ecf75ca	0.40519553
52	0xbee0ddb8	-0.43919158
53	0x3ddca418	0.10773486
54	0xbcf2b200	-0.029625893
55	0xbe30e01c	-0.17272991
56	0xbeeaacfb	-0.458351
57	0x3ec922de	0.39284414
58	0x3e3cfce9	0.18455853
59	0x3e762fd2	0.2404168
60	0xbcb4a160	-0.022049606
61	0xbebaf56c	-0.36515367
62	0xbeb6a842	-0.35675246
63	0x3e9b083a	0.30279714
64	0xbeac3088	-0.33630776
65	0x3e1bb874	0.15207082
66	0xbe317ba8	-0.17332327
67	0xbedd3928	-0.4320767
68	0xbee1a5c2	-0.44071776
69	0xbee42eb0	-0.4456687
70	0x3d01d3a0	0.031695962
71	0xbe8f4ab8	-0.27986693
72	0x3e9e255f	0.30887887
73	0x3ee1f97b	0.4413565
74	0x3ecf88c3	0.40534028
75	0x3d8c2883	0.068436645
76	0xbdca6c58	-0.09883946
77	0xbec7646e	-0.3894381
78	0xbe4dc550	-0.200948
79	0x3ee2cf96	0.44299
80	0x3ea8c3b1	0.329618
81	0xbdf1f0fc	-0.11813542
82	0xbec95c2b	-0.3932813
83	0x3e4228c8	0.1896087
84	0xbefe5d09	-0.49680355
85	0x3e5a8654	0.21340305
86	0x3e850153	0.25977573
87	0xbeec4637	-0.4614732
88	0xbe79b44f	-0.24385189
89	0x3ed81932	0.42206722
90	0xbeee41f2	-0.46534687
91	0x3e974d23	0.29551038
92	0xbebd6ad9	-0.3699558
93	0xbdd7fa0d	-0.1054574
94	0x3e9e06c1	0.30864528
95	0x3ea2c3fe	0.31790155
96	0x3ebc693f	0.36799046
97	0xbc63f2b3	-0.0139128445
98	0xbd93ef78	-0.072234094
99	0xbe5f58d5	-0.2181123
100	0x3ed56f86	0.41686648
101	0xbd884824	-0.06654385
102	0xbef24ed4	-0.47325766
103	0x3ed8ae40	0.42320442
104	0x3ed4831a	0.41506273
105	0xbec19294	-0.37807143
106	0x3e0774d3	0.13228159
107	0xbde6fce4	-0.11278704
108	0x3eca66d0	0.39531565
109	0x3aa66c87	0.0012697139
110	0x3cdfc47d	0.027315373
111	0xbe918bd3	-0.2842699
112	0xbe4904f0	-0.1963079
113	0x3ea9522c	0.33070505
114	0x3d9b1ad8	0.075734794
115	0x3e8c66e4	0.2742225
116	0x3ec2a689	0.3801768
117	0x3ed58b20	0.41707706
118	0xbe21de38	-0.15807426
119	0xbe31fcdc	-0.17381614
120	0x3e812ea9	0.2523091
121	0xbe855107	-0.2603838
122	0xbe7ddb2b	-0.24790637
123	0xbd72a950	-0.0592435
124	0xbed3ed1e	-0.41391844
125	0xbe156a7c	-0.14591402
126	0xbd755eb0	-0.059904754
127	0xbe5afa6c	-0.21384591
128	0xbe308eb2	-0.17241934
129	0x3da8f3e0	0.082496405
130	0x3e94880b	0.29010043
131	0xbd916b29	-0.07100517
132	0x3e9fbe24	0.31199753
133	0x3ef7cbf0	0.4839778
134	0xbe2116a9	-0.157313
135	0xbe94641c	-0.28982627
136	0xbe4b8d40	-0.19878101
137	0xbec6bee8	-0.38817525
138	0x3cb89960	0.022534072
139	0xbeca7756	-0.3954417
140	0xbecd9df6	-0.40159577
141	0xbe18ceb8	-0.14922607
142	0xbeb6d748	-0.35711122
143	0x3db97ce8	0.09057027
144	0xbe13ed40	-0.14445972
145	0x3ebec733	0.37261352
146	0xbee4d2b5	-0.44692007
147	0x3e88069f	0.26567551
148	0x3ca31740	0.019908547
149	0xbeaf5de0	-0.34251308
150	0x3ea040b6	0.3129937
151	0x3eba4968	0.3638413
152	0x3e6b343b	0.22969143
153	0xbe39992c	-0.18124837
154	0x3e9b27e3	0.3030387
155	0x3e103c08	0.140854
156	0x3ee1ea98	0.44124293
157	0x3ed638e4	0.4184028
158	0xbd8d5f8e	-0.06902991
159	0x3da9ffad	0.083007194
160	0x3ca768c0	0.02043569
161	0xbeed23b6	-0.46316308
162	0x3ef641e4	0.48097146
163	0xbe80bdf4	-0.25144923
164	0x3e37e385	0.17957886
165	0xbdc51395	-0.096228756
166	0xbedc05ae	-0.42973083
167	0x3eabbdc6	0.33543223
168	0x3ee59ade	0.44844717
169	0x3c2ddfee	0.010612471
170	0xbe3df66f	-0.18551038
171	0xbee2b461	-0.44278243
172	0x3cd8ac40	0.026449323
173	0xbee6fe4e	-0.45115894
174	0xbea3d98a	-0.32001907
175	0xbe8e0d82	-0.2774468
176	0x3c8d3f25	0.017242024
177	0x3ea3286f	0.31866786
178	0x3d4127a1	0.047156934
179	0x3d001d5b	0.031277996
180	0x3e81c25d	0.253436
181	0xbebcf47b	-0.36905274
182	0x3e88a1ca	0.26685935
183	0x3d463d49	0.04839829
184	0x3e82979a	0.25506288
185	0xbddd0a52	-0.10792984
186	0xbe5b8889	-0.21438803
187	0xbe6481f3	-0.22315197
188	0xbe684f6b	-0.22686546
189	0xbecbbe6b	-0.39793715
190	0x3eb2da06	0.34931964
191	0xbe38387b	-0.17990296
192	0xbe0136f8	-0.12618625
193	0x3e9b9b79	0.30392054
194	0xbea93312	-0.33046776
195	0xbe14f4d7	-0.14546524
196	0xbb6f6335	-0.0036527638
197	0x3ef7cff4	0.48400843
198	0x3ef61a06	0.4806673
199	0x3c3d8b5e	0.011568872
200	0xbeb6d8ee	-0.3571238
201	0xbee64728	-0.44976163
202	0xbe73c2ff	-0.23804854
203	0xbe5587dd	-0.20852609
204	0xbea294b6	-0.31754082
205	0xbed91bb4	-0.42403948
206	0xbdfa34b8	-0.122170866
207	0xbed4024a	-0.41407996
208	0x3e0eb667	0.13936768
209	0x3efd3ef5	0.49462095
210	0x3e4c0be9	0.19926418
211	0xbeaed542	-0.34147078
212	0x3de32382	0.11090757
213	0xbe4bb8ce	-0.19894716
214	0xbeb06440	-0.34451485
215	0xbea8cd72	-0.32969242
216	0x3e4dbcb8	0.20091522
217	0xbea31d61	-0.31858352
218	0xbe777db1	-0.24169041
219	0xbebdf473	-0.37100562
220	0x3e2fe494	0.1717704
221	0x3e1ed0df	0.15509365
222	0x3e9db0aa	0.30798846
223	0x3ed8a00d	0.4230961
224	0x3ebd58c3	0.36981782
225	0x3db2cc79	0.08730406
226	0x3ed11a0a	0.4084018
227	0xbe5a279d	-0.21304174
228	0x3b7fb7c6	0.003901945
229	0xbeacb2f0	-0.33730268
230	0xbdf5a570	-0.11994445
231	0x3dca1bdb	0.09868594
232	0x3e500f5c	0.20318359
233	0x3e3eea5d	0.1864409
234	0x3e9251c6	0.28578013
235	0x3d1845ad	0.037175823
236	0xbecf7e16	-0.40525883
237	0x3e20d264	0.15705258
238	0x3efb562e	0.49089187
239	0xbe94c4c8	-0.29056382
240	0xbe553a88	-0.20823109
241	0x3ecf2b00	0.40462494
242	0xbda09f58	-0.078428924
243	0xbedcaef8	-0.4310224
244	0xbd936a40	-0.07198
245	0xbecf6d38	-0.40513015
246	0x3ef6ffde	0.48242086
247	0x3ef1c9be	0.4722423
248	0xbe5d6e18	-0.21624029
249	0x3e27f0f4	0.1640051
250	0x3efa3fc0	0.48876762
251	0xbe43e830	-0.19131541
252	0xbe69ca78	-0.22831142
253	0xbe7a7838	-0.24459922
254	0x3e576fc0	0.21038723
255	0x3d572120	0.052521825

model.0.bias f4 [128]
0	0x3d8607cc	0.06544456
1	0xbeb12e6e	-0.34605736
2	0x3ea7f47a	0.32803708
3	0xbef7d45c	-0.48404205
4	0x3eea7ba4	0.45797455
5	0x3dc2f6f3	0.09519758
6	0x3e4e088a	0.20120445
7	0x3e987ddd	0.29783526
8	0x3e9833f8	0.2972715
9	0x3e8e632e	0.27810043
10	0xbeef0972	-0.46686894
11	0x3da1bbcc	0.078971475
12	0xbecc7a7e	-0.39937204
13	0xbedfb936	-0.43695992
14	0x3e330008	0.1748048
15	0xbebc7902	-0.36811072
16	0xbeebe8b8	-0.46075988
17	0xbedac078	-0.42724967
18	0x3ebe90e4	0.37219918
19	0x3d8ae560	0.06782031
20	0x3ea8fa1d	0.3300332
21	0x3eb0cf3b	0.34533104
22	0x3e94b65d	0.29045382
23	0x3eea73d8	0.45791507
24	0xbe795ec2	-0.24352553
25	0xbeff4ea4	-0.49864686
26	0x3d86e300	0.065862656
27	0xbe1a2447	-0.15052901
28	0xbebef390	-0.37295198
29	0x3e91c5e9	0.28471306
30	0xbe660246	-0.22461805
31	0xbe3ef00c	-0.18646258
32	0xbd660f50	-0.056166947
33	0x3e3f296f	0.1866815
34	0xbecdec8e	-0.4021954
35	0xbe915ae8	-0.28389668
36	0x3ee6f4c5	0.4510862
37	0xbea5c278	-0.3237493
38	0x3d046f22	0.032332547
39	0xbe71c5bf	-0.2361059
40	0xbe81d1a0	-0.25355244
41	0xbc9918be	-0.018688556
42	0x3e95b6e4	0.29241097
43	0xbc95b880	-0.018276453
44	0x3e323944	0.17404658
45	0x3e79f575	0.2441004
46	0x3ed4a6fe	0.41533655
47	0x3e9ff67e	0.31242746
48	0x3ef34987	0.47517034
49	0xbd28fada	-0.041254856
50	0x3eb8fb2e	0.36129135
51	0xbdea12f8	-0.11429399
52	0xbd4339d7	-0.047662582
53	0x3ea40c1a	0.32040483
54	0xbe5f6592	-0.2181609
55	0x3e4fdd6c	0.2029931
56	0xbeffde7b	-0.49974427
57	0x3ef1b534	0.4720856
58	0xbea37d5b	-0.31931576
59	0xbe2f0f5c	-0.17095703
60	0xbea19c8c	-0.31564748
61	0x3c874460	0.016512096
62	0xbebcfdf8	-0.36912513
63	0xbe3f1484	-0.1866017
64	0x3e89f4d5	0.26944605
65	0x3d99f15e	0.0751674
66	0xbe17f130	-0.148381
67	0x3ef4434a	0.47707587
68	0xbeb897b6	-0.36053246
69	0x3e518c67	0.20463715
70	0xbe7865d9	-0.24257602
71	0x3e1f2655	0.15541966
72	0x3ee04204	0.43800366
73	0x3e9149ab	0.28376517
74	0xbe65a034	-0.22424394
75	0xbd42b8ca	-0.04753951
76	0xbecc8b6c	-0.3995012
77	0xbebe9ff5	-0.37231413
78	0x3ec07147	0.37586424
79	0x3dd1809c	0.102296084
80	0x3e4b9cda	0.19884053
81	0x3ee671e6	0.45008773
82	0xbddce122	-0.10785128
83	0xbe037e52	-0.12841156
84	0xbe3f6f69	-0.18694843
85	0xbe2efd2a	-0.17088762
86	0x3e25f969	0.16208424
87	0xbe68a00f	-0.22717308
88	0x3ecdade1	0.40171722
89	0xbe8ed56f	-0.27897212
90	0xbef7efe2	-0.48425204
91	0x3edfa5f1	0.4368129
92	0xbe70ee97	-0.23528515
93	0x3e67d712	0.22640637
94	0xbeda2526	-0.42606467
95	0xbdef46f8	-0.11683458
96	0xbeac35a4	-0.33634675
97	0x3e4cfa83	0.20017438
98	0x3eb55752	0.35418183
99	0xbe9e0645	-0.30864158
100	0xbdeda162	-0.11603047
101	0xbe9838e4	-0.29730904
102	0x3d1397ad	0.03603332
103	0x3ed10684	0.40825284
104	0x3ea19e79	0.31566218
105	0xbef40ed0	-0.4766755
106	0xbefac266	-0.4897644
107	0x3da9b630	0.08286703
108	0x3ef4c2b8	0.4780481
109	0xbec50638	-0.38481307
110	0x3ea26fce	0.31725925
111	0x3e68db8c	0.2274
112	0xbeb5237c	-0.35378635
113	0x3eeb86a3	0.46001157
114	0x3de5b576	0.112162516
115	0xbdc11b3e	-0.09429024
116	0xbe8f549c	-0.2799424
117	0x3e255b1c	0.16148037
118	0xbeb110eb	-0.3458322
119	0x3ef32308	0.47487664
120	0x3ed0e924	0.40802872
121	0x3e8c5680	0.27409744
122	0x3e7cc9ce	0.24686357
123	0x3eb3a8c6	0.350897
124	0x3cf92493	0.030412948
125	0xbdae5b8f	-0.08513557
126	0x3e5c701b	0.2152714
127	0xbeae0316	-0.3398673

model.2.weight f4 [1, 128]
0	0x3d477e25	0.048704285
1	0xbdf78009	-0.12084968
2	0x3d8516c5	0.064984836
3	0xbc6efd88	-0.014586814
4	0x3ddac9b8	0.10683006
5	0xbc89321e	-0.01674753
6	0xbd6f4ce8	-0.058422953
7	0x3c9030d8	0.017601416
8	0x3df1ca48	0.1180616
9	0xbc1dc48e	-0.009629382
10	0x3d26b3c9	0.0406988
11	0xbdbd131a	-0.09232159
12	0xbd40123a	-0.046892382
13	0x3da9eba8	0.08296901
14	0x3db8a108	0.09015089
15	0xbc301351	-0.010746793
16	0xbd1b5401	-0.03792191
17	0xbd6c51bc	-0.057695135
18	0x3e10a2a6	0.14124545
19	0x3d8c489f	0.06849789
20	0x3d580fdd	0.052749503
21	0x3d81b68f	0.063336484
22	0xbde163f2	-0.11005391
23	0xbb18dff1	-0.002332684
24	0x3d2a6060	0.041595817
25	0xbdd86ba0	-0.10567403
26	0x3c2c66b0	0.0105225295
27	0x3c9b1b2a	0.018933851
28	0xbaf0fa1e	-0.0018385088
29	0x3e224b4c	0.15849036
30	0xbe153ccd	-0.14573975
31	0xbd9071a8	-0.07052928
32	0x3d8bdfcf	0.068297975
33	0x3e19eef9	0.15032567
34	0x3d93e822	0.0722201
35	0xbb7a0ad7	-0.0038153434
36	0x3d92eab2	0.07173671
37	0x3d617255	0.055040676
38	0xbd07a334	-0.033114627
39	0x3cf49e68	0.02986069
40	0x3cbde3fa	0.023179997
41	0xbd540e96	-0.051771723
42	0x3c05f8c4	0.008176986
43	0x3d06625b	0.032808643
44	0xbc5151f2	-0.012775885
45	0xbd4fd32d	-0.050738502
46	0xbca55132	-0.020180319
47	0x3cfd0cd0	0.030889899
48	0x3e0e30f3	0.1388586
49	0x3d85010d	0.06494341
50	0x3d3f2780	0.04666853
51	0xbcbda084	-0.023147829
52	0x3de928d1	0.11384738
53	0x3c58a186	0.013222104
54	0xbe21a09b	-0.15783922
55	0x3da978c1	0.08274985
56	0xbd6fcc39	-0.05854437
57	0x3c8e04cb	0.01733627
58	0x3c7181d7	0.014740429
59	0xbb763eec	-0.0037574125
60	0x3d064cec	0.032788202
61	0xbd18a595	-0.037267286
62	0x3be2be92	0.0069196904
63	0xbd7e483d	-0.06208061
64	0x3ca9006b	0.020630082
65	0x3d621222	0.055193074
66	0x3c22619c	0.009910967
67	0x3d4acf80	0.049514294
68	0x3d24345f	0.040089007
69	0x3d4e88ea	0.05042354
70	0x3d0977d5	0.033561546
71	0xbd7ba66d	-0.061438013
72	0x3d97804e	0.07397519
73	0xbc65ad11	-0.014018313
74	0x3d90b0d8	0.0706498
75	0xbe09f58f	-0.1347258
76	0xbe0fdeb4	-0.14049798
77	0xbe32230e	-0.17396185
78	0xbd3b0c6f	-0.045666154
79	0x3d20ea7c	0.03928612
80	0xbd9aca24	-0.075580865
81	0xbc1b59b7	-0.009481839
82	0x3d28498e	0.041085772
83	0x3d337825	0.04381575
84	0xbd8be19d	-0.06830142
85	0xbde3e1f8	-0.111270845
86	0xbd93944f	-0.07206022
87	0xbd9a7515	-0.07541863
88	0xbc53f2b0	-0.012936279
89	0xbb7797ae	-0.0037779617
90	0x3c8a4914	0.01688055
91	0x3cc07e01	0.023497583
92	0xbdaad6a1	-0.083417185
93	0x3bc34349	0.0059589488
94	0xbae257dd	-0.0017268617
95	0x3d7e992b	0.06215779
96	0x3bcb56ba	0.006205407
97	0x3da2717c	0.07931802
98	0xbd02430c	-0.031802222
99	0x39015a00	0.00012335926
100	0x3d16467e	0.03668832
101	0x3c0e0d00	0.008670092
102	0x3d14e136	0.03634759
103	0xbd5aa290	-0.053377688
104	0x3d2177a6	0.039420746
105	0xbc3851c4	-0.011249963
106	0x3c910c6e	0.017706122
107	0x3d7072fe	0.058703415
108	0xbd3319e0	-0.04372585
109	0x3d11bb70	0.035579145
110	0x3e3e40fa	0.18579474
111	0x3e18636d	0.14881678
112	0x3d0f5f62	0.035003074
113	0x3d5dc1f4	0.054140046
114	0xbd03769d	-0.03209554
115	0xbd312a1f	-0.04325306
116	0xbd6a481a	-0.057197668
117	0x3db34de5	0.087550916
118	0xbb6feef5	-0.0036610935
119	0xbdc81eef	-0.09771525
120	0xbde6b39f	-0.11264729
121	0xbc4c8e79	-0.01248514
122	0x3d563a90	0.052301943
123	0x3dec077c	0.11524865
124	0xbcf08a3b	-0.029362788
125	0x3caf0873	0.021366334
126	0xbd4bd183	-0.049760353
127	0xbd0ea767	-0.034827616
