finals/neuralq7.pt (torch, 5208 bytes, 3 tensors)

model.0.weight f4 [128, 4]
000000 02 5f bf be e6 f9 b7 3e 1e 3a d0 3e 20 1e 0d 3e
       -0.37377173 0.35932845 0.4066934 0.13781023
000010 51 48 85 be 48 98 9c 3e d2 f4 e9 be 2e 58 ee bd
       -0.26031736 0.3058493 -0.45694596 -0.11637913
000020 87 57 da 3e e6 d5 a2 bc 09 92 86 3e 49 22 d4 3e
       0.42644903 -0.019877385 0.2628329 0.41432407
000030 7c cb 33 be ba b3 d6 be 00 a0 81 39 44 c8 e3 be
       -0.17558092 -0.41933995 0.00024724007 -0.44488728
000040 dc f5 37 be f4 ae a6 be 58 8d f1 bd 34 2e 65 be
       -0.17964882 -0.32555354 -0.11794537 -0.22380906
000050 99 8a f2 3d d0 a2 1f bf 07 64 b3 3e 76 f4 1d 3e
       0.11842842 -0.6235781 0.35037252 0.15425286
000060 d8 ce de 3e 5e e1 73 3d ba 0d 13 be 72 b6 ee bb
       0.43517184 0.0595411 -0.14360705 -0.007284933
000070 4d 0e f2 be 3a 69 a8 3e 02 18 03 3e 4c 20 df 3e
       -0.47276536 0.32892781 0.12802127 0.43579328
000080 44 aa 56 be 5c c5 e1 be 8c 66 47 3e 34 a3 fb 3e
       -0.20963389 -0.44095886 0.19472712 0.49147952
000090 e0 bc cf bd 48 6c 48 be 38 97 8d bd 50 5d 6f be
       -0.10143447 -0.19572556 -0.06913608 -0.2337544
0000a0 8a 52 c1 be 08 1d fc 3d 50 21 e6 bd e4 c7 05 be
       -0.37758285 0.12310225 -0.112368226 -0.13064533
0000b0 e6 57 c8 be 34 05 77 be 72 cc 89 3e 50 b8 18 3e
       -0.3912956 -0.24123079 0.26913792 0.1491406
0000c0 70 f3 a3 be 59 bc fc 3e 7c f8 8f 3e 98 1e e0 3e
       -0.32021666 0.49362448 0.28119266 0.4377334
0000d0 7c d8 ca be 50 cd 9f bd 9c 0e 7e 3e a4 0c 87 be
       -0.3961829 -0.07802832 0.2481026 -0.26376832
0000e0 c0 61 9e 3c 80 ac bd 3c a4 10 e3 3e 58 d8 95 be
       0.01933372 0.023153543 0.44348633 -0.2926662
0000f0 ea 76 f2 be c8 d1 e3 bd 18 2a 9e 3d de e9 fb be
       -0.4735635 -0.11123997 0.077228725 -0.49201864
000100 aa 93 80 3d 04 a6 50 3e b9 cc 2f be 1c a6 87 be
       0.06278165 0.2037583 -0.17167939 -0.2649392
000110 d2 6b 1f bd 69 c5 32 3e aa 50 f1 3e ad ad 86 bd
       -0.038921185 0.17458118 0.47131854 -0.06576095
000120 fa 50 b0 be 8c 38 d6 3e 12 aa 0a be b4 76 ff bd
       -0.3443678 0.41840017 -0.13541439 -0.12473813
000130 04 9f 8c 3e df e9 d0 3e c5 56 95 be db 14 08 3d
       0.2746507 0.4080343 -0.29167762 0.033223014
000140 cb c0 22 be 93 e8 9b be fe 54 ee 3e ec b5 a2 3d
       -0.15893857 -0.30450878 0.4654922 0.07944855
000150 9e 38 90 bd 4f c0 ad bd 70 32 93 be 7e 98 d6 bc
       -0.07042049 -0.084839456 -0.28749418 -0.02619576
000160 94 3d fd 3d 6f 72 02 bf 1d 96 1c 3d 0f 0d be 3e
       0.12365261 -0.5095586 0.038229097 0.37119338
000170 c0 2c bb 3e a9 cb a7 be 6f 3b 1b be a6 dd d7 be
       0.3655758 -0.32772568 -0.15159391 -0.42161292
000180 00 f9 05 be ca 3d 21 3d 84 71 a1 bd 1a 16 c1 3e
       -0.13083267 0.039365567 -0.078829795 0.37712175
000190 05 a0 95 bd 2a 0e 43 bc 52 a9 b8 be f3 c4 2a bd
       -0.07305912 -0.011905232 -0.3606668 -0.04169173
0001a0 7b fe 6e 3e 1f b8 7a 3e c9 40 88 be b3 44 c6 3d
       0.23339264 0.24484299 -0.26611927 0.09681072
0001b0 e8 77 e1 3e 35 62 d6 3e ef a9 a7 3e 7f a5 26 be
       0.44036794 0.418718 0.32746837 -0.16274069
0001c0 7c a4 e3 be b7 91 48 3e 02 c1 3a 3d 4e b6 fa 3d
       -0.4446143 0.19586836 0.045594223 0.12241803
0001d0 a8 21 bc bd a0 d9 e0 be 58 1e e9 bd 60 81 aa 3d
       -0.09186107 -0.43916035 -0.11382741 0.083254576
0001e0 af 07 27 3e a5 2e 03 be 8b d5 18 be 7a 8c ec 3e
       0.16311525 -0.12810762 -0.1492521 0.46200925
0001f0 2a a5 dd be f8 85 b1 be 8c 0b 24 3e 5a 20 b0 3e
       -0.43290073 -0.34672523 0.1602003 0.34399682
000200 c0 0e 58 bc 68 76 d3 bd 22 7e aa be 00 bd e3 3e
       -0.01318711 -0.103253186 -0.33299357 0.44480133
000210 91 05 96 3d bc e4 ee bd e4 4d 96 3d 59 c2 d3 be
       0.073252805 -0.11664721 0.07339075 -0.41359213
000220 27 2c 5d 3e e6 1a e6 bb aa 06 be 3d 97 41 de be
       0.21598874 -0.0070222495 0.09278615 -0.43409416
000230 74 28 4a be 30 d2 cf bd 60 2f 8c bc d8 91 09 3e
       -0.19741994 -0.10147512 -0.017112434 0.13434541
000240 e9 79 c3 3e 90 da 71 be 33 53 d2 3e de 03 ab 3d
       0.38178948 -0.23618531 0.410791 0.08350347
000250 67 68 cd bd f2 1c c1 3d e1 40 fd be 94 b0 91 3d
       -0.10029679 0.09429349 -0.4946356 0.07113758
000260 e7 0e 30 3e ee 5f 87 be 43 d4 f9 be 2e 2b fa 3d
       0.17193185 -0.26440376 -0.48794755 0.12215267
000270 54 dd a1 be e4 25 22 bd e2 65 76 be ba ca 02 be
       -0.31614172 -0.039586917 -0.24062303 -0.12772647
000280 d9 17 f4 3e f4 b3 5a 3e 59 bb 87 be 98 4d f5 3e
       0.47674444 0.21357709 -0.26510122 0.47910762
000290 c4 fc c3 be 3c 56 c5 be 43 13 75 3e f0 aa a3 be
       -0.38278782 -0.38542354 0.23933129 -0.31966352
0002a0 f3 9b 49 3e e2 5d 21 3d 20 c0 1f be 2d 80 61 be
       0.19688396 0.039396174 -0.15600634 -0.22021551
0002b0 a8 17 ed 3e 91 1f 69 bc d3 31 03 3e ed 41 d9 3e
       0.4630711 -0.014228717 0.12811975 0.4243311
0002c0 c4 31 9e 3e bd d3 8e be 99 27 af be f7 24 c5 be
       0.30897343 -0.27895918 -0.34209898 -0.38504764
0002d0 a8 b6 db bd 88 5c 98 3e 36 4c ad 3e ce e1 bd be
       -0.10728198 0.29758096 0.33847207 -0.37086338
0002e0 86 67 08 3e 34 49 c8 be f6 08 a4 3e d2 84 3e be
       0.13320741 -0.3911835 0.32038087 -0.18605354
0002f0 82 3d 1b 3e 0f 03 86 be 59 90 6a 3e 3d 17 e4 be
       0.15160182 -0.2617421 0.22906627 -0.4454898
000300 48 d0 23 be dc 05 14 be 06 d5 be 3e c8 2f f2 be
       -0.15997422 -0.1445536 0.372719 -0.4730208
000310 00 34 42 bc 40 a2 b3 bc bc a8 8e 3e ca a2 cb be
       -0.011853218 -0.021927953 0.2786311 -0.39772636
000320 22 cd 4d bd af 22 bd 3e 48 f5 9f bd bb c4 9d 3e
       -0.050244458 0.36940524 -0.078104556 0.30814156
000330 cc 28 29 be 28 b3 bf be da 40 fa be 1c 83 5e 3e
       -0.16519469 -0.37441373 -0.48877603 0.21729702
000340 3d 73 96 be 32 57 b0 bd cf 78 12 be 16 04 06 be
       -0.29384795 -0.08610381 -0.14303897 -0.13087496
000350 20 08 d9 be 41 26 f0 3e 4d b3 78 be f6 25 87 3c
       -0.4238901 0.46904185 -0.24287148 0.016497593
000360 fd 49 c2 3d 60 68 2e bc c4 0c 9f 3e 6f f3 c1 be
       0.094867684 -0.010645002 0.31064427 -0.37881038
000370 fb 6b 31 3c ea 95 27 be 7c 19 53 bd f8 a3 1f 3e
       0.010828967 -0.16365781 -0.051537976 0.15589893
000380 0a b8 c6 3e 0d 24 7b be ef 88 80 3e 16 25 21 be
       0.38812286 -0.24525471 0.25104472 -0.15736803
000390 59 f1 ca be 82 28 1b be f7 d8 89 be d7 8c a0 3e
       -0.3963726 -0.15152171 -0.26923344 0.31357452
0003a0 b9 26 dc be 2b 73 89 3c 9d 51 58 be eb 99 7d be
       -0.42998293 0.01677855 -0.21124883 -0.24765746
0003b0 78 44 a3 be 05 2b cb 3e 5c ac 13 be 7a c3 1d 3e
       -0.31888175 0.3968126 -0.14421219 0.154066
0003c0 35 73 49 3e 5d d7 fb 3e 91 e7 af be ef 46 10 3e
       0.19672854 0.49187747 -0.3435636 0.14089559
0003d0 50 8b c7 3e 72 39 05 bd 03 1e 20 3e e1 c9 64 3e
       0.38973475 -0.032525487 0.15636449 0.22342636
0003e0 df f8 ed 3e 0b 14 2d be a3 21 0f 3e c1 fb 7d be
       0.46478936 -0.16902177 0.13977675 -0.24803068
0003f0 cc 6f 5d be 42 6e aa 3e b0 04 e1 bd 04 9e 92 be
       -0.21624678 0.33287245 -0.10987222 -0.2863618

model.0.bias f4 [128]
000000 8e f0 e9 be 1e 13 17 3e fe 13 b3 3e 98 4f 0c be
       -0.4569134 0.14753386 0.3497619 -0.13702238
000010 cc f5 73 be ba 38 11 be 55 3e c6 3d c6 14 22 be
       -0.23824233 -0.14181796 0.09679858 -0.15828237
000020 b0 cb 3e be 98 3a 6a be e0 9d 11 be e4 a6 df be
       -0.18632388 -0.22873914 -0.14220381 -0.43682015
000030 ee a1 d5 bd 86 53 ba be b0 8f b2 be 60 05 cf bd
       -0.10431276 -0.36391848 -0.3487525 -0.10108447
000040 74 12 b9 be c1 c3 f1 3d 3d 41 2f be 35 01 ec 3d
       -0.3614689 0.11804915 -0.1711473 0.11523668
000050 9e a6 1b 3e bd e7 a2 3d f6 fd 84 be 2d ce 29 be
       0.15200278 0.07954357 -0.25975007 -0.16582556
000060 34 a1 fe 3e 96 33 87 3e 2d bd c0 3d 5e 09 71 be
       0.49732363 0.26406544 0.094110824 -0.2353873
000070 da 67 ee 3d d0 94 a6 3d c3 f0 3b be 50 00 f8 bd
       0.11640902 0.081338525 -0.18353562 -0.121094346
000080 c4 d5 23 be 63 8f 01 3e c5 eb 62 3d 50 25 95 be
       -0.15999514 0.12652354 0.05540063 -0.2913003
000090 81 c4 c8 be f7 94 c6 3e 66 75 a5 3e 94 1e 64 3d
       -0.3921242 0.38785526 0.3231613 0.055693224
0000a0 44 59 ad bd d6 54 01 3f 44 f0 f0 3e 29 cc ee be
       -0.08464292 0.50520074 0.47058308 -0.46640137
0000b0 2e 08 70 3e df f6 88 3e 79 f5 a5 be 5d 35 bb bd
       0.2344062 0.26750848 -0.32413843 -0.091410376
0000c0 80 46 0c be 38 c6 38 be 53 65 6d bd 00 af 3e 3c
       -0.13698769 -0.18044364 -0.05795796 0.011638403
0000d0 9b 65 e7 3e 64 9f 77 be 00 43 24 be 63 27 ad 3e
       0.45194706 -0.24181896 -0.16041183 0.33819112
0000e0 84 87 3e bd ce a0 81 3e be 54 82 3c 2e 8e da 3e
       -0.046515957 0.25317997 0.015909549 0.426866
0000f0 22 1f 6c 3d 56 b2 aa 3d 1b 72 b7 3e 46 2c c9 be
       0.057646878 0.08334796 0.35829243 -0.3929159
000100 ac 95 d9 3e a8 4a b1 bd d9 44 54 3d 78 63 ef bd
       0.42497003 -0.08656818 0.05182347 -0.11688894
000110 1e 79 db 3e 35 0f 5f bd 94 f2 85 bd a8 2b 8f 3e
       0.42865843 -0.054457862 -0.06540409 0.27962995
000120 42 73 9b 3e 4a a4 15 3e 08 bf f2 be ee e8 b0 3e
       0.30361372 0.14613453 -0.4741137 0.3455271
000130 b6 66 d1 be 47 06 d4 bd a4 48 e5 be ca 9a ff be
       -0.40898675 -0.1035276 -0.44781983 -0.49922782
000140 a4 33 5f be 68 25 d2 3e 67 70 bc be 2d 31 dd bd
       -0.21797043 0.41044164 -0.36804506 -0.10800395
000150 4c 46 b3 bb 24 d5 1c 3e 76 98 db be 31 21 d4 be
       -0.0054710265 0.15315682 -0.42889756 -0.41431573
000160 ba 1d af 3b 38 32 ee 3e 90 24 46 3e 86 57 d9 be
       0.00534412 0.4652269 0.19349885 -0.42449588
000170 ee 96 e9 be 3e 21 38 be 98 1e ac 3e 0e 46 9d be
       -0.45622963 -0.17981431 0.3361709 -0.3071751
000180 63 fe 98 3e 3d 4b 1b 3d 13 40 19 3e d8 06 f7 be
       0.29881582 0.03791355 0.14965849 -0.4824741
000190 ab 8c 4d be ad 4f cf 3c 17 ae 29 be 28 be 85 bd
       -0.20073192 0.025306547 -0.16570316 -0.0653041
0001a0 92 a0 21 3d 5c a2 be be 22 a4 cc 3c 50 5e 19 be
       0.039459772 -0.37233245 0.024980608 -0.14977384
0001b0 6c 51 f8 be 3f 79 f3 bb 32 27 9e be b8 2e b1 bd
       -0.4849962 -0.007430225 -0.3088928 -0.08651489
0001c0 2a a3 02 bb d4 8b 8d 3e 37 1a ef 3e 76 95 8b be
       -0.001993368 0.27645743 0.46699688 -0.27262467
0001d0 c6 24 e1 3e 1e ba 7d 3e 0a ed f9 be 73 f1 3c 3e
       0.43973368 0.2477803 -0.4881366 0.1845148
0001e0 d1 20 a4 3e cf 7f f3 3e 3a 75 f2 be ed 0f f0 be
       0.32056287 0.47558448 -0.47355062 -0.4688715
0001f0 9c 14 1c 3e 8d 4f a4 3e 01 a9 b4 be db 1c 89 3d
       0.15242237 0.32091942 -0.3528519 0.06694957

model.2.weight f4 [1, 128]
000000 5c 03 fc ba e2 a1 ca bd 9a 95 60 3d 30 5f 88 3b
       -0.0019227075 -0.09894158 0.05483017 0.004161738
000010 a3 9b 53 bd 88 57 f8 3e dc 17 e8 bc 56 0f 8f bd
       -0.0516621 0.4850428 -0.02833169 -0.06985347
000020 39 24 49 3a b6 77 4a 3d 1f a4 4b bd 50 a9 77 3a
       0.0007672939 0.04943057 -0.049717065 0.0009447532
000030 c9 4b 3d bc 8b 96 8d bd 53 e3 80 bd 43 2c 4c 3d
       -0.011553713 -0.069134794 -0.06293359 0.0498469
000040 7a 23 24 be 95 42 17 3c 58 2b 3a bc d0 db 87 bc
       -0.16029158 0.009232183 -0.011362873 -0.016584307
000050 fd 78 91 3d 87 48 47 3d e4 ea ac 3e a0 c6 7d 3d
       0.07103155 0.04865315 0.33772957 0.061957
000060 4a 8a 01 3e 5e 32 89 bd 3a 2c 97 bd 1c ed 2a bd
       0.1265041 -0.0669906 -0.073814824 -0.04173003
000070 f4 dc ac bd 73 22 63 bb 15 6d 8e bd f7 5e e9 bc
       -0.08440581 -0.0034657985 -0.069543995 -0.028487666
000080 73 7c 1c 3d 66 e7 de 3c c8 81 82 3d 3d 28 a4 bb
       0.03820462 0.027209949 0.0637241 -0.0050096796
000090 fb b2 31 3d 38 fe 9c 3e 2e f6 a5 3d 0e de d1 bb
       0.04338358 0.30662704 0.08103596 -0.006404645
0000a0 79 c3 34 bd 72 0d 58 bd 66 40 7f bd ec f3 5e 3d
       -0.04413173 -0.052747197 -0.062317275 0.05443184
0000b0 16 1f d8 bb 8b 97 1a 3e ba 47 df 3e b3 75 da 3d
       -0.0065955026 0.15096872 0.4360941 0.106669806
0000c0 c2 5d 87 3c 6e 0c 4e 3d 56 9c 70 3e fd 31 36 3d
       0.0165242 0.050304823 0.23497137 0.044481266
0000d0 9d 6a 08 3d 1b 9a 63 3d a7 30 3b bd 28 e2 c4 3b
       0.0333048 0.05556689 -0.045700695 0.0060084052
0000e0 96 08 a5 3c e4 91 ff 3c c3 7b 85 3d 5e c3 1a bd
       0.020145696 0.031197496 0.06517746 -0.037783973
0000f0 d7 c0 9f bd c4 ab 21 bd 59 2e b5 bc 12 3b 9c 3d
       -0.07800453 -0.03947045 -0.022116827 0.07628454
000100 43 3c 92 bd 8b fc 18 bd 21 1e 41 3d 4e 97 8f bd
       -0.071404 -0.03735022 0.047147874 -0.07011281
000110 6c 61 04 bd d4 8c 54 3d bb d5 00 3c 37 20 cf bd
       -0.03231947 0.051892117 0.007863457 -0.10113566
000120 3a b3 10 3c 7e 29 05 bd ea 05 88 bc fc eb 89 bd
       0.008831793 -0.032510273 -0.016604383 -0.067344636
000130 bf e7 3d 3d f3 97 4c bc b8 3f 6e bc 01 c3 40 bd
       0.04636359 -0.012487399 -0.014541559 -0.04706097
000140 98 53 c6 bc da b5 30 bc 8c 99 51 ba 2e e4 48 bc
       -0.024209782 -0.010785544 -0.00079955976 -0.0122614335
000150 0b 25 59 3d 0c d6 6b bd 5f b5 8b bc bc 0d 92 bc
       0.053013843 -0.057577178 -0.017054258 -0.017828815
000160 85 3d 6c 3d 9c 98 7b bd 0a 13 df 3d 3d c6 7e bd
       0.057675857 -0.061424837 0.10892303 -0.062200774
000170 3d 28 f0 3c 24 52 11 3d 2d f7 07 3d 96 32 89 3d
       0.029316062 0.035478726 0.03319471 0.066991016
000180 00 52 17 bd 37 0e 06 3d e7 dc ca 3d e9 70 a1 3c
       -0.036943436 0.0327284 0.09905415 0.01970716
000190 1d f3 da bc 29 35 1a 3d 45 9a 89 bb 6f 30 55 3d
       -0.026727254 0.037648354 -0.0041992986 0.052048143
0001a0 55 4a 8f 3c a7 bc 0d bc b8 94 a8 bb 7b 4e fa 3c
       0.017491499 -0.008650935 -0.005144682 0.030555
0001b0 c9 6b b4 3d 11 36 bd 3e f0 26 b0 3b ad f0 32 3c
       0.08809621 0.36955312 0.0053757355 0.010921639
0001c0 d9 53 8a bc df 95 2a bd 80 b7 1f bd 0b 16 15 3c
       -0.016885685 -0.041646834 -0.03899336 0.009099494
0001d0 7d 82 cf bc 4e 22 05 3c c6 04 92 3d ef d3 23 3d
       -0.025330776 0.008125855 0.07129817 0.039997038
0001e0 69 ae 23 3d 37 03 95 3c f2 df 5a bd c9 0a 6c 3d
       0.039961252 0.01819001 -0.053436227 0.057627473
0001f0 6c 93 ab bd e1 a7 36 3d 9b 01 3a bd 50 fc b0 3d
       -0.08377728 0.044593696 -0.045411687 0.08641875
