finals/neuralq5.pt (torch, 5208 bytes, 3 tensors)

model.0.weight f4 [128, 4]
-0.3347045 0.4267572 -0.01993688 -0.37411168 -0.47365934 -0.00013720989 0.33110863 -0.108801425
-0.15649337 0.4194708 -0.047097027 -0.17093974 -0.35757715 0.05840927 0.32487416 0.185957
0.33844885 0.052598614 0.10204546 -0.15202992 -0.23559588 0.19473553 -0.06570673 -0.22517145
-0.05241394 -0.3777054 -0.2584319 0.17856234 -0.47042835 0.4336616 0.42779106 -0.31876162
0.49104878 -0.42018408 0.49716538 0.07668486 -0.49807775 0.21323492 -0.023403177 0.16677493
0.020171909 0.25827637 0.18228339 -0.15406632 -0.3808071 0.19906095 0.0021021923 -0.03188993
-0.338166 -0.15405911 -0.139175 -0.2522984 -0.05926764 -0.27828425 0.21530265 0.18296337
0.4082516 -0.44455272 -0.10108748 0.39810503 -0.051991887 0.21429361 0.018378211 -0.182968
0.29134157 -0.13014942 0.40929675 -0.03041478 0.4797501 0.31654063 0.19991685 -0.050286666
-0.49468315 -0.033714056 -0.088933885 -0.22696131 0.35193977 -0.07040477 -0.47516888 0.3472088
0.4245316 -0.43015745 -0.33509222 -0.12298102 0.31169978 -0.35880178 0.34004572 -0.41859397
0.3258258 0.33593565 -0.09935135 0.44270375 0.4456675 0.44527638 0.4243015 -0.49213523
0.49982107 0.11308488 -0.30379912 0.22190063 -0.29703856 -0.10660716 -0.26135242 -0.3577374
0.31973904 -0.32636812 0.20467077 -0.020686334 0.44293815 -0.44398576 0.23962407 0.4268866
0.48019475 0.389719 0.24492517 -0.39628866 -0.10068953 -0.06645131 0.16578788 -0.38055682
0.4078163 -0.4194732 0.38066873 0.05613183 -0.49478567 0.30349553 0.18647307 0.34927624
-0.15231897 0.39276814 -0.45965183 -0.45404524 -0.3544075 -0.33638918 -0.35962617 0.40857542
-0.16904062 0.15169793 0.12463182 -0.27796572 0.2056988 0.243824 -0.2802231 -0.16675442
0.30183116 0.446717 -0.076078504 0.38142502 0.26979297 0.10667775 -0.1792925 -0.38207617
0.15467304 0.35646814 0.1311737 0.075613104 -0.070782125 -0.07460779 0.31457257 0.14205945
0.011420059 -0.1366769 -0.47969747 -0.110145055 0.25787792 -0.15228644 -0.35833612 0.35132292
-0.20778623 0.16935092 0.05038059 0.043947138 -0.21376693 -0.14214993 -0.4352932 0.073308885
0.31211737 -0.0892745 -0.08912845 -0.08021883 -0.0688169 0.24116194 0.4024223 -0.49054617
0.41491455 0.45415628 0.19729812 0.24096842 -0.40339404 0.44479376 -0.045930743 0.2474891
-0.1329264 -0.015217372 0.40328786 -0.035515547 0.20741141 -0.31315035 -0.006959532 0.486105
-0.31382948 -0.2932021 0.29676133 -0.23661005 -0.29499364 0.498999 0.48083365 0.4077292
0.27040675 -0.30597806 -0.22332174 -0.111290164 0.20630798 -0.20102447 -0.07386259 0.04573447
-0.31537837 0.27128804 0.2736529 -0.1469148 0.4465109 0.24879213 0.429363 0.1433932
0.4068497 -0.39440575 -0.3945277 -0.43653968 0.19402754 -0.07305696 0.22713774 -0.39233172
-0.17674342 -0.08120263 -0.15413618 -0.047410343 0.15047072 0.18401462 0.124457456 -0.102350295
-0.23661333 -0.3294622 -0.10380826 -0.13747945 -0.38514525 0.13205573 -0.39432105 0.1853308
-0.13500285 0.29432827 -0.10366523 -0.48729366 -0.065564275 -0.13365434 -0.4225098 -0.43821117
00000000: 635e abbe eb7f da3e ab52 a3bc 918b bfbe
00000010: 7a83 f2be 00e0 0fb9 1287 a93e 48d3 debd
00000020: cc3f 20be e0c4 d63e d0e8 40bd d40a 2fbe
00000030: 5a14 b7be 8f3e 6f3d e855 a63e 836b 3e3e
00000040: 2b49 ad3e a571 573d 36fd d03d bbad 1bbe
00000050: 0c40 71be c068 473e 4091 86bd 5893 66be
00000060: 00b0 56bd 9a62 c1be 3051 84be 0cd9 363e
00000070: fcdb f0be e508 de3e 6e07 db3e b934 a3be
00000080: bf6a fb3e 5e22 d7be 768c fe3e f40c 9d3d
00000090: 0c04 ffbe 415a 5a3e 05b8 bfbc 0cc7 2a3e
000000a0: 8f3f a53c cd3c 843e 7fa8 3a3e 90c3 1dbe
000000b0: 26f9 c2be a2d6 4b3e efc4 093b 049f 02bd
000000c0: 1824 adbe acc1 1dbe e483 0ebe 422d 81be
000000d0: a0c2 72bd 467b 8ebe 4c78 5c3e c05a 3b3e
000000e0: 5b06 d13e 6a9c e3be f406 cfbd 6cd4 cb3e
000000f0: 72f5 54bd c96f 5b3e e78d 963c f75b 3bbe
00000100: b92a 953e e445 05be 588f d13e 6b28 f9bc
00000110: cea1 f53e 9d11 a23e 01b7 4c3e 64f9 4dbd
00000120: 1c47 fdbe c017 0abd f822 b6bd 8c68 68be
00000130: 7331 b43e 6030 90bd 5649 f3be 5ac5 b13e
00000140: 355c d93e 993d dcbe 3591 abbe 79dd fbbd
00000150: 1d97 9f3e deb4 b7be 791a ae3e f351 d6be
00000160: a4d2 a63e c2ff ab3e b878 cbbd 11aa e23e
00000170: 882e e43e 44fb e33e 0c3e d93e 26f9 fbbe
00000180: 8ce8 ff3e 0c99 e73d 8f8b 9bbe eb39 633e
00000190: 7015 98be db54 dabd fccf 85be 5b29 b7be
000001a0: d6b4 a33e b919 a7be 3795 513e 6376 a9bc
000001b0: cac8 e23e 1a52 e3be 0360 753e e190 da3e
000001c0: 16dc f53e 4089 c73e aacd 7a3e 59e6 cabe
000001d0: 5036 cebd a017 88bd 4cc4 293e 58d8 c2be
000001e0: 4ccd d03e 31c5 d6be 03e7 c23e 7dea 653d
000001f0: 8c54 fdbe c463 9b3e ccf2 3e3e 56d4 b23e
00000200: 81f9 1bbe e818 c93e 7c57 ebbe 9e78 e8be
00000210: e674 b5be 343b acbe ec20 b8be cc30 d13e
00000220: fc18 2dbe b456 1b3e f83e ff3d 8651 8ebe
00000230: b5a2 523e 00ad 793e 6779 8fbe acc1 2abe
00000240: 9d89 9a3e 17b8 e43e 0ccf 9bbd 244a c33e
00000250: 4e22 8a3e dd79 da3d 7498 37be 7d9f c3be
00000260: 9c62 1e3e fe82 b63e 6652 063e 0bdb 9a3d
00000270: 38f6 90bd f8cb 98bd a80f a13e 0878 113e
00000280: 331b 3b3c 07f5 0bbe e89a f5be bb93 e1bd
00000290: 9308 843e faf0 1bbe d577 b7be 99e0 b33e
000002a0: eac5 54be 546a 2d3e e15b 4e3d ea01 343d
000002b0: b8e5 5abe c08f 11be c0de debe f822 963d
000002c0: d9cd 9f3e 8dd5 b6bd fa88 b6bd c549 a4bd
000002d0: e0ef 8cbd 28f3 763e 4c0a ce3e de28 fbbe
000002e0: ae6f d43e 2c87 e83e 8508 4a3e 6dc0 763e
000002f0: aa89 cebe 02bc e33e e021 3cbd c86d 7d3e
00000300: dc1d 08be 4952 79bc bf7b ce3e c078 11bd
00000310: a863 543e 3e55 a0be c90c e4bb c1e2 f83e
00000320: 42ae a0be 961e 96be 1af1 973e e849 72be
00000330: 6809 97be cc7c ff3e d42f f63e e2c1 d03e
00000340: c172 8a3e 28a9 9cbe 74ae 64be 19ec e3bd
00000350: 6642 533e 5cd9 4dbe 4545 97bd 1154 3b3d
00000360: 4679 a1be 44e6 8a3e 3c1c 8c3e d570 16be
00000370: 149d e43e 5dc3 7e3e 78d5 db3e abd5 123e
00000380: 9b4e d03e 8def c9be 89ff c9be 2182 dfbe
00000390: 28af 463e e39e 95bd cc96 683e b4df c8be
000003a0: 3afc 34be 914d a6bd e0d5 1dbe 5931 42bd
000003b0: ff14 1a3e 546e 3c3e 8de3 fe3d 089d d1bd
000003c0: c44a 72be 45af a8be 6d99 d4bd 6ac7 0cbe
000003d0: c231 c5be 9e39 073e 73e4 c9be 5bc7 3d3e
000003e0: 303e 0abe 32b2 963e 704e d4bd 8e7e f9be
000003f0: 9046 86bd afdc 08be 3453 d8be 375d e0be

model.0.bias f4 [128]
0.22457445 -0.44388074 -0.305426 0.4267679 0.48844752 -0.23655027 -0.017332077 0.07930331
-0.054209087 -0.17692232 0.01514863 0.19738968 -0.16023815 -0.1696974 -0.48007208 0.41508186
-0.47133082 0.093619384 -0.36273772 -0.03911451 -0.40918684 -0.43288788 0.04662666 0.42113647
0.04178929 0.40249783 -0.07826775 0.21128893 0.11900971 0.024409533 -0.08230189 -0.29905283
-0.0006165697 0.112983465 -0.35349143 0.3262785 -0.14856376 0.18453689 0.4683154 -0.3314492
0.011506181 -0.41810572 0.100267634 -0.08426499 -0.04947189 -0.39639533 -0.31742907 -0.48822403
0.19655843 -0.07952161 -0.22660333 -0.44975102 -0.48581755 0.101137124 -0.11511409 0.30968955
0.40520307 0.16457333 0.48672822 0.2820093 0.3003088 0.19728976 -0.31304646 0.26714772
-0.13768986 -0.22085011 0.26786286 0.2921903 -0.12547791 0.42711127 0.25247434 0.025336444
-0.002847382 0.38973328 -0.2199921 -0.113567464 -0.11815384 -0.24450351 0.41273123 -0.282795
0.29256836 -0.37286037 0.31088278 -0.23786631 -0.41340315 0.39963007 0.120958865 -0.27678037
0.016443137 -0.48563927 0.22503373 -0.23511611 -0.33422923 0.2089163 -0.33429188 -0.44244644
0.1801359 -0.21041134 -0.27106863 -0.37950557 0.08593908 0.43760687 0.31258243 -0.19987243
0.36705974 0.30924082 0.40775815 0.06263851 -0.32252923 -0.119129725 -0.25227654 0.40878394
0.44272807 -0.029541207 0.31199953 -0.41210783 0.29967174 0.017139018 0.2741596 -0.3847636
0.30624476 0.12663308 -0.055386543 -0.31792092 0.3463984 0.27852714 -0.104538456 0.26694605
00000000: d8f6 653e 5644 e3be cc60 9cbe 5281 da3e
00000010: cb15 fa3e 3c3a 72be 00fc 8dbc c669 a23d
00000020: 590a 5ebd 202b 35be f631 783c 8520 4a3e
00000030: 7815 24be 28c5 2dbe 02cc f5be 9c85 d43e
00000040: 4652 f1be 85bb bf3d c2b8 b9be 8936 20bd
00000050: f080 d1be 7ba3 ddbe 99fb 3e3d 339f d73e
00000060: 3f2b 2b3d 3214 ce3e d84a a0bd 205c 583e
00000070: 5dbb f33d 80f6 c73c e58d a8bd 741d 99be
00000080: 4ba1 21ba e063 e73d d4fc b4be fa0d a73e
00000090: 1921 18be 3df7 3c3e 09c7 ef3e b6b3 a9be
000000a0: 6c84 3c3c f411 d6be 1e59 cd3d 2093 acbd
000000b0: 09a3 4abd 54f4 cabe 1086 a2be 80f8 f9be
000000c0: 9d46 493e 3adc a2bd b40a 68be c445 e6be
000000d0: 14bd f8be fb20 cf3d f0c0 ebbd a18f 9e3e
000000e0: c776 cf3e e985 283e 7134 f93e 8663 903e
000000f0: 13c2 993e 5406 4a3e a047 a0be 96c7 883e
00000100: 92fe 0cbe 8826 62be 5225 893e f899 953e
00000110: 487d 00be 54ae da3e 5144 813e 608e cf3c
00000120: 259b 3abb 1f8b c73e 9c45 61be 0f96 e8bd
00000130: a4fa f1bd 215f 7abe 8251 d33e 82ca 90be
00000140: 85cb 953e 8ee7 bebe 072c 9f3e 3a93 73be
00000150: 94a9 d3be 509c cc3e 48b9 f73d 28b6 8dbe
00000160: c2b3 863c b6a5 f8be 3e6f 663e 47c2 70be
00000170: 1820 abbe 28ee 553e 4e28 abbe 5788 e2be
00000180: 8c75 383e 1276 57be 82c9 8abe 8e4e c2be
00000190: d400 b03d 020e e03e ce0a a03e 5cab 4cbe
000001a0: 41ef bb3e d054 9e3e adc5 d03e 9e48 803d
000001b0: 8d22 a5be 49fa f3bd 642a 81be 214c d13e
000001c0: 41ad e23e 6700 f2bc 67be 9f3e ccff d2be
000001d0: 936e 993e 2067 8c3c a65e 8c3e bcff c4be
000001e0: 1dcc 9c3e 1aac 013e 00dd 62bd 88c6 a2be
000001f0: 225b b13e 1c9b 8e3e 4218 d6bd 27ad 883e

model.2.weight f4 [1, 128]
0.04529349 0.060115304 0.054466352 -0.013175865 -0.057621695 0.05809137 -0.07856254 -0.039588526
-0.002736583 -0.019213289 0.029769946 -0.048747204 0.0056206193 -0.02541614 0.089786 -0.0802336
-0.043038756 0.031073527 0.05985375 0.051206343 0.019778384 -0.02875456 0.034737997 0.01295209
-0.11172524 0.06171766 0.004398898 -0.049344257 -0.0447362 0.040193826 -0.026287742 0.031204505
-0.034175288 0.06629492 -0.060047362 0.05252345 -0.01596401 -0.0439785 -0.08683348 0.088154376
0.06707711 -0.03514299 -0.04119371 -0.08118927 -0.0320835 -0.03485636 0.014448979 -0.04849074
-0.07044734 0.027616337 -0.062152997 -0.018499073 0.050957493 0.008217266 0.08742719 0.08839912
0.055879474 -0.077799834 0.023890367 -0.007925205 0.026674341 0.0741356 0.07807247 0.042904556
0.031700905 -0.08584864 -0.006920818 0.020829098 -0.037271995 -0.08155695 0.012245886 -0.020707346
0.05043514 0.053801958 -0.034344014 -0.036159277 -0.050987612 0.029737001 -0.07497409 -0.06306866
-0.034525536 -0.02112399 0.060050268 0.039201986 0.06690908 0.041204814 -0.04548804 0.012461928
0.029918248 0.08174099 0.04375068 0.0520768 0.05980939 0.043969084 -0.019174486 0.00071006175
-0.07344961 -0.060555346 0.03711631 -0.07494075 0.075302266 0.053445872 -0.047196936 -0.07269422
0.05601295 0.031392593 -0.056013502 0.0126069365 -0.035906564 -0.026983546 -0.034141 0.03938867
-0.07817593 -0.0806627 0.021298183 -0.08384715 -0.057881635 0.083743505 0.02520539 -0.08926577
-0.018829906 0.085028954 0.030063737 -0.06406936 -0.08048689 -0.03235778 -0.049965046 0.07990121
00000000: ab85 393d 773b 763d 1c18 5f3d 95df 57bc
00000010: ba04 6cbd 37f1 6d3d 66e5 a0bd 9427 22bd
00000020: 3e58 33bb 3065 9dbc 1ae0 f33c 26ab 47bd
00000030: 2c2d b83b 8235 d0bc b9e1 b73d 8451 a4bd
00000040: 6849 30bd e98d fe3c 3529 753d bebd 513d
00000050: 4706 a23c af8e ebbc 6e49 0e3d 0135 543c
00000060: 34d0 e4bd a8cb 7c3d a224 903b 341d 4abd
00000070: 4e3d 37bd 48a2 243d 6459 d7bc 97a0 ff3c
00000080: 63fb 0bbd a2c5 873d 39f4 75bd d422 573d
00000090: f5c6 82bc cd22 34bd c0d5 b1bd 488a b43d
000000a0: b95f 893d 19f2 0fbd bcba 28bd 8f46 a6bd
000000b0: fd69 03bd 8bc5 0ebd 69bb 6c3c 3a9e 46bd
000000c0: b246 90bd a83b e23c 2494 7ebd 5e8b 97bc
000000d0: ceb8 503d b6a1 063c 070d b33d 990a b53d
000000e0: e0e1 643d 8555 9fbd bbb5 c33c b8d8 01bc
000000f0: 2684 da3c 68d4 973d 76e4 9f3d b0bc 2f3d
00000100: cfd8 013d 69d1 afbd 07c8 e2bb c9a1 aa3c
00000110: 85aa 18bd 5507 a7bd f8a2 483c 74a2 a9bc
00000120: 1495 4e3d 715f 5c3d 4fac 0cbd c01b 14bd
00000130: 63d8 50bd 039b f33c 048c 99bd 242a 81bd
00000140: a66a 0dbd 380c adbc 45f7 753d 4392 203d
00000150: a107 893d 61c6 283d ab51 3abd 1d2d 4c3c
00000160: 1d17 f53c d267 a73d ea33 333d 7c4e 553d
00000170: b1fa 743d ed18 343d d013 9dbc 7023 3a3a
00000180: c06c 96bd e208 78bd 4607 183d 897a 99bd
00000190: 1338 9a3d 0fea 5a3d 9351 41bd b5e0 94bd
000001a0: d66d 653d 8595 003d 6a6e 65bd 538d 4e3c
000001b0: c312 13bd 990c ddbc 6fd7 0bbd 0456 213d
000001c0: b41a a0bd 7c32 a5bd 8779 ae3c 0eb8 abbd
000001d0: 4b15 6dbd b781 ab3d 897b ce3c f9d0 b6bd
000001e0: 2d41 9abc a923 ae3d 3a48 f63c cc36 83bd
000001f0: 50d6 a4bd 9789 04bd 26a8 4cbd 3fa3 a33d
