finals/neuralq4.pt (torch, 5208 bytes, 3 tensors)

model.0.weight f4 [128, 4]
000000 64 53 8a be c4 a5 aa be 44 5f e5 3e b8 eb 7b 3e
       -0.27016747 -0.33329594 0.44799244 0.24601638
000010 f6 5f b5 be 61 ca 18 be ff 91 be 3e 00 48 76 bd
       -0.35424775 -0.14920951 0.3722076 -0.06012726
000020 70 bf 7e bd da 4f cf be 30 2d 71 3d 2c 1c 9f 3e
       -0.062194288 -0.4049061 0.058880985 0.3107618
000030 83 20 3d 3e 67 9c a0 3e 8b d4 ce 3e 64 3d 9f be
       0.18469433 0.31369326 0.40396532 -0.31101525
000040 75 dd be 3e 4e 65 34 bd 77 4f 8f 3e ee d1 d5 3e
       0.37278333 -0.044041924 0.27990314 0.41761726
000050 a8 e7 9c 3e fd 5a 8d be f7 5b 71 3e 13 7a 6f be
       0.3064549 -0.2760848 0.23570238 -0.23386411
000060 1a b9 cc be 88 32 98 bd 62 9a 91 3e 80 01 e4 3d
       -0.3998497 -0.07431513 0.28438097 0.111330986
000070 98 b7 8d bc 98 83 30 3e 7a 0d ab 3e e6 53 ad bd
       -0.017299458 0.17237699 0.3340872 -0.08463268
000080 5f 32 72 be d0 7a fa 3e 48 ba b7 be 60 3b d8 3d
       -0.23652028 0.48921824 -0.3588431 0.105582
000090 fc 1b 85 bd a5 a7 1c 3e 38 2f 3e be d9 41 87 3e
       -0.06499478 0.15298326 -0.185727 0.26417425
0000a0 3c fd 97 be 48 35 55 3e e0 0d 25 bd a8 70 25 be
       -0.2968539 0.20821106 -0.040296435 -0.16156256
0000b0 46 9a 3d be 45 37 c1 3e 2a 7c b4 be 3a a7 cb 3e
       -0.18515882 0.3773748 -0.3525098 0.3977602
0000c0 1a cc df be 14 e5 bb be 40 86 88 bc 9a 03 bc 3e
       -0.43710405 -0.3669821 -0.016665578 0.36721498
0000d0 76 ae a7 be 22 6b 1d 3d 4a 06 f3 3c 4a 22 89 3d
       -0.3275029 0.038432248 0.029666085 0.06695993
0000e0 41 3e 87 bc e7 38 5d 3e 0f e9 33 ba 71 7d 99 be
       -0.016509177 0.21603738 -0.00068630365 -0.29978517
0000f0 c6 36 b3 3d 60 f6 de be 0c 19 e5 bc cb 37 0b 3e
       0.087506816 -0.43547344 -0.027966045 0.13595502
000100 24 6c 07 be 50 8c 30 be 88 77 d9 3d d8 01 a8 3d
       -0.13224846 -0.17241025 0.10618502 0.08203477
000110 76 34 b2 be 2c 8d be 3e 5f ff 12 be 13 ee a6 3e
       -0.3480565 0.3721708 -0.14355229 0.3260351
000120 c4 bd d8 be 50 e0 f0 be bc 08 36 be ca f9 95 3e
       -0.4233228 -0.47046137 -0.1777677 0.29292136
000130 15 0b 72 bd 05 94 d4 3e 24 80 38 be 9e 1d b4 3d
       -0.0590926 0.4151918 -0.18017632 0.087947115
000140 14 1f 7b be cd 00 85 3e f2 ea af be 5e 7d 51 be
       -0.24523574 0.25977173 -0.34358937 -0.2045798
000150 72 12 0f 3d 76 48 d3 ba 36 21 10 3d bd 53 58 bd
       0.0349297 -0.0016119618 0.035187922 -0.052814234
000160 7b 5c cc 3e 5c 38 ed 3d 70 4e b6 be d0 69 88 be
       0.39914307 0.11583015 -0.35606718 -0.2664323
000170 30 af 8f be 54 d7 31 3e 3f 58 51 3e b9 a5 9a be
       -0.28063345 0.17367297 0.2044382 -0.3020456
000180 60 8f ca 3c 28 7f d6 be ec 2a 99 3e 50 7d 8e be
       0.02472657 -0.41893888 0.2991556 -0.2782998
000190 71 b1 9b be 56 8f e2 3e eb 74 cb be 80 57 17 be
       -0.30408815 0.44249982 -0.3973764 -0.14779472
0001a0 bf 9a 9b be 8d 00 c8 be 4b 05 06 3e 9b 53 f8 3e
       -0.303915 -0.3906292 0.13087957 0.48501286
0001b0 44 04 e9 3d 48 9c 64 3e 07 99 b1 be 62 3c b6 bd
       0.11377767 0.22325242 -0.34687063 -0.08898236
0001c0 f1 ea 9f be 1b b2 e8 3e e9 98 9d 3e 38 a7 91 3e
       -0.31233934 0.45448384 0.30780724 0.2844789
0001d0 81 22 9b 3e b9 90 f9 3e 3f dd 95 3c 60 67 81 3d
       0.30299762 0.48743227 0.018293975 0.06318545
0001e0 47 dc e4 3d f0 55 92 3e 2c a0 1f be 34 d4 c7 be
       0.11174827 0.2858119 -0.15588444 -0.39029086
0001f0 8f 9e 17 be 7f 28 f4 3e 10 7e 09 be 79 b8 68 3e
       -0.14806579 0.47687146 -0.13426995 0.2272662
000200 3f 85 3d 3e 8b 72 dc be 63 eb 78 3e d2 9c aa be
       0.1850786 -0.4305614 0.24308543 -0.3332277
000210 94 27 a9 3e 58 35 f9 3e 81 cb d3 be 3e 8f e6 3e
       0.33038008 0.4867351 -0.413662 0.4503116
000220 ee 7d 89 3e ed 54 68 3d 1c 25 51 3b ae 84 78 be
       0.2685389 0.056721617 0.0031912988 -0.24269363
000230 20 d7 53 be a8 e7 f4 3d dc 2d c4 be f6 99 e7 be
       -0.20687532 0.119582474 -0.38316238 -0.4523465
000240 77 4f aa be 27 7f f9 3e 97 56 f6 be 9d a2 ba bd
       -0.33263752 0.48729822 -0.48112938 -0.09113047
000250 52 e1 8d be 8c f0 57 be a8 34 83 3d 00 38 b3 be
       -0.27710968 -0.21087855 0.06406528 -0.35003662
000260 4e f8 cb be da f2 90 be c0 cf 51 bd 88 fb 9f 3d
       -0.3983788 -0.2831028 -0.051223516 0.07811648
000270 cb 4e b1 3e d8 0a c0 3e b6 ca 51 bd aa 1c b2 3e
       0.34630427 0.37508273 -0.05121871 0.34787494
000280 3a 88 9f 3d 7a e6 00 bf cb 7d ad 3d 50 9e c6 bd
       0.07789655 -0.5035168 0.08471259 -0.096981645
000290 4a d9 c1 bd 01 8b b1 be 0c a7 b5 be d3 89 a4 3d
       -0.09465273 -0.34676364 -0.3547901 0.080341004
0002a0 18 97 f4 bd da 29 8d 3e ee b0 d8 be 50 d5 55 3e
       -0.11942881 0.27570993 -0.42322487 0.20882154
0002b0 4f d5 93 be 06 6b 4f 3d 8b 12 15 3e 6b 23 35 be
       -0.2887368 0.050639175 0.14557855 -0.17689292
0002c0 24 8d f1 be 31 34 16 bc fb 61 67 bd 7f 7a 29 be
       -0.47177994 -0.009167717 -0.056489926 -0.16550635
0002d0 de a4 b5 be 0c ef f4 be 00 a9 dc 3b 86 05 e5 3e
       -0.35477346 -0.47838628 0.0067340136 0.44730777
0002e0 a5 6e ec 3e 0f 0f d6 be b9 d4 c0 3e 59 48 3a bc
       0.46178165 -0.41808364 0.37662295 -0.011369788
0002f0 d1 96 88 3d c1 38 90 3d 04 da 4b be 81 2b fb 3e
       0.06669391 0.07042075 -0.19907385 0.49056628
000300 76 21 9f 3e 2d 92 64 be 07 0b fd bd 89 8a 25 3d
       0.31080216 -0.22321387 -0.12355619 0.04041532
000310 00 d3 94 bb c2 b1 ff be 00 e0 28 bb 2c 63 23 3e
       -0.0045417547 -0.49940306 -0.002576828 0.159558
000320 12 42 a1 3e e7 a2 ce 3e 11 2c d3 3d d8 fb 1d bd
       0.3149572 0.4035866 0.103111394 -0.038570255
000330 cb f6 e9 bd 1e 7d 00 be 56 6b ee 3d 24 64 cd 3e
       -0.11424025 -0.12547728 0.116415665 0.40115464
000340 36 c8 37 3e d1 62 f8 be c8 0e 5e be d0 fe fe be
       0.17947468 -0.4851289 -0.21685326 -0.49803782
000350 e0 d2 e1 be 00 07 3f 3b fc ff e8 3e d8 3f ae 3e
       -0.44106197 0.002914846 0.455078 0.34033084
000360 e9 a3 92 3c c9 4a e7 3e d4 c9 68 bd c9 09 e8 3d
       0.017900424 0.45174244 -0.056833103 0.11329991
000370 63 f8 58 3d bd a3 ec bd 5f 03 02 3f 74 65 ef be
       0.052971255 -0.11554668 0.50786394 -0.4675709
000380 16 6a 91 be e4 ce b0 3e 48 c6 cb bd 16 0a a1 be
       -0.2840125 0.34532845 -0.099499285 -0.31453007
000390 74 eb 81 be 7e c4 c8 be 9c b3 0c be c0 b0 d2 bc
       -0.2537495 -0.39212412 -0.1374039 -0.025719047
0003a0 8a d5 8e 3e d2 8c 00 bd 1e cc 00 3f 87 90 bc bd
       0.27897292 -0.031384297 0.5031146 -0.09207254
0003b0 94 87 74 be c8 e3 75 be a4 99 10 be 8e 7b e1 3e
       -0.23879844 -0.24012673 -0.14121109 0.44039577
0003c0 9c 93 e7 3e 33 28 38 be a5 ff 83 be 8b 16 e1 be
       0.45229805 -0.17984085 -0.2578098 -0.4396251
0003d0 e0 b1 49 be 1a 2f a0 be d6 13 ec 3e a0 e5 e2 3d
       -0.1969676 -0.31285936 0.46108884 0.11078954
0003e0 a1 84 f3 be 38 ee d9 3e 79 a0 35 be 79 b0 c0 3e
       -0.47562125 0.4256456 -0.17736997 0.37634638
0003f0 15 f5 59 bc ad b5 8d 3e 26 e1 66 be 2d 14 15 be
       -0.013303061 0.2767767 -0.22546825 -0.14558478

model.0.bias f4 [128]
000000 68 2f c4 bd 00 b0 0f 3e cc 49 05 3e 60 30 aa be
       -0.095793545 0.14031982 0.13016433 -0.33240032
000010 dc 8e 11 bf c7 e8 9a bc 1e a2 cc be 25 f5 96 3d
       -0.5685861 -0.018909825 -0.39967436 0.07370976
000020 59 d3 56 3e 9d 7f ef bd 84 8b fc be a5 0d 5d be
       0.2097906 -0.11694262 -0.49325192 -0.21587236
000030 4c 1d 5d be b1 af 94 bc 13 63 06 3d f8 5e 2f be
       -0.21593207 -0.018150182 0.03280933 -0.17126071
000040 00 60 24 b9 6d 08 c1 bd ba da a5 3e 21 eb 4a 3d
       -0.00015676022 -0.09425435 0.32393438 0.049540643
000050 7e 1f d9 3e 72 b1 63 3e 42 65 b1 3e a7 5b 9b 3e
       0.4240684 0.22235659 0.34647566 0.30343363
000060 60 91 12 3d 0f 37 63 be f8 62 9f 3e 97 62 21 be
       0.03578317 -0.22188972 0.31130195 -0.15760265
000070 1a 94 ff 3e b0 fc c8 be dd 9c e3 3e d4 b8 b8 3e
       0.4991768 -0.39255285 0.44455615 0.36078513
000080 40 bb c5 bd 0d ae b9 3e e5 15 84 be e2 2a a9 be
       -0.09654856 0.36265603 -0.25797954 -0.3304053
000090 d2 18 86 be 18 ef 9c 3d 74 b4 e2 be ff d8 34 3e
       -0.2619081 0.07662791 -0.442783 0.17660902
0000a0 2d c0 8b 3c f4 10 e5 3e 3a 32 a4 be f3 aa ab 3e
       0.01705941 0.44739497 -0.3206957 0.3352886
0000b0 ec 5e 88 3e 30 f5 11 3d 6e 1d 22 3e e6 de 7c be
       0.2663492 0.03563422 0.15831539 -0.24694404
0000c0 da a9 25 3e 40 02 22 be e3 98 38 3e a6 79 09 3f
       0.16178074 -0.15821171 0.18027072 0.53701246
0000d0 27 12 a0 3e 00 70 87 be b3 48 80 be da 7d cf 3e
       0.3126385 -0.26452637 -0.25055465 0.40525705
0000e0 8e 51 91 be ea 83 81 be ab 35 ba 3e dc 86 6c be
       -0.28382534 -0.25295955 0.3636907 -0.2309832
0000f0 8c 96 92 3c 40 6d 75 3d 4e 22 33 be 7b 2d 87 3e
       0.017894052 0.059918642 -0.17493555 0.26401886
000100 8a 38 42 bd 51 4a a6 be 92 e3 bd be 03 6c 7d be
       -0.0474172 -0.32478574 -0.37087685 -0.24748234
000110 e1 d2 e2 be dc fb 3c 3d 7d 8b 88 3e 5e d2 91 bd
       -0.44301513 0.04613863 0.2666892 -0.071202025
000120 62 a6 82 be 22 27 9d be 68 a6 6f 3e d6 ee cd be
       -0.25517565 -0.30693918 0.23403323 -0.4022128
000130 44 15 dc be 68 a4 95 bd 2c 3f b9 3e 12 53 4b 3e
       -0.42984974 -0.07306749 0.3618101 0.19855908
000140 ca a8 c5 be 2f c1 e7 bd d8 f1 c9 3e 8e 1f e2 3e
       -0.38605338 -0.11316144 0.39442325 0.441647
000150 62 79 a9 3e b0 12 bc 3e 1e 84 9a 3e c0 71 e4 bd
       0.3310042 0.36733007 0.30178922 -0.111545086
000160 75 82 c7 bd ee 96 59 3e 7f 93 7f bd d6 b6 01 3d
       -0.097416796 0.21248981 -0.062396523 0.031668507
000170 4d 18 3e bd ed 66 92 be fe 12 8b be 52 19 a6 be
       -0.046409894 -0.2859415 -0.27162927 -0.32441193
000180 40 82 52 bd 9e 61 89 3e c0 14 ff be b5 c8 f1 3e
       -0.051393747 0.26832289 -0.49820518 0.4722344
000190 be 3d 40 3e ad 3b 57 bc 21 10 88 be 44 5d da be
       0.18773553 -0.013136786 -0.26574805 -0.4264928
0001a0 d9 b8 00 3d ac 7a fb be 13 97 fb 3e 48 25 73 be
       0.031426284 -0.4911703 0.49138698 -0.2374469
0001b0 4f 49 91 bd 44 06 f0 3e 8d bd 78 be 58 45 57 3e
       -0.07094061 0.4687978 -0.24291058 0.21022546
0001c0 7c ac bb be de a1 bc 3e 98 b4 db 3e 59 e4 08 bf
       -0.36655033 0.36842245 0.4291122 -0.5347343
0001d0 b6 4b 47 3e 21 5f b7 3e c1 50 e4 3d 5d 06 98 be
       0.19462475 0.35814765 0.11148215 -0.29692355
0001e0 48 16 85 3e af 2f 98 3e 8e a1 80 be 18 0c ae 3e
       0.25993562 0.2972388 -0.25123256 0.33993602
0001f0 5e 7d a1 3e af a4 6a bd f0 b3 95 bc 8f c0 6a 3e
       0.3154096 -0.05728596 -0.018274277 0.22925018

model.2.weight f4 [1, 128]
000000 ee 73 7f 3c cb e0 a6 3d 1b 79 a9 3d 42 8f 00 3d
       0.015591605 0.081483446 0.08275052 0.03138662
000010 4f ec 61 be 09 6d 75 bd 76 c0 73 3d f0 b3 fb 3d
       -0.22062801 -0.059918437 0.059509717 0.1229018
000020 92 59 35 be 6c 18 bd bc 5d e9 2f 3d f1 fd 17 3c
       -0.1770995 -0.023082934 0.042947162 0.009276853
000030 0c 46 07 bd 33 97 a5 bd 9f 03 9c bc 91 11 74 bd
       -0.033025786 -0.080854796 -0.019044695 -0.059587065
000040 89 f7 1b bd 0d 16 5d 3d 61 2b 93 bb 74 83 d7 3d
       -0.038077865 0.053976107 -0.004491255 0.105231196
000050 18 5e e8 bd a7 d8 bc bc 29 3b b8 3d 75 e4 10 bd
       -0.11346072 -0.023052527 0.08995659 -0.035374124
000060 71 f2 ed 3c d5 17 ef 3c 86 76 f7 bc db 1e d8 3c
       0.02904627 0.029186169 -0.030207884 0.0263819
000070 27 3f 59 bd b5 0d e3 bc 02 85 3d 3e 02 5b 02 3e
       -0.053038742 -0.027716497 0.1850777 0.12730029
000080 97 25 32 be ae bc 57 3d a5 4c 5e bd 2d 2d 05 3d
       -0.17397152 0.052670173 -0.054272313 0.032513786
000090 ac 0a 60 3d b6 c0 5a 3d 43 65 c3 3b 17 b1 ad 3d
       0.054697677 0.05340644 0.005962999 0.08481043
0000a0 ad ed be 3c 6f 98 81 bd 7c ec ca bb e1 8c 8f bd
       0.023306692 -0.063279025 -0.006192742 -0.070092924
0000b0 ed 1b e6 3c 91 fc 75 3d 5f bb 5d bc a2 81 ce bd
       0.028089488 0.06005532 -0.013533442 -0.10083319
0000c0 f1 a8 9e 3d b2 57 9f bd df cd aa 3d bc 89 16 3e
       0.07747067 -0.077803984 0.08340048 0.14700979
0000d0 5f c7 d1 bc 98 76 0d bd f2 45 5c bd 2d 0f 40 3e
       -0.025607763 -0.034536928 -0.053777643 0.18755789
0000e0 bb 47 97 3c 0e 29 ad bb fd 9b ff 3d ee ab 58 3c
       0.018466821 -0.005284435 0.12480924 0.013224585
0000f0 43 96 fe bc 7a 91 b2 bd e1 33 53 bd a1 31 df 3c
       -0.03107751 -0.08719154 -0.051563147 0.027245345
000100 70 bf a2 3c 57 ca 15 be ce 44 d1 bd c9 00 45 be
       0.019866675 -0.14627968 -0.102182016 -0.19238581
000110 e5 e6 0f be 5d 37 9b bc 9b d1 ce 3d 5e 90 db 3d
       -0.14052923 -0.018947298 0.10098573 0.10720895
000120 43 10 53 be 67 c5 11 bb 0e 69 a6 bd 27 1a 11 3d
       -0.20611672 -0.0022242905 -0.08125506 0.03542533
000130 9f 5a a9 3d 57 f9 e9 bc 77 e1 0d be a6 da 27 3c
       0.08269238 -0.028561277 -0.1385554 0.010245001
000140 37 38 7b be 93 7b 86 3c 28 e5 a0 3b 25 fb c4 3d
       -0.24533163 0.016416347 0.00491013 0.096182145
000150 dc 74 c8 bc 26 3a 4f bd 8b 7d 84 bd 08 2e 1f 3d
       -0.024469785 -0.050592564 -0.06469258 0.03886226
000160 ae 9a 2a 3d ec 21 94 3d 1f 9b 47 bd c9 25 82 3d
       0.04165142 0.072330326 -0.04873192 0.06354863
000170 1c 75 fa bd 3a d8 48 bd 85 d1 94 bd 1b 08 1a bd
       -0.12229368 -0.049034335 -0.07266525 -0.037605386
000180 fb 66 d1 3c a6 18 20 3b ea c3 f8 3c 09 e5 da bd
       0.0255618 0.0024428754 0.030366857 -0.10688216
000190 51 15 41 bd 18 82 b1 bc 2a 55 e4 bd bb a9 92 bd
       -0.04713947 -0.021668479 -0.11149056 -0.0716128
0001a0 1d c3 5c bd a9 a2 c1 bb 70 5b 7e 3d f3 79 83 bd
       -0.053897012 -0.005909283 0.06209892 -0.06419744
0001b0 40 e2 a2 bc 51 e1 ed bd a8 77 88 bd 9c ee a5 3d
       -0.019883275 -0.11615241 -0.066634476 0.08102152
0001c0 93 ee 30 be eb 76 4a bd fe 3f 64 3d a5 c9 86 be
       -0.17278509 -0.049429815 0.05572509 -0.26325718
0001d0 0c bb d2 3d 4f 00 47 3d b6 63 98 3d b5 22 4c bd
       0.102895826 0.04858428 0.07440893 -0.049837787
0001e0 bd 99 23 3e 22 9b 2e be 20 bd 79 3d d8 3f 46 3d
       0.15976615 -0.17051366 0.06097138 0.04840073
0001f0 d1 23 3b 3d 57 7a 09 bc 51 9d 1f 3c 58 bb a4 3d
       0.045688454 -0.0083909845 0.009742097 0.080435455
