finals/neuralq1.pt (torch, 5208 bytes, 3 tensors)

model.0.weight f4 [128, 4]
0.23931561 0.30431387 -0.08644693 -0.4415913 -0.3814612 -0.1792289 0.28793967 -0.21204948
-0.4746644 0.10843325 0.46087414 -0.19562209 -0.079488814 -0.361789 -0.14509505 -0.06473899
0.21082662 -0.35824597 0.14311758 -0.3057087 0.4191964 0.4277609 -0.44295105 -0.22067474
-0.2020058 0.0453203 -0.18931133 -0.20434684 0.2761254 0.41815147 -0.4472438 0.2286167
-0.040109396 -0.15603608 -0.30518234 0.19352847 -0.044917166 -0.3336283 0.14952266 -0.40560347
0.1291978 -0.077561766 -0.18703936 -0.17581041 0.2556038 0.12949102 0.06162857 0.16674726
0.08279113 0.36567694 0.21853246 -0.10800923 -0.15220986 -0.05459677 0.45364773 0.4220758
0.32517484 -0.48002344 -0.04168152 0.444947 0.20089908 0.02473653 0.3358996 0.39735544
-0.18504953 -0.3647912 0.010933638 0.13596034 -0.0061867153 0.2983543 0.47561687 -0.15674394
0.18929483 0.0016700992 0.20722143 0.38013965 0.49038562 -0.2405107 -0.48640546 0.37059215
0.096470505 0.09323644 0.12293539 -0.14178513 0.47331893 0.4204909 0.2879856 -0.44387478
0.22568642 -0.23654619 -0.2886361 0.44661897 0.4565983 -0.3405365 0.27437624 -0.27621838
0.4641302 0.24604258 0.24212569 0.48946577 -0.21072173 -0.34672278 -0.21518779 -0.43322724
-0.25359404 -0.024135947 0.18223101 -0.12427628 0.255378 -0.42836687 0.44229302 -0.08397632
-0.23296529 -0.227813 0.08881575 0.026737511 0.028123438 -0.40656972 0.06252384 -0.3617006
-0.37825352 -0.30394197 0.1325984 -0.045891047 -0.17231469 0.035003576 -0.16215456 0.20042433
-0.26454544 -0.38945782 0.2965575 0.40508294 0.26030716 -0.4384918 -0.14517264 -0.2054326
-0.3563997 0.24862476 -0.27960497 -0.43207088 -0.14921674 -0.4589364 -0.37783685 -0.27586105
-0.2357373 0.43099728 0.024028888 -0.17214687 0.41458142 -0.28973654 0.0008560843 -0.06384415
-0.15988268 -0.26552418 -0.3742538 0.22587231 -0.0008255589 0.2956658 0.3660308 0.38370958
0.02135339 0.40962222 -0.48223498 0.25534776 0.48717123 0.012156524 -0.07415726 -0.4622199
0.24741037 -0.45052132 -0.47562847 -0.45240608 0.34434205 0.47426885 0.11976332 -0.038790014
-0.028595924 0.124449074 -0.3590827 0.4927013 0.37496927 -0.25940228 -0.18601732 0.04276732
0.36602387 -0.16972943 -0.26060405 0.13944094 0.19644035 -0.38480327 -0.28086823 -0.19994715
-0.10438545 -0.14722745 0.4837991 0.47349772 -0.40242767 -0.39508784 -0.31882685 -0.3626457
0.25614196 0.47794184 0.34289345 -0.014569087 -0.42428762 0.13013525 0.280829 -0.33613852
0.45965993 -0.110503145 -0.15878904 -0.20923759 -0.10965092 -0.0032841444 0.017926447 -0.120075434
0.22140297 -0.14941697 0.48787394 0.42951518 -0.036821313 0.18174176 0.3015137 -0.42325535
0.19707039 0.43661118 0.32164094 0.22598037 -0.49743688 0.30184126 -0.40402508 -0.18328929
0.3834775 -0.33366233 -0.15124218 0.38191777 -0.054453794 0.2015247 -0.30835113 -0.37884843
-0.48467314 0.154293 -0.24012566 0.19260287 0.10447353 -0.45480335 -0.10536986 0.4493913
-0.4148541 -0.00084376335 0.29410988 0.45974296 0.19393885 0.3972591 0.06874261 -0.27514896
00000000: 270f 753e 07cf 9b3e 170b b1bd 4118 e2be
00000010: e24e c3be c887 37be d46c 933e 8023 59be
00000020: 3607 f3be 4012 de3d b2f7 eb3e 2851 48be
00000030: 08cb a2bd 683c b9be cc93 14be e095 84bd
00000040: efe2 573e 046c b7be 6a8d 123e da85 9cbe
00000050: e9a0 d63e 7a03 db3e 7bca e2be 8ff8 61be
00000060: 9cda 4ebe c7a1 393d d4da 41be 4c40 51be
00000070: 4f60 8d3e f317 d63e 24fd e4be 7f1a 6a3e
00000080: c049 24bd ecc7 1fbe dc40 9cbe 542c 463e
00000090: 10fb 37bd 54d1 aabe 781c 193e 42ab cfbe
000000a0: 6e4c 043e b4d8 9ebd 3f87 3fbe a507 34be
000000b0: 80de 823e 4b99 043e 3d6e 7c3d cbbf 2a3e
000000c0: 658e a93d 023a bb3e f9c6 5f3e f133 ddbd
000000d0: e7dc 1bbe dda0 5fbd 8444 e83e 521a d83e
000000e0: 517d a63e a2c5 f5be 3eba 2abd 18d0 e33e
000000f0: 7db8 4d3e 43a4 ca3c 08fb ab3e 2c72 cb3e
00000100: a07d 3dbe eac5 babe 0023 333c 3039 0b3e
00000110: eeb9 cabb e5c1 983e 0e84 f33e 7c81 20be
00000120: 81d6 413e 3be7 da3a db31 543e aaa1 c23e
00000130: d313 fb3e 7048 76be 230a f9be 41be bd3e
00000140: 5492 c53d bff2 be3d 8dc5 fb3d 1f30 11be
00000150: dc56 f23e 954a d73e d972 933e 8e43 e3be
00000160: 571a 673e 2a39 72be 1cc8 93be 3eab e43e
00000170: 41c7 e93e cd5a aebe 0b7b 8c3e 7f6c 8dbe
00000180: 79a2 ed3e 96f2 7b3e ccef 773e 429b fa3e
00000190: 70c7 57be a685 b1be 305a 5cbe f6cf ddbe
000001a0: 14d7 81be c0b8 c5bc c49a 3a3e 9084 febd
000001b0: e8c0 823e e752 dbbe 3b74 e23e c7fb abbd
000001c0: 748e 6ebe d047 69be 08e5 b53d a008 db3c
000001d0: 2063 e63c e829 d0be 800c 803d d230 b9be
000001e0: 72aa c1be 489e 9bbe e0c7 073e 40f8 3bbd
000001f0: 4373 30be e95f 0f3d d80b 26be 093c 4d3e
00000200: 8072 87be 0467 c7be 62d6 973e 0867 cf3e
00000210: fb46 853e ff81 e0be 23a8 14be ec5c 52be
00000220: 057a b6be 7d97 7e3e 6228 8fbe 6538 ddbe
00000230: 46cc 18be b6f9 eabe d573 c1be a93d 8dbe
00000240: 1e65 71be adab dc3e 3bd8 c43c 4547 30be
00000250: 0444 d43e 5958 94be d86a 603a b9c0 82bd
00000260: 49b8 23be c9f2 87be 329e bfbe 124b 673e
00000270: 526a 58ba 8261 973e 6468 bb3e 9575 c43e
00000280: 4eed ae3c 01ba d13e 81e7 f6be f1bc 823e
00000290: 826e f93e 282c 473c c3df 97bd 16a8 ecbe
000002a0: 2559 7d3e bbaa e6be 9385 f3be c5a1 e7be
000002b0: 9a4d b03e 5ed3 f23e 7946 f53d 47e2 1ebd
000002c0: 0042 eabc 28df fe3d b0d9 b7be 5843 fc3e
000002d0: f9fb bf3e 60d0 84be 537b 3ebe c92c 2f3d
000002e0: 7b67 bb3e 8dcd 2dbe e56d 85be 9bc9 0e3e
000002f0: a927 493e ef04 c5be f6cd 8fbe f2be 4cbe
00000300: 0ac8 d5bd cbc2 16be 84b4 f73e 4b6e f23e
00000310: 000b cebe f448 cabe 463d a3be b2ac b9be
00000320: 0a25 833e cbb4 f43e bb8f af3e 2eb3 6ebc
00000330: 3a3c d9be 2d42 053e d2c8 8f3e 591a acbe
00000340: 8c58 eb3e 794f e2bd 9899 22be 6142 56be
00000350: a990 e0bd cd3a 57bb 7cda 923c 1cea f5bd
00000360: 76b7 623e c300 19be 9dca f93e 6ae9 db3e
00000370: f2d1 16bd 831a 3a3e 0160 9a3e edb4 d8be
00000380: d2cc 493e 808b df3e 1fae a43e 6667 673e
00000390: 0cb0 febe f08a 9a3e 60dc cebe 30b0 3bbe
000003a0: 2a57 c43e cad5 aabe 3bdf 1abe ba8a c33e
000003b0: f10a 5fbd 7e5c 4e3e 33e0 9dbe 6cf8 c1be
000003c0: 1427 f8be fcfe 1d3e 80e3 75be b039 453e
000003d0: 38f6 d53d fcdb e8be 27cc d7bd 9e16 e63e
000003e0: c267 d4be 0030 5dba 9295 963e 6e63 eb3e
000003f0: e897 463e 8b65 cb3e edc8 8c3d 53e0 8cbe

model.0.bias f4 [128]
-0.3395052 0.054765224 -0.1821478 -0.4493811 -0.44977522 0.19035006 0.1631283 -0.14186603
-0.25498194 0.036410987 -0.116462976 -0.4400524 -0.3650682 0.0053930515 0.4777635 0.11275316
-0.1569317 0.28773975 0.38997874 0.17331052 -0.36026052 0.1556219 -0.44684324 0.48827827
0.10079805 -0.49783248 -0.12847912 -0.4352951 -0.40837955 -0.47568518 0.01786989 0.2803352
-0.34052742 -0.4706232 -0.06711242 0.4066069 0.2220653 0.3465343 0.44845617 0.18159905
-0.25638726 0.00874807 -0.16970257 0.082023986 -0.47419298 -0.36181697 -0.21612702 -0.09733378
0.38283482 -0.12892914 -0.013954854 -0.02094582 0.27684417 0.116785996 -0.02620308 0.35882846
0.47023812 0.15722522 0.025472037 0.0020792382 -0.18843335 0.14173374 -0.097326696 -0.037483726
0.41170034 -0.31560606 0.2670475 -0.1835081 -0.3985018 -0.28088164 -0.07644007 -0.12297637
-0.02750254 -0.24371539 -0.02794367 -0.25641632 0.28731292 -0.042937607 -0.4022602 -0.36422637
-0.1724304 0.009652084 -0.2787181 0.012792051 -0.09623945 -0.17160892 -0.49057686 0.39321536
-0.4860447 0.011678245 -0.089749336 -0.34022486 0.4965732 0.3253287 0.16603902 0.3508581
0.2553748 -0.20864278 -0.19628972 0.15917915 -0.15811305 0.3046081 0.123602085 -0.18237841
-0.47825804 -0.26588273 0.45691657 -0.028405428 0.06348759 -0.17614673 -0.15289325 0.024687182
0.21075755 0.3211395 -0.2822384 -0.0068080863 0.18845597 0.11153456 -0.28517082 -0.17769577
-0.13598563 0.010380447 0.061249807 0.4250747 -0.0012795635 -0.116344 -0.45370874 0.08117696
00000000: a0d3 adbe 8051 603d f484 3abe 4815 e6be
00000010: f048 e6be 20eb 423e 1b0b 273e 5445 11be
00000020: fe8c 82be b023 153d 2484 eebd 8c4e e1be
00000030: 38ea babe 32b8 b03b 6b9d f43e 21eb e63d
00000040: b4b2 20be a052 933e 4bab c73e 5078 313e
00000050: 1174 b8be 595b 1f3e a3c8 e4be 9cff f93e
00000060: 356f ce3d e6e3 febe 0890 03be 00df debe
00000070: 2017 d1be 028d f3be e063 923c 1888 8f3e
00000080: 9c59 aebe 86f5 f0be 3d72 89bd c82e d03e
00000090: 1665 633e f26c b13e 0c9c e53e 1af5 393e
000000a0: 3145 83be 1154 0f3c 83c6 2dbe 31fc a73d
000000b0: 6cc9 f2be 1340 b9be 6750 5dbe ef56 c7bd
000000c0: ed02 c43e 0006 04be e6a2 64bc 9196 abbc
000000d0: 85be 8d3e 7f2d ef3d d7a7 d6bc 5db8 b73e
000000e0: 0dc3 f03e a6ff 203e bcaa d03c d443 083b
000000f0: acf4 40be a622 113e 3853 c7bd 8988 19bd
00000100: 63ca d23e 1e97 a1be 73ba 883e 8ce9 3bbe
00000110: 6e08 ccbe b8cf 8fbe 9d8c 9cbd 09db fbbd
00000120: 024d e1bc 8790 79be 20ea e4bc 0049 83be
00000130: ae1a 933e 58df 2fbd 0df5 cdbe e17b babe
00000140: 9891 30be c623 1e3c 24b4 8ebe c095 513c
00000150: 3019 c5bd 40ba 2fbe e42c fbbe 8653 c93e
00000160: dada f8be 1c56 3f3c 80ce b7bd f431 aebe
00000170: d83e fe3e 7c91 a63e 2206 2a3e aca3 b33e
00000180: 7cc0 823e 74a6 55be 2c00 49be dcff 223e
00000190: 63e8 21be 98f5 9b3e 1723 fd3d 68c1 3abe
000001a0: 3dde f4be c821 88be f8f0 e93e 80b2 e8bc
000001b0: c805 823d cf5f 34be 0c90 1cbe c63c ca3c
000001c0: d4d0 573e 666c a43e 8d81 90be 5e16 dfbb
000001d0: 9afa 403e 3b6c e43d e901 92be e1f5 35be
000001e0: d13f 0bbe c012 2a3c 14e1 7a3d 64a3 d93e
000001f0: 07b7 a7ba c345 eebd 834c e8be 1b40 a63d

model.2.weight f4 [1, 128]
-0.06963837 -0.03329385 -0.07951477 -0.0011641486 0.0730758 -0.023991039 -0.0070673497 -0.07940321
0.068244345 0.06293663 -0.042274643 0.026850812 -0.06331181 -0.05321962 -0.0535422 -0.04890258
0.03645956 0.09231244 0.00502541 0.04431908 -0.02709163 0.03332297 -0.07286751 0.046522386
-0.060952738 -0.07751431 0.05940619 -0.01639327 -0.07041801 -0.013563361 -0.05786484 0.031976804
-0.02023132 0.037385136 0.075986125 0.067188285 -0.06512231 -0.019715602 -0.025748342 0.082412176
-0.120284356 -0.007579751 0.044467904 -0.08959849 0.0351807 -0.05906901 -0.096474186 -0.06648589
-0.040095218 -0.031894017 0.08936178 -0.071703136 0.01152839 -0.034784846 0.053502757 0.030220512
-0.055739548 -0.010604758 0.072652295 0.016912116 0.026291562 -0.07232603 0.06348736 -0.03689192
0.07246566 0.067887336 -0.07898082 -0.004672073 -0.01849272 0.054835968 0.019647004 -0.070092425
0.011025735 0.076906264 0.02619806 -0.055267394 0.009431552 0.020526692 0.032139212 -0.058644593
0.08821459 0.05597275 0.0100696515 0.08255048 0.003358324 -0.025209937 -0.03519788 0.04193481
-0.0063024177 0.04861874 -0.015181021 0.014255613 0.013431151 0.07654163 -0.0245065 0.05847482
0.014474574 0.07794033 0.027360164 0.06609796 0.01093719 -0.09450539 -0.016814884 -0.06718578
-0.04890652 0.087925784 -0.0506991 -0.0560339 -0.032242276 -0.06498469 -0.008870921 0.08702521
0.0056433147 0.090369396 0.1072952 -0.120615855 -0.039930575 -0.012594342 0.09221601 0.10733186
-0.03837794 -0.04588287 0.035221882 -0.022671307 0.008644434 0.07348331 -0.0028060311 0.061113477
00000000: 909e 8ebd 225f 08bd a4d8 a2bd 5896 98ba
00000010: c4a8 953d db88 c4bc 3a95 e7bb 269e a2bd
00000020: b1c3 8b3d ebe4 803d 2d28 2dbd 3cf6 db3c
00000030: 9fa9 81bd d1fc 59bd 114f 5bbd 124e 48bd
00000040: 9f56 153d 4e0e bd3d 32ac a43b ec87 353d
00000050: 44ef ddbc ab7d 083d 903b 95bd 428e 3e3d
00000060: 94a9 79bd d3bf 9ebd e853 733d 2e4b 86bc
00000070: 5137 90bd dc38 5ebc af03 6dbd 1cfa 023d
00000080: 27bc a5bc 2821 193d 9d9e 9b3d 039a 893d
00000090: d85e 85bd 9d82 a1bc 30ee d2bc b7c7 a83d
000000a0: a557 f6bd 8f5f f8bb fa23 363d 6a7f b7bd
000000b0: a319 103d 59f2 71bd 4294 c5bd c129 88bd
000000c0: e23a 24bd 4da3 02bd 4f03 b73d 18d9 92bd
000000d0: 93e1 3c3c 8e7a 0ebd b525 5b3d 0291 f73c
000000e0: 274f 64bd 94bf 2dbc baca 943d 478b 8a3c
000000f0: 6761 d73c ab1f 94bd a905 823d fb1b 17bd
00000100: e068 943d 8408 8b3d b2c0 a1bd 3018 99bb
00000110: 0b7e 97bc ae9b 603d c1f2 a03c 9e8c 8fbd
00000120: 49a5 343c 0881 9d3d 509d d63c 1060 62bd
00000130: cc86 1a3c 9827 a83c 68a4 033d 5035 70bd
00000140: daa9 b43d af43 653d 2efb 243c 3a10 a93d
00000150: 5417 5c3b 1285 cebc a72b 10bd d6c3 2b3d
00000160: 8384 cebb 7224 473d d1b9 78bc 6090 693c
00000170: 550e 5c3c dcc1 9c3d dbc1 c8bc 4b83 6f3d
00000180: c326 6d3c 2e9f 9f3d 6c22 e03c 5e5e 873d
00000190: e631 333c 0b8c c1bd 5ebf 89bc b398 89bd
000001a0: 3452 48bd 6f12 b43d dca9 4fbd cd83 65bd
000001b0: 7a10 04bd b116 85bd 5757 11bc 463a b23d
000001c0: 8eeb b83b 9713 b93d 96bd db3d 7205 f7bd
000001d0: 3e8e 23bd 8058 4ebc bfdb bc3d ced0 db3d
000001e0: 3032 1dbd adef 3bbd d244 103d 2db9 b9bc
000001f0: 62a1 0d3c 6b7e 963d 64e5 37bb 2052 7a3d
