finals/neuralq1.pt (torch, 5208 bytes, 3 tensors)

model.0.weight f4 [128, 4]
0	0x3e978e86	0.29600924
1	0xbe67b9c0	-0.22629452
2	0x3eaa71bb	0.33289894
3	0x3d6b7069	0.05748025
4	0xbe0b3dd1	-0.135978
5	0xbddb1896	-0.10698049
6	0x3eed7c1d	0.46383753
7	0xbe85cf03	-0.261345
8	0xbe90721c	-0.2821206
9	0x3ea0f680	0.31438065
10	0xbe96fc0a	-0.29489166
11	0x3eaeab92	0.34115273
12	0xbe7a693c	-0.24454206
13	0x3dca2128	0.09869605
14	0xbe2d8420	-0.16944933
15	0xbdbe2cc8	-0.09285885
16	0xbe6761cc	-0.225959
17	0x3eb4fe0a	0.35350066
18	0x3ee4770c	0.44622076
19	0xbd8585b0	-0.065196395
20	0xbee2ad98	-0.44273067
21	0xbd7272a0	-0.059191346
22	0xbda4b326	-0.08041982
23	0x3e280e02	0.16411594
24	0x3ecf260a	0.4045871
25	0x3e97e335	0.29665533
26	0xbe7aa6fd	-0.24477763
27	0xbd11bbf6	-0.035579644
28	0xbe94f146	-0.29090327
29	0x3efda3bb	0.4953898
30	0xbef06f70	-0.4696002
31	0xbe42a31a	-0.19007531
32	0xbd8c7a50	-0.06859267
33	0xbee7aef8	-0.45250678
34	0x3e8d28da	0.2757023
35	0x3e29ee40	0.16594791
36	0x3e9e27c3	0.3088971
37	0xbed16b2c	-0.40902078
38	0x3ee9d92d	0.45673504
39	0x3ea59a49	0.32344273
40	0xbed78889	-0.42096356
41	0x3d58d115	0.05293377
42	0x3dddbcb6	0.108270094
43	0x3eba4975	0.36384168
44	0xbe57a818	-0.21060216
45	0xbee27f66	-0.44237822
46	0x3e0b23f4	0.13587934
47	0xbeffba4e	-0.49946827
48	0xbdc40728	-0.095716774
49	0xbe910620	-0.28324986
50	0x3e554744	0.20827967
51	0x3ec6f4b0	0.38858557
52	0xbe7915f4	-0.2432478
53	0xbe9bed54	-0.30454504
54	0x3edd2f14	0.4319998
55	0x3ea2f718	0.31829143
56	0x3dd4cb06	0.10390286
57	0x3e60e487	0.21962176
58	0xbe2f15d2	-0.17098168
59	0x3e2e6e7d	0.17034335
60	0x3d462889	0.0483785
61	0xbeade570	-0.3396411
62	0xbdd26c99	-0.102746196
63	0x3e872c14	0.26400816
64	0xbefad166	-0.48987883
65	0xbef405e2	-0.47660738
66	0x3e95e4ba	0.29276067
67	0x3e8a3de8	0.27000356
68	0xbe9b0935	-0.30280462
69	0xbe9408f0	-0.2891307
70	0xbeb0f723	-0.3456355
71	0xbdc2800e	-0.09497081
72	0xbea1f310	-0.31630754
73	0xbe60fd10	-0.21971536
74	0xbe4a65cc	-0.19765395
75	0x3e47b780	0.19503593
76	0xbe374353	-0.17896776
77	0xbef64d53	-0.4810587
78	0x3ec57dda	0.3857258
79	0xbeb570c5	-0.354376
80	0xbdff0f20	-0.12454057
81	0xbea1d486	-0.31607455
82	0xbdfc6b18	-0.12325114
83	0xbbea6d00	-0.007154107
84	0xbe3d65f8	-0.18495929
85	0xbd36b290	-0.044603884
86	0x3e23a5bc	0.15981191
87	0xbdf34dc8	-0.1188007
88	0xbe8ed41b	-0.278962
89	0x3d53c216	0.051698767
90	0x3e15ef3a	0.14642039
91	0x3cdf8978	0.02728723
92	0x3e9c3376	0.30508012
93	0x3ef154de	0.4713506
94	0xbe15666d	-0.14589854
95	0x3d13d821	0.03609479
96	0xbe90b4d4	-0.2826296
97	0x3e9fc0e3	0.31201848
98	0x3e30f3a8	0.17280447
99	0xbecce6b2	-0.40019757
100	0x3d2d5bbc	0.042323813
101	0x3e6a92f2	0.22907618
102	0xbd9defc8	-0.0771175
103	0xbde97ab1	-0.11400355
104	0xbc920120	-0.017822802
105	0xbeec1780	-0.4611168
106	0x3eeb9ada	0.4601658
107	0xbedac778	-0.42730308
108	0x3ecca2cb	0.3996795
109	0x3e99ed10	0.30063677
110	0xbeaa29e2	-0.3323508
111	0x3ef6a2ad	0.48170987
112	0x3ecf13e0	0.4044485
113	0x3db4cde8	0.08828336
114	0x3e1b4fab	0.1516711
115	0x3e5baef3	0.21453457
116	0x3e20444c	0.15651053
117	0xbda60459	-0.08106298
118	0xbe921527	-0.28531763
119	0x3d0d2975	0.034463365
120	0x3d9efcf7	0.07763093
121	0xbefe37cf	-0.49651954
122	0x3ef05db3	0.46946487
123	0x3ee2af71	0.44274476
124	0x3edc56e0	0.4303503
125	0x3da496e7	0.08036595
126	0x3de2594e	0.1105219
127	0x3e8dd028	0.27697873
128	0xbd6997b2	-0.057029434
129	0x3e650173	0.22363834
130	0x3ea573b6	0.32314843
131	0xbea396e4	-0.31951058
132	0xbe6c4655	-0.23073705
133	0x3ec68dd1	0.38780072
134	0x3e9e832a	0.30959445
135	0x3e69e056	0.22839484
136	0x3ebd1c24	0.36935532
137	0x3e2ac839	0.16677941
138	0x3ec85d0e	0.39133495
139	0x3ea129e9	0.31477287
140	0xbe7b8250	-0.24561429
141	0xbe10ade8	-0.1412884
142	0x3e095f7c	0.1341533
143	0x3d909e00	0.07061386
144	0x3ec662ad	0.3874716
145	0xbec293b2	-0.38003308
146	0xbeefc205	-0.46827713
147	0xbddfbd77	-0.109248094
148	0x3e6247a2	0.22097638
149	0xbe91f243	-0.28505144
150	0xbe59d6d2	-0.21273354
151	0xbd4cb076	-0.049972974
152	0xbee2bc66	-0.44284362
153	0x3e999207	0.29994223
154	0x3ed8d57a	0.4235037
155	0xbe681e09	-0.22667708
156	0x3eadf8af	0.33978793
157	0xbe9bd3aa	-0.30434924
158	0xbed5f5b2	-0.41789013
159	0x3df22d26	0.11825018
160	0x3df07e12	0.11742796
161	0xbef5e3ed	-0.48025456
162	0x3f01e2be	0.50736606
163	0x3ee27474	0.44229472
164	0x3da59eb6	0.08086912
165	0xbe02f447	-0.12788497
166	0xbeb84157	-0.3598735
167	0x3dd1e25f	0.10248255
168	0xbeebc6fa	-0.46050245
169	0xbee6ea86	-0.45100802
170	0xbeaff6a2	-0.34367853
171	0x3e81ac84	0.2532693
172	0xbd3adb53	-0.04561932
173	0x3ecce6a3	0.40019712
174	0xbe6e2434	-0.23255998
175	0xbe5ea97c	-0.2174434
176	0x3e7167a5	0.23574694
177	0xbeee2c36	-0.46518105
178	0x3d9fe7b0	0.07807863
179	0x3e348814	0.17630035
180	0xbe7b9900	-0.24570084
181	0xbef2070e	-0.47271007
182	0xbc940be0	-0.018072069
183	0xbec0b91a	-0.3764122
184	0x3eed5ed6	0.46361417
185	0x3ed08052	0.407229
186	0xbe3a2535	-0.18178256
187	0x3ef091cf	0.46986243
188	0xbd8e8bca	-0.069602564
189	0xbe966a94	-0.29378188
190	0x3ebba072	0.36645848
191	0x3ea5fec3	0.3242093
192	0xbefd9678	-0.4952886
193	0x3d8d0d88	0.068873465
194	0xbe8a1566	-0.2696945
195	0xbe69b3d0	-0.228225
196	0xbb5ab300	-0.0033370852
197	0xbde63b30	-0.11241758
198	0x3e317ab4	0.17331964
199	0x3cd3e200	0.025864601
200	0xbbc300d7	-0.005951028
201	0xbe16abf7	-0.14714037
202	0x3eedb396	0.46426076
203	0xbdc81de6	-0.09771328
204	0x3e28996f	0.1646478
205	0x3c0f5073	0.008747208
206	0x3eb92d8a	0.36167556
207	0x3e65cd4b	0.22441594
208	0xbe6ab138	-0.22919166
209	0xbe0044f0	-0.12526298
210	0x3efede8e	0.4977917
211	0x3e9a305c	0.3011502
212	0xbeee881a	-0.46588212
213	0xbdc019f8	-0.09379953
214	0x3ed8abf0	0.42318678
215	0x3e2d4694	0.16921455
216	0xbd334f30	-0.04377669
217	0x3eca43b0	0.39504766
218	0x3e95621c	0.29176414
219	0xbd13f5d0	-0.036123097
220	0xbec077f2	-0.3759151
221	0xbeab10e7	-0.33411333
222	0x3ec6ccd6	0.38828152
223	0xbe7404c4	-0.23829943
224	0xbea79ae6	-0.32735366
225	0x3d3b5a20	0.045740247
226	0x3d899218	0.06717318
227	0xbeb28502	-0.34867102
228	0xbed8973c	-0.42302883
229	0xbecb4634	-0.39701998
230	0x3e51b544	0.20479304
231	0xbefbb5fc	-0.4916228
232	0xbee43a5c	-0.44575775
233	0xbe800102	-0.2500077
234	0xbdeb7f68	-0.1149891
235	0x3e736f84	0.23773009
236	0xbeeead9a	-0.46616822
237	0x3ecbc084	0.39795315
238	0x3ef9b767	0.48772737
239	0xbed1e66f	-0.4099612
240	0xbef7cd71	-0.48398927
241	0x3d86d7f2	0.06584157
242	0x3e9aafec	0.30212343
243	0xbea7bc8c	-0.32761037
244	0x3c905720	0.01761967
245	0xbe07a914	-0.13248092
246	0xbecab85a	-0.39593774
247	0x3e1d5744	0.1536532
248	0x3dd6c4f1	0.10486782
249	0xbe941558	-0.28922534
250	0x3e28b956	0.1647695
251	0xbd80b7b5	-0.06285039
252	0xbebe342c	-0.3714918
253	0xbe9f9063	-0.31164846
254	0xbdadd1b6	-0.08487265
255	0x3eadcd26	0.33945578

model.0.bias f4 [128]
0	0xbee3c89a	-0.44488984
1	0x3df88683	0.12135031
2	0x3dab4a88	0.08363825
3	0xbeb5e7e6	-0.35528487
4	0x3e8350a2	0.25647455
5	0x3d8063f3	0.06269064
6	0xbe693a9c	-0.22776264
7	0xbe987f5e	-0.29784673
8	0xbe8490c8	-0.2589171
9	0xbd1a3899	-0.037651632
10	0x3df663b1	0.120307334
11	0x3e989e0c	0.2980808
12	0xbe7ce9e0	-0.24698591
13	0xbed0b656	-0.4076411
14	0xbe876da0	-0.26450825
15	0x3efb7d54	0.49119055
16	0xbc6f1640	-0.014592707
17	0x3efee2d3	0.49782428
18	0xbe4d2938	-0.20035255
19	0x3ec7b819	0.39007643
20	0xbedf7c04	-0.43649304
21	0xbe06473c	-0.13113111
22	0x3bcfe7d8	0.0063447766
23	0x3ea94aee	0.3306498
24	0x3e4f2767	0.20229875
25	0x3e815575	0.2526051
26	0xbecd64c0	-0.4011593
27	0x3ef5d896	0.48016804
28	0x3ec993c7	0.39370558
29	0x3dc85539	0.0978188
30	0x3c089c93	0.008338111
31	0xbd829c26	-0.06377439
32	0x3ec1bcd6	0.37839383
33	0x3ef7d1fb	0.4840239
34	0xbe6fc065	-0.23413236
35	0xbee96b46	-0.45589656
36	0x3ddc469e	0.10755657
37	0x3e93e654	0.28886664
38	0x3d8a6344	0.06757215
39	0x3d9fcbff	0.07802581
40	0xbd895a10	-0.06706631
41	0xbe78e5d0	-0.24306417
42	0xbecac30c	-0.39601934
43	0xbd3f2711	-0.046668116
44	0xbecd24c6	-0.40067118
45	0xbed18eec	-0.40929353
46	0xbe9f376e	-0.31096977
47	0x3ee9dc65	0.4567596
48	0xbe6ce6b4	-0.23134881
49	0xbdf50a40	-0.11964846
50	0x3e99cca9	0.30038956
51	0x3e299a95	0.16562875
52	0xbd016530	-0.03159064
53	0x39c29800	0.00037115812
54	0xbeef007a	-0.4668005
55	0x3e6d07b6	0.23147473
56	0xbd5712b0	-0.052508056
57	0xbd0408f0	-0.032235086
58	0xbe692a68	-0.22770083
59	0x3d97f3fe	0.07419585
60	0x3e036a21	0.12833454
61	0xbed644f2	-0.41849476
62	0xbe26db66	-0.16294631
63	0x3ed3d279	0.41371515
64	0x3dde6c8b	0.10860547
65	0xbcf4fc97	-0.0299056
66	0xbed4335f	-0.41445443
67	0xbe41cb73	-0.18925266
68	0xbeb23bf1	-0.34811357
69	0xbe80235c	-0.25026977
70	0x3ee1f2eb	0.44130644
71	0xbd6710f0	-0.056412637
72	0x3e1f7b5d	0.15574403
73	0x3e22543b	0.15852444
74	0x3edb0116	0.42774266
75	0xbeadcb0a	-0.3394397
76	0xbd7f0cfc	-0.062268242
77	0xbd0162ed	-0.031588484
78	0xbdcf045a	-0.10108252
79	0x3d8f02e0	0.0698297
80	0x3e6f946f	0.23396467
81	0x3edb6b5c	0.42855346
82	0x3dccb1b0	0.09994829
83	0x3d6f3b6f	0.05840629
84	0x3ca3cb1e	0.019994315
85	0x3ec88a2f	0.39167926
86	0x3eb3e60c	0.3513645
87	0x3e607b0f	0.21921943
88	0x3eafb17b	0.34315094
89	0xbdabe9f3	-0.08394232
90	0x3e9d71d8	0.30750918
91	0xbdb75618	-0.08951968
92	0xbe810fb0	-0.2520728
93	0x3eae053b	0.33988366
94	0x3e70c772	0.23513582
95	0xbe87d1b4	-0.26527178
96	0xbea6ef54	-0.32604468
97	0x3c18fb03	0.00933719
98	0xbeac212e	-0.33619064
99	0xbeeb65c6	-0.45976084
100	0x3dcc7178	0.0998258
101	0x3eba4ae1	0.36385253
102	0x3b8467a8	0.004040677
103	0xbed8112c	-0.422006
104	0x3e82ae49	0.25523594
105	0xbe9cd17e	-0.3062858
106	0xbeafbb24	-0.34322464
107	0xbe113206	-0.14179239
108	0xbe6ed633	-0.23323898
109	0x3e5911f4	0.21198255
110	0xbea2e8bc	-0.31818187
111	0x3edb5ab9	0.42842653
112	0x3e7a64a0	0.24452448
113	0xbe0e22ee	-0.13880512
114	0xbedce520	-0.43143559
115	0x3ecba208	0.39772058
116	0x3e73155e	0.2373862
117	0x3ea7034c	0.32619703
118	0xbe169a98	-0.1470741
119	0xbead59dc	-0.3385762
120	0xbe0bb2ca	-0.13642421
121	0xbea3aa32	-0.31965786
122	0x3ec0ceeb	0.37657866
123	0x389ff535	7.627384e-05
124	0xbec3d914	-0.38251555
125	0xbec7f044	-0.39050496
126	0x3eafb1d6	0.34315366
127	0xbe8e8ca7	-0.27841684

model.2.weight f4 [1, 128]
0	0x3dfba879	0.12287993
1	0x3c9e9b01	0.019361021
2	0x3d297419	0.041370485
3	0x3d2791f2	0.04091067
4	0xbdee50fb	-0.116365395
5	0x3d8366af	0.0641607
6	0xbc1695d5	-0.009190996
7	0x3caa9043	0.020820742
8	0xbd161b38	-0.03664705
9	0x3e2763ed	0.16346712
10	0x3db8409a	0.08996697
11	0xbcd40496	-0.025881093
12	0xbd081841	-0.033226255
13	0xbd2c612d	-0.04208486
14	0xbd99de8e	-0.07513152
15	0xbd674edf	-0.0564717
16	0x3c80ed9a	0.015738297
17	0x3d0f82e4	0.035036936
18	0xbb31fc5f	-0.0027158482
19	0xbd73ec40	-0.059551477
20	0x3d411707	0.0471411
21	0xbdb10aca	-0.08644636
22	0xbda743e6	-0.081672475
23	0xbcd620dd	-0.026138717
24	0xbd40329e	-0.046923272
25	0x3c64c7a4	0.013963614
26	0xbc7805b9	-0.015138083
27	0x3d07915e	0.033097617
28	0xbd5d2640	-0.053991556
29	0xbd13f7ce	-0.036124997
30	0x3e67753c	0.22603315
31	0xbcc5c560	-0.024141967
32	0x3d9cbc4c	0.07653102
33	0xbd08267a	-0.03323982
34	0x3e0cd257	0.13752113
35	0x3c98228f	0.018571166
36	0xbdaab8b5	-0.08336011
37	0xbd20361d	-0.039114106
38	0xbcec5601	-0.028849604
39	0xbe21c399	-0.15797271
40	0x3e83bbce	0.2572922
41	0xbe50efab	-0.20403926
42	0xbda07dd8	-0.07836503
43	0x3dec7e59	0.115475364
44	0x3ca9f5ce	0.020747092
45	0xbcec5bf2	-0.028852437
46	0xbdba7189	-0.09103686
47	0xbe333e45	-0.17504223
48	0xbd4ca51f	-0.04996216
49	0x3cccef58	0.025016472
50	0x3d9476c8	0.07249218
51	0x3c306edd	0.010768619
52	0x3d902b71	0.07039536
53	0xb9cea13e	-0.00039411517
54	0xbd559b16	-0.052149855
55	0xbc96bfe8	-0.018402055
56	0xbd400479	-0.046879265
57	0xbd5c3bbe	-0.053767912
58	0xbc91e6b5	-0.017810205
59	0xbccb42c7	-0.024812115
60	0x3d153e0a	0.03643612
61	0xbccbdab0	-0.024884552
62	0x3e0c4a27	0.13700162
63	0x3d2b6739	0.041846488
64	0xbcd86447	-0.026415003
65	0xbd73fbec	-0.059566423
66	0xbe2557e8	-0.16146815
67	0xbcf40ec8	-0.029792204
68	0xbccde89d	-0.025135333
69	0xbd6ac5ae	-0.05731743
70	0x3db7cddb	0.08974811
71	0xbcf1bd63	-0.029509252
72	0xbb0f631a	-0.0021879137
73	0xbe331ada	-0.17490712
74	0x3be3c0a8	0.0069504566
75	0xbce2fdf2	-0.027708981
76	0x3e00e2d3	0.12586527
77	0x3d733559	0.05937705
78	0x3e27bc9c	0.16380543
79	0x3d92152e	0.07132946
80	0x3ce2056c	0.027590476
81	0x3d9aabc6	0.075522944
82	0xbc923028	-0.017845228
83	0xbe557726	-0.20846233
84	0x3d1290f5	0.035782773
85	0xbdcf9955	-0.10136668
86	0x3d76f1d4	0.06028922
87	0xbac8db67	-0.0015324176
88	0xbd49f206	-0.049303077
89	0xbdea7589	-0.11448199
90	0xbc964fe6	-0.018348645
91	0xbd8d0e09	-0.068874426
92	0xbd4c0c90	-0.049816668
93	0xbcb5c853	-0.022190249
94	0x3d8dea7c	0.0692949
95	0x3cb41dd6	0.021986883
96	0x3d20f9b5	0.03930064
97	0x3b6b94b7	0.0035946795
98	0xbdaf0965	-0.08546714
99	0xbda10527	-0.07862311
100	0x3d43ea06	0.047830604
101	0x3d3e4d44	0.046460405
102	0xbd9cc578	-0.07654852
103	0x3b6dc7a4	0.0036282325
104	0x3d6c5d5c	0.057706222
105	0xbd8fe3df	-0.07025885
106	0x3d331d63	0.043729197
107	0x3dadbfac	0.08483824
108	0xbe22b130	-0.15887904
109	0xbd9ac136	-0.07556383
110	0x3d064ede	0.032790057
111	0x3d324a7c	0.043528065
112	0x3a184799	0.0005809009
113	0xbe137d10	-0.14403176
114	0xbc808d2b	-0.015692314
115	0xbdbdd0d9	-0.0926835
116	0xbcb893a6	-0.022531342
117	0x3c3af167	0.011410094
118	0xbd538da4	-0.05164875
119	0xbca7c3c4	-0.02047909
120	0x3db138ac	0.086533874
121	0xbcfec530	-0.031099886
122	0x3da7bbb2	0.08190097
123	0x3c792380	0.015206218
124	0x3d6ae33e	0.05734562
125	0x3cdb4f6a	0.026771266
126	0xbaa5096d	-0.001259131
127	0x3dbe490e	0.09291278
