finals/neuralq3.pt (torch, 5208 bytes, 3 tensors)

model.0.weight f4 [128, 4]
-0.043400176 0.46963823 -0.10199329 0.42045164 0.21207723 -0.33468473 -0.3867036 -0.08855415
-0.25203332 -0.4011894 -0.4180744 0.10370337 -0.36184603 -0.3098371 0.13355148 0.184102
-0.14226823 0.0225027 0.15797246 0.39598173 -0.19522953 0.45887 -0.013233483 -0.39572662
0.026245544 0.19861422 -0.22060756 -0.027615784 0.4782436 -0.0014832821 -0.21249299 -0.2904022
0.17442036 -0.113216735 -0.15947185 0.24431665 -0.18993823 0.33904243 -0.42506015 0.087251686
-0.3392415 -0.12064659 -0.22659835 0.32967183 0.48203477 0.08536717 -0.045151804 0.14133891
-0.31386623 0.2444709 -0.4858053 0.10219836 0.41116247 -0.45418423 0.3742026 -0.010633085
0.32197753 -0.13416049 -0.13115074 -0.271484 0.49346912 0.50034815 -0.2912783 0.15935628
0.471112 -0.18747216 0.38678345 0.15011488 0.45123369 0.15288715 -0.15426652 -0.066073835
-0.35677332 -0.27277523 0.49506998 0.3604663 -0.05264465 0.3886445 0.35158724 -0.062343627
-0.31875998 -0.03552212 -0.12359009 0.45280418 0.09515788 0.146295 -0.47354266 0.23381317
0.20947197 0.32924518 0.24494112 -0.431923 0.38351446 0.37932268 -0.03312786 -0.48250446
0.44443566 -0.10489915 -0.43799666 -0.10331895 -0.16461267 -0.10196933 0.21514943 0.18763652
-0.281239 0.08951302 -0.09435547 0.21952161 0.06844401 -0.25665545 0.018689096 -0.36096406
-0.2365285 0.3962618 0.058062162 0.27126157 -0.21678634 -0.21952781 -0.11959486 0.41259336
0.26247135 0.44666493 0.47196317 0.3318843 -0.17734057 -0.30812734 0.36757404 0.4638195
-0.19185932 0.21626668 -0.49625066 0.008221676 0.18968509 0.12752599 0.0936743 0.43253943
0.37077087 -0.21253027 0.21195859 -0.36379474 -0.047106568 -0.03237698 -0.17209971 0.006137978
-0.19267024 0.3460784 -0.2755369 0.25646517 0.40266514 0.33385226 0.20636278 0.36944523
0.07155061 -0.453161 -0.3301825 0.0724625 -0.34464347 -0.3781676 0.40260863 0.48304558
-0.20712984 -0.39217758 0.26940334 -0.012829781 0.14914726 -0.4312321 0.22144158 -0.25230616
-0.2178989 -0.09742242 -0.07127559 0.44476223 0.2162085 0.32328817 0.48894793 -0.2971065
0.13714066 -0.17043324 -0.4043439 -0.05279418 0.43154845 -0.047660872 -0.12510602 -0.4006319
0.026469024 0.2689393 -0.24957259 -0.1726372 0.13886632 0.32815138 0.20757078 -0.4169827
-0.34500566 0.23942979 0.005306331 0.089473434 -0.052183945 -0.13651475 -0.55814785 0.2269217
-0.22822347 -0.48984724 0.10269165 -0.29630345 0.39450935 -0.14470889 0.47791457 0.27938932
-0.14458656 -0.4668411 0.3568132 -0.27247077 -0.47683972 0.1269849 0.21630979 0.4377507
-0.026222998 -0.10536699 -0.022538822 -0.48446485 0.24502546 0.23592404 0.36095014 -0.3149547
-0.061597828 0.044375535 0.030457502 -0.0052108066 -0.36458695 -0.26450062 0.33965564 -0.037413597
0.22327423 -0.43322828 -0.06278089 -0.38211915 0.20592488 -0.32209358 -0.36540446 0.21130218
-0.39220482 0.33990777 0.20207067 -0.030905511 -0.43739253 0.012438898 0.3979858 0.1940146
0.3494725 0.4270738 -0.0048753647 -0.12720777 0.09600836 0.3525788 -0.28953224 0.089609616
00000000: 62c4 31bd 6c74 f03e dce1 d0bd 7045 d73e
00000010: c62a 593e cc5b abbe 04fe c5be e15b b5bd
00000020: 830a 81be b268 cdbe d90d d6be 6f62 d43d
00000030: e243 b9be f8a2 9ebe b8c1 083e 3c85 3c3e
00000040: c3ae 11be 9557 b83c 88c3 213e 1ebe ca3e
00000050: 40ea 47be 02f1 ea3e 40d1 58bc ae9c cabe
00000060: e500 d73c 8761 4b3e f3e6 61be 7f3a e2bc
00000070: 58dc f43e b06a c2ba c397 59be 99af 94be
00000080: 409b 323e 2dde e7bd 974c 23be 252e 7a3e
00000090: 2b7f 42be f896 ad3e 7ca1 d9be 03b1 b23d
000000a0: 10b1 adbe 8f15 f7bd 6609 68be bfca a83e
000000b0: 43cd f63e fcd4 ae3d 19f1 38bd 26bb 103e
000000c0: 13b3 a0be 9456 7a3e 79bb f8be 604d d13d
000000d0: e383 d23e d68a e8be 7c97 bf3e 6436 2ebc
000000e0: 3dda a43e 5e61 09be 614c 06be f3ff 8abe
000000f0: fca7 fc3e d116 003f 6e22 95be 4b2e 233e
00000100: 9835 f13e b4f8 3fbe 7b08 c63e b7b7 193e
00000110: 1a08 e73e 738e 1c3e 0bf8 1dbe b851 87bd
00000120: feaa b6be 32a9 8bbe d079 fd3e 0a8f b83e
00000130: eba1 57bd 69fc c63e 3e03 b43e 085c 7fbd
00000140: 8234 a3be a47f 11bd cd1c fdbd f3d5 e73e
00000150: 22e2 c23d 5bce 153e 2f74 f2be b86c 6f3e
00000160: d27f 563e d392 a83e d8d1 7a3e 0325 ddbe
00000170: 025c c43e 9536 c23e 14b1 07bd d30a f7be
00000180: 128d e33e 5ed5 d6bd 1941 e0be e398 d3bd
00000190: 3990 28be 4cd5 d0bd 2250 5c3e ca23 403e
000001a0: 8ffe 8fbe 9a52 b73d 713d c1bd 46ca 603e
000001b0: 602c 8c3d 5868 83be e019 993c 48d0 b8be
000001c0: 8734 72be d4e2 ca3e 97d2 6d3d cce2 8a3e
000001d0: 3dfd 5dbe e6cb 60be 26ee f4bd 703f d33e
000001e0: a562 863e 44b1 e43e 28a5 f13e bdec a93e
000001f0: c498 35be dec2 9dbe aa32 bc3e c079 ed3e
00000200: c576 44be 0375 5d3e 9114 febe 35b4 063c
00000210: cf3c 423e 2c96 023e 50d8 bf3d cf75 dd3e
00000220: aed5 bd3e 89a1 59be ac0b 593e 4e43 babe
00000230: d1f2 40bd b99d 04bd e83a 30be 1721 c93b
00000240: 594b 45be 3031 b13e 2c13 8dbe 674f 833e
00000250: 202a ce3e afee aa3e c450 533e ed27 bd3e
00000260: 2089 923d b804 e8be ae0d a9be 3867 943d
00000270: 1c75 b0be 2f9f c1be b822 ce3e c051 f73e
00000280: d819 54be 80cb c8be 3cef 893e 0034 52bc
00000290: 0fba 183e 74ca dcbe 95c1 623e 462e 81be
000002a0: e420 5fbe 6885 c7bd f0f8 91bd e0b7 e33e
000002b0: c365 5d3e 0786 a53e 6257 fa3e 581e 98be
000002c0: 9a6e 0c3e 0d86 2ebe 2a06 cfbe b63e 58bd
000002d0: ebf3 dc3e 0c38 43bd cb1b 00be a01f cdbe
000002e0: 91d5 d83c 69b2 893e f58f 7fbe cec7 30be
000002f0: f932 0e3e 7503 a83e 6f8d 543e c27e d5be
00000300: 95a4 b0be 152d 753e bbe0 ad3b d93d b73d
00000310: d5be 55bd 86ca 0bbe c7e2 0ebf 2a5e 683e
00000320: 6ab3 69be 42cd fabe 0050 d23d 16b5 97be
00000330: 21fd c93e 912e 14be 38b1 f43e 1e0c 8f3e
00000340: 800e 14be cc05 efbe 38b0 b63e 4a81 8bbe
00000350: 5624 f4be 5408 023e 5080 5d3e dc20 e03e
00000360: 9dd1 d6bc a6ca d7bd 56a3 b8bc c70b f8be
00000370: f4e7 7a3e 1296 713e 75ce b83e be41 a1be
00000380: 014e 7cbd 1fc3 353d 0382 f93c 6abf aabb
00000390: 24ab babe a06c 87be 58e7 ad3e 003f 19bd
000003a0: 00a2 643e 19d0 ddbe 4493 80bd 1fa5 c3be
000003b0: f9dd 523e 73e9 a4be 4b16 bbbe 995f 583e
000003c0: 12cf c8be 6408 ae3e 9deb 4e3e 8e2d fdbc
000003d0: eaf1 dfbe 85cc 4b3c cbc4 cb3e c3ab 463e
000003e0: 0fee b23e 6ba9 da3e 86c1 9fbb c142 02be
000003f0: 08a0 c43d 3585 b43e 923d 94be 3f85 b73d

model.0.bias f4 [128]
-0.0095143 0.078871235 0.24711002 -0.432248 0.2010361 -0.37413543 0.49473372 -0.025599182
0.30111048 -0.22602351 0.19807471 -0.46855053 0.28861433 -0.006578758 0.15341808 0.49785808
0.41780502 -0.3310481 0.014023304 0.4139313 0.39528662 -0.3810329 0.3544012 -0.24037933
-0.14017133 0.48582897 0.46193683 -0.4031626 0.32685417 0.32594782 0.023559242 -0.4203574
0.0038385259 -0.3410344 0.10369954 0.27236772 -0.25402144 -0.2885425 -0.23305488 0.4769714
-0.4725284 -0.43726888 -0.47418952 0.3296486 -0.31783646 -0.14439777 -0.13313304 -0.19781137
0.0028345054 0.19921218 0.4118157 0.35233483 0.13695413 -0.38836563 0.42093372 -0.076160245
0.08292061 -0.17513764 -0.33542532 -0.13517623 0.12508726 0.31607544 -0.15779269 0.20033227
-0.12624502 -0.17878395 0.37484032 -0.13504334 -0.2410323 -0.4008319 -0.02958846 0.47354668
-0.14637235 0.30948964 0.04579999 -0.27996182 0.3626474 0.42659557 -0.20446008 0.28121164
-0.1601432 -0.20776612 0.26141495 0.009485327 -0.40820283 -0.21054566 -0.2512254 -0.27083838
-0.32723925 0.14326866 0.36681655 -0.3948179 -0.2781347 0.15312016 -0.27352864 0.30803642
-0.2644019 -0.09225261 0.49254876 -0.09226349 0.33828312 0.25517872 0.37696576 0.47610325
0.34461454 0.035765633 -0.4475851 0.48887458 -0.078508206 0.040199816 0.008901408 -0.24504106
0.48943248 0.35480335 0.3626054 -0.014997661 -0.44306988 0.29216406 0.08563814 0.180751
0.32951722 0.11057323 0.016516209 -0.067197025 -0.12822379 -0.3801381 0.2789039 -0.42682126
00000000: dee1 1bbc 3e87 a13d 690a 7d3e 9c4f ddbe
00000010: 68dc 4d3e ae8e bfbe bd4d fd3e 60b5 d1bc
00000020: 272b 9a3e b572 67be 19d4 4a3e dbe5 efbe
00000030: 42c5 933e 9f92 d7bb a119 1d3e 41e7 fe3e
00000040: 8aea d53e 237f a9be 00c2 653c ceee d33e
00000050: 0263 ca3e bf16 c3be 1374 b53e 0026 76be
00000060: 1389 0fbe 93be f83e fc82 ec3e 546b cebe
00000070: 6e59 a73e a2e2 a63e 50ff c03c 1639 d7be
00000080: c78f 7b3b 109c aebe 6d60 d43d c873 8b3e
00000090: 190f 82be d8bb 93be f0a5 6ebe 9835 f43e
000000a0: 3eef f1be b5e1 dfbe f8c8 f2be b4c7 a83e
000000b0: 76bb a2be 02dd 13be 0754 08be 108f 4abe
000000c0: 1cc3 393b 47fe 4b3e 82d9 d23e 3b65 b43e
000000d0: b43d 0c3e dcd7 c6be a084 d73e e7f9 9bbd
000000e0: 48d2 a93d 4857 33be debc abbe a36b 0abe
000000f0: e016 003e a4d4 a13e 6894 21be e723 4d3e
00000100: 6046 01be 2413 37be 12eb bf3e cd48 0abe
00000110: 2cd1 76be d739 cdbe 8063 f2bc b674 f23e
00000120: a2e2 15be 6d75 9e3e c598 3b3d 2857 8fbe
00000130: ecac b93e bc6a da3e fc5d 51be f9fa 8f3e
00000140: 94fc 23be a4c0 54be 2ed8 853e 5868 1b3c
00000150: f6ff d0be 4899 57be 9ea0 80be 54ab 8abe
00000160: e78b a7be 05b5 123e 61cf bb3e 9225 cabe
00000170: ac67 8ebe 88cb 1c3e f20b 8cbe f3b6 9d3e
00000180: b05f 87be f0ee bcbd 5a2f fc3e a4f4 bcbd
00000190: 7233 ad3e c9a6 823e a801 c13e cec3 f33e
000001a0: 5171 b03e fc7e 123d e029 e5be c54d fa3e
000001b0: e9c8 a0bd 90a8 243d 36d7 113c 0bec 7abe
000001c0: e596 fa3e c9a8 b53e 6aa7 b93e c0b8 75bc
000001d0: 0eda e2be 8796 953e 0d63 af3d ca16 393e
000001e0: 7bb6 a83e 3874 e23d 004d 873c 989e 89bd
000001f0: 194d 03be 76a1 c2be 7ecc 8e3e 5188 dabe

model.2.weight f4 [1, 128]
0.059025057 -0.0058043734 -0.05759971 0.026523707 0.11233733 -0.0023067181 -0.03938826 0.014770187
0.025898341 -0.01338089 0.041966178 0.005483578 -0.05002581 -0.087562904 0.06422315 0.115735054
-0.027885469 0.093742356 -0.057072416 -0.06375396 -0.09851931 0.20708711 0.055304065 0.00018915732
-0.053141132 0.15442654 0.006023795 0.0055863857 -0.13391918 -0.05814788 -0.09650422 -0.018993413
0.0037142632 -0.029877635 -0.074622646 0.02034432 0.07710887 -0.05894084 -0.0024127807 0.031812627
0.08175423 0.011513362 0.0047186664 -0.0100116795 0.177804 0.06026235 -0.03458181 -0.07270758
-0.091973305 -0.26330936 -0.012630984 -0.02715082 -0.064280316 -0.0058297836 0.0317453 -0.09371343
0.011692001 -0.08271946 -0.09591365 0.057214335 0.03429584 -0.04671565 0.09334145 -0.00014629184
-0.049178638 -0.087854534 -0.093811356 0.12689152 0.030731142 -0.08613872 -0.25321603 -0.013730037
0.069903366 0.04258492 0.026794204 -0.021005314 -0.057388466 0.014915751 0.08573219 -0.003634262
-9.4062474e-05 -0.063945755 -0.055533577 -0.05028448 0.077080496 0.047723055 0.2928338 -0.0069083637
0.10720749 -0.008968203 -0.08957891 -0.087051615 0.021501025 0.031967215 -0.059072558 0.06122301
-0.102504335 -0.10835762 -0.049687725 -0.0038431573 0.018507564 0.12757738 0.07819513 -0.06879604
-0.034811866 -0.08229301 -0.052932184 -0.024828307 -0.07486069 0.021244446 0.09242475 0.028073795
0.038883105 0.016389092 -0.039157797 0.0881996 0.0784979 0.08726102 -0.10704214 0.03851675
-0.047162738 0.042030342 0.07159387 -0.036707334 0.07847827 -0.037355404 -0.05159244 0.06787771
00000000: 42c4 713d 9d32 bebb aced 6bbd 3f48 d93c
00000010: 1d11 e63d 4f2c 17bb 9655 21bd a8fe 713c
00000020: c228 d43c 853b 5bbc bae4 2b3d 96af b33b
00000030: dde7 4cbd 2e54 b3bd 6d87 833d 8006 ed3d
00000040: 1170 e4bc fefb bf3d c4c4 69bd 7091 82bd
00000050: 7ec4 c9bd a50e 543e 8486 623d 8858 4639
00000060: 84aa 59bd fe21 1e3e 4163 c53b 000e b73b
00000070: 1c22 09be 792c 6ebd 01a4 c5bd 1398 9bbc
00000080: ff6a 733b f1c1 f4bc c2d3 98bd 22a9 a63c
00000090: 41eb 9d3d f36b 71bd be1f 1ebb f54d 023d
000000a0: c36e a73d 8aa2 3c3c 0b9f 9a3b 0708 24bc
000000b0: 4012 363e a7d5 763d a8a5 0dbd b6e7 94bd
000000c0: 805c bcbd 7cd0 86be 30f2 4ebc 656b debc
000000d0: 66a5 83bd c507 bfbb 5c07 023d d4ec bfbd
000000e0: ce8f 3f3c d268 a9bd 606e c4bd 9459 6a3d
000000f0: cb79 0c3d e958 3fbd cd29 bf3d eb65 19b9
00000100: 8a6f 49bd 14ed b3bd 2b20 c0bd daef 013e
00000110: e0bf fb3c 7f69 b0bd 88a5 81be f3f3 60bc
00000120: 7f29 8f3d 866d 2e3d 857f db3c 5613 acbc
00000130: 2b10 6bbd 3261 743c 5c94 af3d cc2c 6ebb
00000140: 6843 c5b8 fef5 82bd 2d77 63bd 19f7 4dbd
00000150: 61dc 9d3d 4079 433d 50ee 953e 8e5f e2bb
00000160: 9a8f db3d 5fef 12bc 2675 b7bd 1e48 b2bd
00000170: eb22 b03c 0ef0 023d 11f6 71bd fbc4 7a3d
00000180: cbed d1bd 9aea ddbd 5b85 4bbd 7bdd 7bbb
00000190: 2d9d 973c a5a3 023e c524 a03d f0e4 8cbd
000001a0: e396 0ebd 3d89 a8bd 6bcf 58bd bc64 cbbc
000001b0: 9050 99bd d508 ae3c 3049 bd3d 04fb e53c
000001c0: e443 1f3d 6b42 863c ed63 20bd fea1 b43d
000001d0: 82c3 a03d e8b5 b23d e938 dbbd bdc3 1d3d
000001e0: b72d 41bd 0228 2c3d cf9f 923d 6e5a 16bd
000001f0: 37b9 a03d fb01 19bd 9852 53bd 7803 8b3d
