finals/neuralq4.pt (torch, 5208 bytes, 3 tensors)

model.0.weight f4 [128, 4]
00000000: dcc7 6fbe 1894 08be 4c1d 623e 08c4 dfbe
00000010: 58a4 40be cca0 dcbe 68a8 efbe 8820 db3d
00000020: 4450 ed3e 95f9 cb3e c966 a6be ee4c 64be
00000030: 0caa 8fbe cf30 8f3d 38c6 8c3d 6745 90be
00000040: 0c79 45be 66f1 e8be 083e e53d 7c68 2dbe
00000050: 4086 dd3d 5b23 01bf 82f8 40be e3d8 c63d
00000060: 15fd 853e f542 99be 12e8 c23c dfb1 9bbd
00000070: f09b 31be 0074 dc3c a8f7 603e 8cc8 c73e
00000080: 4c2e 823d 1e57 bebe c944 d2be 0651 c7bb
00000090: c814 efbe 5884 f2bd e0e6 903c a8ae eebd
000000a0: 43ad 933e 1a36 173e 7e5d e63e 2567 d63e
000000b0: b9a2 87ba 2546 fbbc 5c1c 8a3e 825f 5a3e
000000c0: 17a0 a8be cd9d 903e 53c9 5ebe 1ec6 ddbe
000000d0: 8002 63bd b85d c3be fc44 643e ca30 c3be
000000e0: 5914 1dbe a5b2 82be 7919 bf3e c1d8 f53e
000000f0: 3ce1 8bbe 1328 063f 2202 b3be 72b9 dabd
00000100: 00e0 31ba 409b b6bc e06c afbc f042 b8be
00000110: fa86 30bd aee4 bb3e 5fa1 983e a518 cb3e
00000120: 0ab4 4d3e 0d11 9cbe b4ea b1be 0c1b b43e
00000130: ba5d 85be 36f7 c6be 6477 f1be 1e9a f4be
00000140: 04bd 583e ab0e cb3e 20ab 803e bd59 abbe
00000150: b76c c73c 39f6 d9be 4d80 52bd ef4e 863e
00000160: 3e9f 013d 73a2 03be b8f9 cb3e b029 b9be
00000170: 5d8e 943e 8f35 95bd dd24 2a3e 1b1a 8abd
00000180: 3167 663e 8457 df3e 8bbe a9bd 4ad4 dd3d
00000190: 0d76 853e d974 03bf 596c 033e 3742 03bf
000001a0: b2b4 b8be 7873 35be 3e60 f1be b835 f73e
000001b0: 087f f1be 3c4b 19be ba60 e93e fe06 af3e
000001c0: bdfb d4be 3e70 23bc cdd5 07be 7da5 bc3c
000001d0: 15d1 5e3e a84e b8be fd6d 8ebd efca b7bd
000001e0: 5958 303e 9fcf c73d ac5c c23e b972 54be
000001f0: d02b e9bd ae56 bebe b43c 833e 6eaf d3be
00000200: acbf 70be 8876 763e fcda edbe daa7 b6be
00000210: 9099 a9be 3798 c7be 419c 94be c1a8 513e
00000220: 3d18 113e e731 09bc 9dde 6abd 02df 8ebd
00000230: c8c9 87be de17 6e3e 5423 49be 4f42 cbbe
00000240: 3ca4 493e ea00 813d 3fe5 bdbe 81b3 383e
00000250: 3682 febb dfc5 873e d168 02be 8c05 6ebd
00000260: 6e26 de3d 72c8 f53d d36d 74be eac2 dcbe
00000270: 8226 f6be b809 b8bd d443 473e 64f4 eabe
00000280: 3aeb 32be 94c7 e2be 438d bc3e 672a 0dbe
00000290: 98f2 33be 66e3 1c3e 6b84 783e 6e09 39be
000002a0: 0faf 8d3e e0be e4be d606 c93d 43d0 e33e
000002b0: 8463 86be 6879 eb3d 2eef dbbe 382b c7be
000002c0: 3e29 bb3e ed28 46be 40c7 d6be eafc 9c3e
000002d0: a950 033c 4e0b a53e 46ab ba3e 9a40 52bc
000002e0: e8c4 edbe da52 bb3e dcba b2be ac76 46be
000002f0: 4cf7 273e bea9 40be 6b1e d7bd 7dad 78bc
00000300: f3e8 983d 0bb0 a93e 7d7d 13be a01b 903e
00000310: d43c f2be 0362 b93e 4fc6 b0be 12b9 ce3e
00000320: aed9 ce3e 3071 0abf 685e 33be 6348 d53d
00000330: eca6 6b3e 64d7 ce3e 6af4 f4be 9b48 a2bd
00000340: cb1b dabe 23bb 3a3d 5381 edbe 7a9c 65be
00000350: 1825 80be 5bfd cebe 3184 893e 665f 993e
00000360: 7c47 f0be 709d 2b3e 4447 9abe 662c e53e
00000370: eeba 37be f7a8 3ebe fb60 cb3e 73c6 de3e
00000380: 3ac5 efbe 6438 ba3e 184f b9bd 2458 03be
00000390: 2afc ab3e 1bb8 11be 7400 d53e 859f b63e
000003a0: ed4c ac3a e3e9 c43e 8bd1 b13e 2f45 8abe
000003b0: 776d f03e 3acb c23e 7fde c6bd 2bdf 1e3d
000003c0: d38b b4be 7330 fd3e 1698 c5be 27c9 77bd
000003d0: eed3 93be 6e76 983e 36b8 b1bd b35c f03e
000003e0: 20aa eabc 98f7 bebe 801b f03d e880 d33e
000003f0: 5e5b cc3e 6e51 1cbe cbec a9be 2aa8 d8be
-0.23416084 -0.13337743 0.22081488 -0.43704247 -0.18812692 -0.43091428 -0.4680817 0.10699564
0.463503 0.39838853 -0.32500294 -0.22294971 -0.28059423 0.069917314 0.06873745 -0.2817795
-0.19284457 -0.45496672 0.11193472 -0.16934389 0.10816622 -0.50444573 -0.18844798 0.097093366
0.2616965 -0.29933897 0.0237923 -0.076022856 -0.17344642 0.026910782 0.21969473 0.39020193
0.06356487 -0.3717584 -0.41068104 -0.006082657 -0.46695542 -0.11841649 0.017688215 -0.11654407
0.28843126 0.14766732 0.44993204 0.41875568 -0.0010348178 -0.030673096 0.2697476 0.21325496
-0.3293464 0.28245392 -0.21756487 -0.43315214 -0.055422306 -0.3815744 0.2229194 -0.3812316
-0.15339793 -0.2552692 0.37324122 0.48016933 -0.27320278 0.524049 -0.34962565 -0.10679902
-0.0006785393 -0.022290826 -0.02141422 -0.3598857 -0.043097474 0.36697906 0.29810616 0.3966724
0.2008821 -0.3048176 -0.34749377 0.35176885 -0.2604807 -0.38860482 -0.471614 -0.47773832
0.21165854 0.39659628 0.25130558 -0.33466902 0.024343831 -0.42570665 -0.05139189 0.26232097
0.031646006 -0.12854938 0.39838958 -0.36164618 0.29014865 -0.07285606 0.16615625 -0.067432605
0.22500302 0.43621457 -0.08288296 0.108315066 0.26066628 -0.5135017 0.128343 -0.5127291
-0.3607536 -0.17719829 -0.4714374 0.48283172 -0.4716723 -0.14970106 0.4558161 0.34185022
-0.4159831 -0.009975491 -0.13265152 0.02302813 0.21759446 -0.3599751 -0.06954572 -0.089742534
0.17221202 0.097563975 0.37961328 -0.20746888 -0.1138531 -0.37175506 0.2563225 -0.4134478
-0.23510617 0.24068654 -0.46456134 -0.35674936 -0.3312497 -0.38983318 -0.29025462 0.20474531
0.14169402 -0.008373714 -0.057341207 -0.06976129 -0.26521134 0.23251292 -0.19642383 -0.39699027
0.19691557 0.062990025 -0.37088963 0.18037225 -0.007766987 0.2651815 -0.12735297 -0.05811076
0.10847174 0.120011225 -0.2387002 -0.43117458 -0.48076254 -0.08986229 0.19459468 -0.4588958
-0.17472544 -0.4429289 0.36826524 -0.13785706 -0.17573011 0.1532112 0.24269263 -0.18070003
0.27672622 -0.44676876 0.09815757 0.4449483 -0.262478 0.11497766 -0.42955917 -0.3890016
0.36554903 -0.1935155 -0.4194889 0.30661708 0.008014836 0.32235187 0.36458796 -0.012832785
-0.4643929 0.36586648 -0.34908187 -0.19381207 0.1640293 -0.18814752 -0.10503849 -0.015178082
0.074663065 0.33142123 -0.14403339 0.28146076 -0.47312033 0.3620759 -0.34526297 0.40375572
0.4040045 -0.5407896 -0.17516482 0.10414197 0.23012894 0.40398705 -0.47842723 -0.07924005
-0.4259933 0.045588624 -0.4638773 -0.22422972 -0.250283 -0.4042767 0.26858667 0.29955596
-0.46929538 0.16759276 -0.30132496 0.44760436 -0.17942402 -0.18619142 0.39722428 0.4351078
-0.4683016 0.36371148 -0.09048289 -0.12826592 0.33590823 -0.14230387 0.41601908 0.3566858
0.0013145484 0.3845969 0.3473018 -0.27005908 0.46958515 0.38045675 -0.097104065 0.03878705
-0.35262927 0.49451026 -0.38592595 -0.06049457 -0.28872627 0.29777855 -0.086777136 0.46945724
-0.028645575 -0.37298274 0.11723995 0.41309285 0.39913458 -0.15265438 -0.3318847 -0.423158

model.0.bias f4 [128]
00000000: 6227 84be b047 173d 714c b3bd 4b6d 2d3f
00000010: a03a f6bd f69a e03e 1e89 a03e 9ae1 a7be
00000020: 6b2e 243e 6293 fdbe 2b75 aa3e 739e 693e
00000030: 9ea2 5d3c 345f 083e 6cbf cf3e e917 21bd
00000040: 48f3 f4be 7d88 9bbd 28f9 783e f633 e0be
00000050: 0746 843e e885 f73e aa30 513d 2c1b 21bf
00000060: a9f9 8e3e d810 95be dc09 bebe 6033 f9bc
00000070: 0a40 c93e 2115 be3e 0fa7 b4ba 506b 613e
00000080: c0a0 e2be 8442 963e 3a0a c83d ec76 753f
00000090: fff4 3f3e ab0a d93d 9c77 b23e 9092 473d
000000a0: 21ba 183f bf0f 2dbc 13f1 873e f87d bbbd
000000b0: 961d 3fbf bb11 b23d 74cf cdbe 1ff8 ba3e
000000c0: 8869 b9be a692 8d3d c3ca 8cbc b9a5 72be
000000d0: d256 cd3c ad2a 853e 7233 d7be 1f1b 2c3f
000000e0: b035 99be 60ed 6b3e 7a9c c43e fd6b 9abe
000000f0: 1cbd 873e 8e4c 7dbd 9012 2b3d bfed 273e
00000100: edae 6cbd 3487 ea3e 14d4 963e 7051 60be
00000110: 531e 293e 9d84 8b3d e997 ad3e 4cfd 1dbe
00000120: 30d3 633f 1a0e e03e 4bc9 c83e 11e1 833e
00000130: c48d d63e 4d67 4b3e c892 cfbd a651 aa3e
00000140: b77d a63e e0d7 85bd 6ea4 573e 9369 043d
00000150: c91c df3e 2946 0ebe 9913 b93e a049 3ebe
00000160: ed98 65be 965e 03be ef8b 21bd 2016 983c
00000170: 8f5c 36be 47a3 94bd 7446 e0be de3b 17be
00000180: ac58 3abe 004b dd3c c4ef a3be 0448 b53e
00000190: 6655 f83d b4a2 3c3e de68 8d3e 0b2a 033f
000001a0: 4cab 8bbe 2b9c b53e b688 84be 2d35 d6be
000001b0: 5582 02be b012 9ebe 00ac cbbe 82a3 c4be
000001c0: 1864 0cbe 583b e63e 4c85 e1be bc79 203c
000001d0: 17ce 853d 06f6 bfbd 97a1 843c 72e8 883e
000001e0: 6477 f5be d438 7fbe 7acb 223e d6d3 9ebe
000001f0: fe86 3ebe 704d 7b3e 54f2 6c3e 4c5d 29be
-0.25811297 0.0369336 -0.087548144 0.6774489 -0.120229006 0.43868226 0.31354612 -0.32789308
0.16033332 -0.49526507 0.33292517 0.2281435 0.0135275405 0.13317567 0.4057573 -0.039329443
-0.4784186 -0.075943924 0.24313796 -0.43789643 0.25834677 0.4834435 0.0510718 -0.62932086
0.2792485 -0.29114413 -0.37116897 -0.030420005 0.3930667 0.37125495 -0.0013782697 0.22013593
-0.44263268 0.29347622 0.097675756 0.95884585 0.18745802 0.10597738 0.3485688 0.048723757
0.5965901 -0.010562836 0.26551113 -0.09154886 -0.7465452 0.08694788 -0.40197337 0.36517426
-0.36213326 0.069127366 -0.017186528 -0.2369603 0.025065813 0.26009122 -0.42031437 0.67228884
-0.29923773 0.2303977 0.38400632 -0.30160514 0.26511467 -0.061840586 0.04176575 0.16399287
-0.05778401 0.45806277 0.29458678 -0.21906066 0.16515474 0.06812403 0.3390496 -0.15428656
0.8899412 0.4376076 0.39216074 0.2575765 0.41905034 0.19863625 -0.10135418 0.33265418
0.32517788 -0.065353155 0.21058819 0.032327246 0.4357665 -0.13893951 0.36147764 -0.18582773
-0.22421618 -0.1282905 -0.03944009 0.018565238 -0.17808746 -0.07257705 -0.4380375 -0.14768931
-0.18197888 0.027013302 -0.32018864 0.35406506 0.121256635 0.18421441 0.2761907 0.5123603
-0.27279127 0.3547071 -0.25885552 -0.41837445 -0.1274503 -0.30873632 -0.39779663 -0.38405997
-0.13710058 0.4496715 -0.4404701 0.009794649 0.06533449 -0.09373097 0.016190333 0.26739842
-0.4794265 -0.24924022 0.15897933 -0.31020993 -0.18606183 0.24541259 0.23139316 -0.16539496

model.2.weight f4 [1, 128]
00000000: 4e32 f23c c16a 7abd 1ce9 db3c 0253 f5be
00000010: 1e8a 7fbc 323c abbc bbf0 a83d a613 75bd
00000020: 15ff f63d b612 9d3d 46f3 553d 2be4 14bd
00000030: d7b9 b83c b705 863d 437f c6be c2fe 043e
00000040: 69e9 68bd b46b 4fbd badf 38bd 7e50 0cbd
00000050: 6ff1 ba3d 18a4 903d 88fa 963d 4633 76be
00000060: 51e7 8d3d d6ec c1be 7bcc b1bd 08e1 77bd
00000070: 6509 efbd f3d5 8e3d e25a 0fbd 79f6 2ebd
00000080: 0441 6f3d a9d1 a7bd 89e0 933d cfbc 463f
00000090: 7dbc 39bd 9c71 6b3d 7524 073c c1a7 b2bd
000000a0: 31a9 d2be 8dd4 883d 9471 e8ba c448 f03c
000000b0: 4b90 fabe ff24 243b 439d 3ebd f44f c137
000000c0: 7330 5cbe 067f 863d e0bf 1a3e f55d 80bd
000000d0: 0068 a33c 3e68 533d e919 803d 564f 143f
000000e0: a729 4ebc e1e2 e33d bc6e 6ebd a3c2 2c3d
000000f0: 82c0 c8ba ab89 d53d 2a04 9ebc 36d7 e23c
00000100: db25 d63c 474a 8abe d708 96bd 2fd2 4dbd
00000110: 5a7b 66be 704f 72be e320 04bd 726d e83b
00000120: c1fb 4c3f 5d49 6f3b 7fd2 a9bd 16bf da3d
00000130: 89b9 133d 8dab 1ebd 56c8 5abc 7e95 a3bb
00000140: 94f1 5e3c 51cd 993c 2abc 71bd 1230 623d
00000150: 0f58 953d 5321 86bd b1f4 b43d 39d2 19bd
00000160: 8694 74be 1be2 a23b dd56 563d 406c a5bc
00000170: 30c5 8dbd b6f6 383d f85b a4bc e007 4e3c
00000180: fb03 1b3d c4c7 f73c 6035 243d 282f 6f3d
00000190: 8508 cebb 5eb1 88bc a1df 5abc fb92 26be
000001a0: 8de7 373c e403 6dbd e512 693d 4f3c 86bd
000001b0: e506 b6bd fe51 28be e4a7 a5bd 074e 83bd
000001c0: 14b8 29bd 3507 29bd 28e6 8ebe e8e4 f0b9
000001d0: 0cfb febc 0301 103e e31e ec3c 5bb0 7d3c
000001e0: 300d 8c3d f22f d3bc 9375 8abe 669c a3bd
000001f0: 8e7e be3c b5ce 70be 2679 963d 3ad8 debc
0.029565003 -0.061136965 0.026844554 -0.47914892 -0.015596895 -0.020902727 0.08249041 -0.05983319
0.12060372 0.076695845 0.052233957 -0.03635041 0.022549553 0.06544059 -0.38768968 0.12987807
-0.056863222 -0.050639823 -0.045135237 -0.03425645 0.09128081 0.070625484 0.07372004 -0.24042997
0.06928886 -0.37876004 -0.0868158 -0.06051734 -0.11671714 0.06974401 -0.034998782 -0.042715523
0.058411613 -0.081942864 0.07220561 0.7763185 -0.045345772 0.057481393 0.008248438 -0.08723403
-0.41144708 0.06681166 -0.0017734044 0.029331572 -0.48938212 0.0025046465 -0.046536695 2.3044624e-05
-0.21502857 0.065671965 0.15112257 -0.06267921 0.019947052 0.051613085 0.06254942 0.5793356
-0.012583173 0.11127258 -0.058211073 0.042177808 -0.0015316161 0.10426649 -0.019289095 0.027690511
0.026141098 -0.27009794 -0.07325905 -0.050249275 -0.22507992 -0.23663116 -0.032257926 0.007093125
0.80071646 0.0036512234 -0.08292102 0.10680978 0.036065612 -0.038737822 -0.013353428 -0.004992186
0.013607401 0.01877466 -0.059017338 0.055221625 0.072921865 -0.06549325 0.08835734 -0.037554
-0.23884782 0.0049708015 0.052328933 -0.02019322 -0.06922376 0.045157157 -0.020063385 0.01257512
0.037845593 0.030246623 0.040089965 0.05839458 -0.0062876367 -0.016686138 -0.013358981 -0.16267006
0.01122464 -0.05786504 0.056902785 -0.06554472 -0.08888034 -0.16437528 -0.08088663 -0.06411367
-0.041435316 -0.04126664 -0.2790997 -0.00045946916 -0.031125568 0.14062886 0.028823322 0.015483941
0.06838453 -0.025779698 -0.27042827 -0.07988815 0.023253705 -0.23516352 0.07347326 -0.027202714
